src/model_fold_3.pth (torch, 201910 bytes, 36 tensors)

convs.0.convs.<subject___has_region___region>.lin_rel.weight f4 [64, 64]
00000000: f853 99bb 050a b73d 0745 c9bd 70f6 573d
00000010: cbb2 b13d 577e 8fbd 622e 1f3c 080b 74bd
00000020: 718b 24bd 1b56 e73d f55e 1c3d 58c1 a83d
00000030: a14b 66bc 5637 52bd ac70 3f3c 5b4f 2c3d
00000040: 8f2c abbd 60ea adbd e89a 793b fb97 873d
00000050: 229f 65bc 825e 113e 0063 70b9 08f9 a93c
00000060: 10e1 fd3c f890 9c3c 57d4 113e f1c0 fdbd
00000070: abff 993d d19e c7bd 0233 8b3d 484b 9bbd
00000080: c4ad ae3b 5ece 843c de66 c13d 38c7 4dbd
00000090: 81c9 99bd d653 adbd 295b 3dbd 520a 353c
000000a0: 1292 65bd 89a4 353d 9f08 c03c c52b bfbd
000000b0: efdc 5c3d e6c0 51bd 07b9 c13c df8f 09bd
000000c0: ef25 c6bd 9816 91bd a81d 2dbc 1c13 b8bd
000000d0: 883c 11be 6ca0 5f3b a634 ae3d 7867 56bd
000000e0: 27f6 cf3d ea79 9a3c f954 fdbd b863 6e3d
000000f0: 71f3 b43d fa06 efbb d895 cebc ac09 9abc
00000100: 7ea3 dbbd 8253 f8bd b053 a3bd ee4a f8bc
00000110: aad4 6cbc c8bc 993d 56b4 c43d f674 f8bd
00000120: d1c0 8bbd b997 bfbd 1634 b6bd 61d1 aebd
00000130: 9fd5 fbbd f639 2f3d f7dc cb3d d727 973c
00000140: 005b 723d 19c3 8cbd 0b20 0fbd 1e7e 883d
00000150: 95d2 2a3d b167 043e e05a 683a 330b 333c
00000160: cde1 e8bd 374c d7bd 4d21 c7bd afcc cd3d
00000170: 3621 b83d 00bb fc3d f8ef 423d 76a4 6d3c
00000180: a054 8c3d 2b5c 99bc e836 f03b 91ee a23d
00000190: 4234 8fbd 82e8 ca3c b8ed 883d b351 cabd
000001a0: f58a dcbc 0ade a1bd f2db b9bc ba8f debd
000001b0: 901e 6e3d 3421 b93d edda 87bd 2ad3 e1bd
000001c0: c49e aebd 3dba a3bd d829 0fbd 64f9 50bd
000001d0: 0e0d 04bd 33df 0e3c 5573 bbbd 9921 dabd
000001e0: aa43 d0bc d071 03be a452 6cbd 836b bcbd
000001f0: 1033 ecbc 4451 043e 6dfb 773c 2ff4 743c
00000200: 7d1e 933b 25d4 d73d 76ca 2cbd 5e28 bebc
00000210: b0a5 323d 7e97 983c 3329 5e3d dcec 103d
00000220: 3403 cabd 3861 88bd 7f88 acbd e0fc ca3d
00000230: 81dc 80bd 259f 11bd bdfb d6bd d61c 653c
00000240: 1abd b9bc d265 f5bd f67d ac3c 8843 18bd
00000250: b140 46bd 9e95 eabc 2e5a f3bd 810d 88bc
00000260: 87fe b5bd a754 933d bb17 a0bd 9266 86bc
00000270: d66c 4f3c a230 47bd f3c5 703d 087f 32bb
00000280: 139c bbbd dd5c a7bc 94a3 143d 9a89 b5bd
00000290: c2f3 0ebc d8b0 15bc ceae e0bd 02e8 c2bd
000002a0: 12de d63b b203 183d 24b4 553d 7c35 c3bd
000002b0: a2ee b63c d95e 8ebd e6b8 f7bd 62f3 8cbc
000002c0: 94bf 3bbc 9d85 1a3d e64f 313c 8e63 24bc
000002d0: 9c2a 673d d940 75bd 1b80 aabd 4088 b3bc
000002e0: fe7a 10bd 0682 c23d f0d8 87bc c1a4 55bd
000002f0: 3dcb b1bd 7c43 b33c 167e b1bc 5125 2dbd
00000300: 9c6e abbd b377 92bd abeb d3bd 9394 8a3c
00000310: 433e ca3d 2671 31bd b9fc 7cbd 06c7 95bd
00000320: bb5d 6abd f9ae e63d a9fc ddbd 28dd ed3d
00000330: 7671 c1bc 9c52 b9bd 2813 47bc 3f0b 273d
00000340: daa2 203d 644a a7bd ddf4 d5bd 478a 5bbd
00000350: 4652 903b a8d5 c2bc f341 c03d ab61 8c3d
00000360: 7bb1 07be fab5 05be 1679 12bc f186 293d
00000370: be6f 93bd e5c5 3b3d 3f93 623d 1c67 693c
00000380: bc56 a93d 3b86 eebd 2ea0 eebd 144a e1bd
00000390: 4761 bc3d 443e d13d e3f5 18bd 3990 613d
000003a0: 2c0b b13d 1421 e7bd 1a75 e1bc d60e 933d
000003b0: fb22 b43d 6a51 05bc da20 81bd f542 95bd
000003c0: 438e 97bd 64c3 8bbd c6ab 903a 4d8d b43d
000003d0: 4252 dc3d 6aea 04bd 76ae 93bd 0017 d93d
000003e0: bffc a93d 8448 d53d 4a45 a23c aa4d ccbb
000003f0: 4c66 a53c fbbe fd3d 4ac7 84bc fdf2 173d
-0.0046791993 0.08937458 -0.09827619 0.052725255 0.0867668 -0.07006519 0.009715648 -0.059580833
-0.040172044 0.1129572 0.038176496 0.082400024 -0.014056117 -0.051322304 0.011684578 0.042067867
-0.08358108 -0.08491969 0.0038086716 0.06620785 -0.014014991 0.14196208 -0.00022925064 0.02074863
0.030991107 0.019112095 0.14241157 -0.12390316 0.07519468 -0.09747089 0.06796838 -0.07582718
0.005330773 0.016211685 0.094434485 -0.050238818 -0.07509137 -0.08463256 -0.046229515 0.011049824
-0.056047507 0.044346366 0.02344161 -0.0933452 0.053921636 -0.051209353 0.023647798 -0.03358447
-0.09675204 -0.070843875 -0.010566153 -0.0898802 -0.14183247 0.0034122718 0.08506136 -0.05234477
0.10154372 0.018856961 -0.12369723 0.058200568 0.08835495 -0.007294533 -0.025217935 -0.01880344
-0.10724543 -0.12125303 -0.079749465 -0.030309167 -0.014455 0.0750671 0.09604709 -0.121316835
-0.06823886 -0.09355111 -0.08896653 -0.085360296 -0.12296604 0.042779885 0.09954255 0.018451614
0.059168816 -0.068731494 -0.034942668 0.0666468 0.041704733 0.1293018 0.0008863639 0.010927963
-0.11371193 -0.10512584 -0.097231485 0.10048806 0.089907095 0.12340355 0.047592133 0.014504543
0.068520784 -0.018720707 0.007330764 0.07955659 -0.06992389 0.024769071 0.06685966 -0.09878864
-0.026921729 -0.07903679 -0.022687886 -0.108672574 0.058134615 0.09039536 -0.06633554 -0.110266045
-0.08526376 -0.079945065 -0.034952015 -0.051019087 -0.032239012 0.008720207 -0.09152857 -0.106509395
-0.02542289 -0.12836385 -0.057696 -0.09200194 -0.028832942 0.12921625 0.015135628 0.014950796
0.0044897185 0.1053851 -0.04218527 -0.023212608 0.043615043 0.018626925 0.05423851 0.035382137
-0.09863892 -0.06659168 -0.08424472 0.09911513 -0.06292058 -0.035552163 -0.10497234 0.013983926
-0.022673178 -0.11982311 0.021056157 -0.037173778 -0.04840154 -0.028635796 -0.11882435 -0.016608002
-0.08886438 0.071938805 -0.07817026 -0.016406331 0.012660226 -0.048630364 0.05878253 -0.002723636
-0.09160628 -0.020430023 0.036288813 -0.08864136 -0.008725109 -0.009136401 -0.10970841 -0.09516908
0.0065572346 0.0371129 0.05217375 -0.09531686 0.022330586 -0.069516845 -0.120958135 -0.017205898
-0.01145925 0.03772508 0.010822272 -0.010033501 0.05643712 -0.059876297 -0.083252154 -0.021915555
-0.035273544 0.09497456 -0.016582936 -0.052159075 -0.08681343 0.021882765 -0.021666568 -0.042271916
-0.083707064 -0.07151737 -0.103476845 0.016916549 0.09875157 -0.043320797 -0.061764453 -0.07313351
-0.057218295 0.11263842 -0.10839207 0.11614448 -0.023613673 -0.090489596 -0.012150563 0.04078221
0.039217807 -0.08168486 -0.104470946 -0.05359867 0.004404339 -0.02378352 0.09387579 0.06854566
-0.13251297 -0.130577 -0.008940002 0.041388456 -0.071990475 0.045843024 0.055316206 0.014245775
0.082684964 -0.11646696 -0.116516456 -0.110004574 0.09198242 0.10216954 -0.03734387 0.055069182
0.08644709 -0.11285606 -0.027521659 0.07180564 0.087957345 -0.008137086 -0.06305094 -0.07288162
-0.07400181 -0.06824377 0.0011037521 0.088160135 0.10757877 -0.032450117 -0.0721101 0.1060009
0.083001606 0.10414222 0.01980843 -0.006234844 0.02019038 0.12389942 -0.01620831 0.037096966

convs.0.convs.<subject___has_region___region>.lin_rel.bias f4 [64]
00000000: 2682 f13c 552e 6d3c 5c36 69bb f010 aebc
00000010: 7070 bc3b 1bb2 a5bd 8aa8 13bd 0954 8cbd
00000020: 3e51 46bd 1c9b d23d a880 04bc f869 563d
00000030: 45fe a3bd 01d3 9abd 104c 173b 5490 3bbb
00000040: 0e7b 54bd 12c3 81bb 7050 8d3a 1826 c23d
00000050: 0a38 933d e0c2 9cbd 6d2d 903d af81 7dbb
00000060: 2765 be3d 7a20 4ebd 00fe acba 1024 043d
00000070: dc26 c8ba 24c5 053d fc96 85bb 023e 5e3d
00000080: 5286 b93d 687e 183d 3c9b c83d 4755 c73c
00000090: ea8a dd3c 5166 433d f57d a5bb dcf0 af3d
000000a0: 8076 583a 1089 7a3d 6008 82bc c1a4 6ebc
000000b0: 294f 173d 15fc e1bc 5a69 6bbd de99 0d3d
000000c0: 98f7 b7bc d91f 963c 8c00 153c e224 87bd
000000d0: 12cf 883d 8a27 163b 0a8e d2bd 87e2 743d
000000e0: b6c5 463d 1440 24bb 0079 b63d db5b ca3c
000000f0: ba21 be3d 3f3a a6bd 83f9 8cbb 09a9 cbbd
0.029481005 0.014476378 -0.003558538 -0.02124831 0.0057507083 -0.080906115 -0.036049403 -0.06851966
-0.048417322 0.10283491 -0.008087315 0.052347153 -0.080074824 -0.07559777 0.0023086108 -0.0028619962
-0.051875167 -0.003960022 0.0010781419 0.09479922 0.07188423 -0.07654357 0.07039914 -0.0038682034
0.09296637 -0.05032394 -0.0013198256 0.032260954 -0.001527037 0.03265871 -0.0040768366 0.054258354
0.09058823 0.037229925 0.097952336 0.024332656 0.027043778 0.047705 -0.0050504156 0.08590862
0.0008257404 0.06116587 -0.015873134 -0.014565648 0.036940727 -0.027586022 -0.057473518 0.034570567
-0.02245693 0.018325733 0.009094369 -0.06598832 0.066801205 0.002291175 -0.10280998 0.059786346
0.048528396 -0.0025062608 0.08909798 0.024702003 0.092837766 -0.08116578 -0.004302205 -0.0994435

convs.0.convs.<subject___has_region___region>.lin_root.weight f4 [64, 64]
00000000: 87ac 1c3c b5d7 e9bc 00cf d23d e388 45bd
00000010: 8a33 82bd c94f 5c3d d547 47bd a968 973d
00000020: 4e1f 71bd 5df1 17bd ae4e c23d b45f b43c
00000030: 646e 223d c77d a73d c7e3 94bd bdb6 84bd
00000040: 42cf c03c 9812 cc3d b0c9 c0bc 0095 8eb8
00000050: 2e40 163d dc98 d33d 692e 8e3d 200c 86b9
00000060: 91b3 80bd 0146 6dbd ef1b 7a3c 5889 d8bb
00000070: 14f4 85bd dd8f 8a3d f41c 25bd dceb 213d
00000080: a81c 973c d3da d1bd 3756 c73c b490 ec3b
00000090: 26df 38bd 53ac 3bbd bfe6 903d 41df f03d
000000a0: 3093 ae3d c444 143d d9ea b13c afdd 34bd
000000b0: 4684 83bc 6761 8cbd 86df 723c a416 a6bd
000000c0: 4f6d 013e af85 4e3d 2d87 203d ef63 853d
000000d0: 0c18 51bd c499 283d b942 bbbd 7996 913d
000000e0: db22 7fbd 7803 b63d e5a4 ba3d 639b 033e
000000f0: 85a2 fe3d 4a18 89bd c267 41bc 3016 00be
00000100: b4c7 8a3d b476 b2bd 7e84 16bd 5032 cd3b
00000110: 4efa f73b b84d 0c3c e93a 743d b807 fd3d
00000120: 1f5c 00be d079 af3d dc7b 87bd 5688 5c3d
00000130: 5ac0 e9bd a86b 0bbd 5c21 843d 160c d63d
00000140: 82b4 d1bd d25f febd ca4f fa3c cd56 833d
00000150: 20e2 8fbc 88a7 0ebd 4410 82bd e295 d73c
00000160: b3bf 9f3d a0a9 4aba 11f3 273d 0e2c 98bd
00000170: 4e38 5d3c e2f9 b33d 88b8 183c 3815 9ebd
00000180: 3cab 56bb b527 a2bd 8647 003b abb3 8d3d
00000190: 48a9 dabc 809f a8b9 60fd 3d3b a0d1 31bd
000001a0: d157 c33b 610e 8f3d 581b ebba c829 f43c
000001b0: 162d cc3d d266 8bbc f18e 91bd 6fb2 4fbd
000001c0: 118a a53d 7df0 81bd 0248 b13d 7275 bd3d
000001d0: 644d ca3d c244 dbbb 3ef8 82bd a1eb afbd
000001e0: 503d a63d 8902 c2bd a162 6e3d 12f6 053d
000001f0: 7d88 663d d96c d7bd 7456 76bd 0389 65bd
00000200: a768 98bd 2fa8 bcbd 33e4 dbbd f23b dbbb
00000210: ebc1 72bd 6734 d9bd 5cdb d5bd 0ba6 96bc
00000220: 3bca 303d bd8f 573d a642 2bbd f3cd aabd
00000230: 8d25 89bd 3f03 27bc b4b5 833d 7824 b23d
00000240: 0026 58bd 40d7 553d ce94 a43c f5ab cc3d
00000250: dc7a 033d 3a4e c63c 8fe0 c6bd fcbb 183c
00000260: 9ccc b3bc d21d 8ebd 761e 223d 8f7d ff3c
00000270: 2476 9a3c 5ba4 b7bc 665e 90bd d839 de3d
00000280: d33c 8cbd ab26 fabd 4c2a a63d b4b7 f73c
00000290: ac2e 283b 703b 8ebc d391 c7bd 523e c7bd
000002a0: 7421 8cbd 503f 03bd 8a49 853c 82b6 83bd
000002b0: 70a6 583d 2454 d8bc 19bb 323d 0fa4 ef3d
000002c0: a615 b2bd a177 053c 2e68 003e 5ced 853d
000002d0: 6a1a dbbc 4a6d 0e3d 2c78 b73d 55fd a73d
000002e0: f0e6 50bd 7a07 783d 26cd 48bd 2c53 083d
000002f0: 36e8 573b 8232 b6bd 8746 8bbd 012f 543d
00000300: 685c 34bc 968d b8bc 1ffe 2cbd ee7d 23bd
00000310: ecac cabd b6a9 97bd 8759 c9bc 1f8a c3bd
00000320: d6ca a53d 9208 f9bc 7f0a ddbd 0263 0dbc
00000330: 075c 6dbc 5230 d33d 312f e03c 30a9 993a
00000340: eed8 85bd c0ba d33d e24a bebd 884c 663d
00000350: a91c 003e a4bf f73c 435d 90bc 8b9d 973d
00000360: de93 ce3d 3990 bc3d 5e0f 793d e36d fcbd
00000370: 86fe cebd 6b94 9a3d 9477 9e3c e1ad a23d
00000380: c113 c5bd 012b a3bd be00 4dbd 9bbe b1bd
00000390: f4e9 bebd daa4 a7bd c1e4 d63d 4930 d9bd
000003a0: 52e8 cdbd 8786 f8bc c70b 143d 1c3d b2bd
000003b0: 7b36 023d 37ba 813d 62c0 75bc c0fc 81bd
000003c0: 406d 5abd 58c0 dd3d c47d cd3c caa3 d1bd
000003d0: 712e 8a3d 53d3 81bd c53a 5b3d 7bae 833d
000003e0: 3e19 ce3d 0010 8f39 b040 cbbb b736 c2bd
000003f0: 6741 abbd 9ec2 ab3d 6e36 013e 8032 c9bc
0.009562618 -0.02854524 0.10293388 -0.04822625 -0.063574865 0.053787027 -0.04865249 0.07393009
-0.058867745 -0.037095416 0.09487663 0.022018291 0.039656058 0.08178287 -0.072700076 -0.06480167
0.023536328 0.09964484 -0.023533672 -6.798841e-05 0.0366823 0.1033189 0.06942446 -0.00025567506
-0.062842496 -0.05792809 0.015265449 -0.0066081695 -0.06540695 0.06765721 -0.040310815 0.039531574
0.018446282 -0.102468155 0.024333103 0.0072193984 -0.045134686 -0.045818638 0.07075261 0.11761332
0.085241675 0.036198393 0.02171843 -0.044156726 -0.016054284 -0.068545155 0.0148238 -0.08109787
0.12639354 0.05042046 0.039191414 0.065132014 -0.051048324 0.041162267 -0.09143586 0.071087785
-0.0622891 0.0888738 0.091134824 0.12852244 0.12433342 -0.06694086 -0.011804523 -0.12508464
0.067763716 -0.08714047 -0.03674745 0.0062621012 0.0075676804 0.0085634515 0.059626494 0.12354988
-0.12535141 0.08568156 -0.06615421 0.053840958 -0.11413641 -0.034038216 0.06451675 0.10451524
-0.10239507 -0.1242062 0.030555625 0.0641304 -0.01756388 -0.03482774 -0.06350759 0.026316587
0.078002356 -0.00077309646 0.04100329 -0.07430278 0.013502194 0.08787896 0.009321339 -0.07718891
-0.0032755872 -0.0791773 0.0019573881 0.069190346 -0.026692048 -0.00032162294 0.0028990135 -0.043412805
0.0059613963 0.069851644 -0.0017937226 0.02980508 0.09969537 -0.017016802 -0.07107342 -0.050707277
0.08082975 -0.063446976 0.086563125 0.092509165 0.09878042 -0.006691546 -0.06395005 -0.085898645
0.08117163 -0.0947314 0.05819953 0.032705374 0.05628251 -0.10518808 -0.060141042 -0.056038868
-0.07441836 -0.09211766 -0.10736885 -0.0066904956 -0.059266966 -0.10605698 -0.1044223 -0.018389722
0.043161612 0.052627314 -0.041811608 -0.08340063 -0.06696615 -0.010193645 0.064311415 0.08698362
-0.052770615 0.05220723 0.020090487 0.09993736 0.03209959 0.024207223 -0.097108 0.009322163
-0.021948151 -0.069392815 0.03957983 0.0311878 0.018855162 -0.022417238 -0.07049255 0.108508766
-0.06847539 -0.122144066 0.08113536 0.030238964 0.0025662584 -0.017362326 -0.09744611 -0.097286835
-0.06842318 -0.0320428 0.016270418 -0.06431295 0.052893102 -0.026407309 0.04363546 0.117012136
-0.08695535 0.008146198 0.12539741 0.06539413 -0.026745994 0.034772195 0.08958468 0.08202616
-0.05100149 0.060554005 -0.04902377 0.033282444 0.0032944805 -0.08896352 -0.068005614 0.05180264
-0.0110083595 -0.022528451 -0.042234536 -0.039915018 -0.098962635 -0.07405417 -0.024578823 -0.09547829
0.080953285 -0.030399594 -0.107930176 -0.008629562 -0.014487273 0.10311951 0.027366253 0.0011723395
-0.06535517 0.10338354 -0.092916265 0.05622533 0.12510933 0.030242749 -0.017622596 0.07403096
0.10086797 0.09207196 0.06080567 -0.12325647 -0.1010714 0.0754784 0.019344129 0.07943321
-0.096229084 -0.07967187 -0.050049536 -0.08678933 -0.09321967 -0.0818574 0.1049285 -0.10604913
-0.10054077 -0.030337585 0.036144044 -0.08703062 0.031790238 0.06334346 -0.014999481 -0.06347036
-0.053326845 0.10827702 0.025084384 -0.102363184 0.06747139 -0.06339135 0.053522844 0.06429764
0.10063408 0.00027287006 -0.0062027797 -0.09483092 -0.08362084 0.0838673 0.1261842 -0.024560213

convs.0.convs.<region___rev_has_region___subject>.lin_rel.weight f4 [64, 64]
00000000: 9061 bbbd 612e 353d 4cd0 bc3d 266c b3bb
00000010: bc3d 08bd cfa3 3abc 0bb3 c83b 1c2a 34bb
00000020: ac95 3c3d 282b a33d fe47 c4bb dce5 873c
00000030: f898 b8bd b616 563d 9ecf 9dbc e900 8fbd
00000040: 6b69 fd3c 4698 903d 29c3 93bd f90e 5b3d
00000050: 08e6 113c 23a6 02bc cc7e db3c 28dd b33b
00000060: 84c0 8b3c 8a88 f3bc 3c4c 433d bbb4 8f3d
00000070: d8d4 90bd 128c b7bd e9b8 89bd f864 963d
00000080: d209 89bc 0317 cebd 7eab 22bd f3f8 6c3d
00000090: c033 f5b9 0221 ac3d 3ef4 98bb 6e62 c93d
000000a0: d473 aabd 90d0 39bd 41d8 c7bd 4279 97bb
000000b0: f6fb 9e3d 0234 14bd 67ff c9bd 1136 d5bd
000000c0: 222e 54bc 7650 9a3d ff8e c43d eee6 86bd
000000d0: f7ea e4bc b8d8 243d de23 a1bd 4dce bfbd
000000e0: 12a8 34bd a5bd 89bb b6e1 6fbd fc76 273d
000000f0: 4100 19bd 08eb 113d 0448 a23d e939 babd
00000100: 50c4 ed3a 3b22 37bc bcda 4cbd 5ca6 63bd
00000110: ad56 9e3b e409 c63d 660a 9d3b d14a 05bd
00000120: 1e00 17bb 01cf 8b3d c24f 8c3b 685b cabd
00000130: 7ee5 bf3d 11ed 80bb 4251 0fbb 29ad 87bd
00000140: 2e2b ec3c 30aa 37bb 1965 47bd 64f9 b7bd
00000150: 3645 033d bf56 c4bd 8687 ff3c c7ca 393d
00000160: 724a 39bd 5968 42bc f63a 4ebd 4c08 adbc
00000170: 348c adbc 2c45 713d 15b5 403d 7e7f 76bd
00000180: a458 dabb 179b ce3d 9691 a4bb 53e2 d5bd
00000190: 221a a53c 7b1a 303d 76e9 513d 5016 37bd
000001a0: eb17 923d 23bf 153d 4b08 c9bd 88f8 84bd
000001b0: 7eb4 07bd 756f cb3d f2cf e93c 8c9e 5dbd
000001c0: 10a0 bfba 4519 54bd e08f 90bd 5834 72bd
000001d0: 92b2 4c3d eec2 c1bb df0f 53bb 3f70 4c3c
000001e0: 98c4 903d fe91 e43c a232 773d 5c26 a9bc
000001f0: 80e5 fdba 1280 e63c fdc6 913d c2ac e1bc
00000200: 6b3d dd3c 94e2 58bd b13e 8ebd 7ed6 cbbd
00000210: 2fd1 babd c599 6bbb 95dc b43d 04d2 cc3b
00000220: a229 95bc 9fde 92bb ed12 763d 09dc a7bc
00000230: a258 d2bd f89b 08bd 81ac b6bc 7af4 25bd
00000240: 2041 93bb c884 0abd b229 3abd 4bcd d1bd
00000250: eb10 653c ea7e 82bd 45e3 61bd 22a6 4fbd
00000260: 717a cd3c 63e6 b23d 25d9 a9bc 8ddd f0bc
00000270: 04b2 0abd 8540 29bd 7a9a 3f3c a04f f0bc
00000280: e2b1 91bc 72bd ab3d 10c1 d6bd 5fcf 85bd
00000290: 555d 1d3d b6e8 7a3d 6ee5 c43a 187a 3ebc
000002a0: b0c6 0b3b 06b7 aabd e13a bd3b 7af3 553d
000002b0: 9e58 b63c 623c eebc 3c45 bcbd 07bb 4e3d
000002c0: b2bc 463d 120f 49bd acbc c33d e3f8 3d3d
000002d0: 2458 663b 5e64 2a3d 6963 00bd 6644 86bd
000002e0: 2408 3d3d b2c2 b93d a0ab 8bbd 2c25 2fbd
000002f0: c3c7 81bc 92d7 aabb bacb 0b3d d441 98bd
00000300: a881 38bc c043 493d 8973 86bd ee5d a1bd
00000310: d511 21bd d6e1 85bb 8f72 b63d f48a 303a
00000320: eed2 863d b9ce 9f3d 1abc 183d befd bb3d
00000330: 1c5e 2c3d 8692 08bc c0e4 4fb9 5742 a2bd
00000340: 7d82 b63d 00f5 183d c95b 71bd be80 103d
00000350: 1e13 3ebd 3aa7 80bc 20a2 7bb9 92f8 b83b
00000360: 99be b53d 8823 563c 6b6f d03c 205b 873d
00000370: 6852 db3c 5051 ce3d cc6e 113d 2740 9cbd
00000380: fe95 d6bc 60b2 743a ea03 5cbd 1dcd 66bd
00000390: c8e6 d0bb 0834 863d 3c12 063d f046 0f3b
000003a0: 54a3 9d3a 05e9 b93d 4a90 c9bd 78ff a63b
000003b0: 0923 60bd 8c0a b8bd af7a 91bd 0f1e 863c
000003c0: 37cf 4d3d f413 763d 50ae c7bd 93f2 8c3d
000003d0: 2a9a e13c e829 243b 5426 64bd fa33 943b
000003e0: bf99 b5bd 0594 acbd 9e85 443d c2e2 7bbd
000003f0: 0042 acb9 823e 453c d932 0bbc 3bb7 513d
-0.09149468 0.044233683 0.09219417 -0.005475539 -0.033262 -0.011391594 0.006124859 -0.002749092
0.046041176 0.07967216 -0.0059900275 0.016589098 -0.090135515 0.052267753 -0.019264039 -0.069825955
0.030934056 0.07060294 -0.07214958 0.053481076 0.008904941 -0.00797418 0.02679386 0.0054890104
0.017059572 -0.029728193 0.047680125 0.070168935 -0.07071847 -0.08962263 -0.06724722 0.07343477
-0.016728316 -0.10062983 -0.03971433 0.057854604 -0.00046768598 0.08404733 -0.004667788 0.09833227
-0.08322874 -0.045364916 -0.09758044 -0.0046226094 0.077629015 -0.03618241 -0.09863167 -0.10410703
-0.012950452 0.07534878 0.09597587 -0.06587015 -0.027944071 0.04024574 -0.07868169 -0.093655206
-0.044105597 -0.0042035156 -0.058564864 0.040884957 -0.037353758 0.035624534 0.07923892 -0.09093077
0.0018140171 -0.011177595 -0.05001329 -0.055578575 0.00483211 0.09669855 0.0047924994 -0.032542054
-0.0023040841 0.06826592 0.004281969 -0.098807156 0.09369944 -0.0039345105 -0.0021868502 -0.066248246
0.028829183 -0.0028025024 -0.0486804 -0.08983114 0.032048427 -0.09586858 0.031192552 0.0453594
-0.045237012 -0.011865699 -0.0503492 -0.02112212 -0.021185018 0.058903858 0.047047693 -0.06018018
-0.006663399 0.10088175 -0.005022238 -0.104435585 0.020154063 0.042994004 0.051248036 -0.044699013
0.07133468 0.036559235 -0.09816035 -0.06492716 -0.033131115 0.09933368 0.028541539 -0.05410628
-0.0014619846 -0.05178191 -0.07058692 -0.05913195 0.049974985 -0.00591313 -0.0032205505 0.012477933
0.07068747 0.027901646 0.06035102 -0.020648174 -0.0019370764 0.02813724 0.07118032 -0.027548198
0.027006825 -0.052950457 -0.06945551 -0.099530205 -0.0912193 -0.0035949808 0.08831135 0.0062506218
-0.018208329 -0.004482105 0.060076643 -0.020490663 -0.102708116 -0.03335187 -0.022299053 -0.040516354
-0.0044938475 -0.033818036 -0.04544992 -0.10244235 0.013981084 -0.06371863 -0.05514838 -0.050695546
0.025082799 0.08735349 -0.020733425 -0.029402519 -0.033861175 -0.041321296 0.011694545 -0.029334843
-0.017785016 0.08385743 -0.104860425 -0.065336935 0.038419086 0.061257087 0.0015021989 -0.011625789
0.0021328144 -0.0833569 0.005774841 0.05223415 0.022259053 -0.029081527 -0.09192893 0.050471332
0.048519798 -0.049086638 0.09557471 0.046379935 0.003514775 0.041599624 -0.031344805 -0.06556015
0.04615034 0.09070338 -0.06819844 -0.04276006 -0.015842324 -0.0052136863 0.034129836 -0.07434431
-0.011261381 0.049136877 -0.06565005 -0.07879244 -0.039323647 -0.0040857596 0.08908569 0.0006734573
0.065832004 0.07803101 0.037288763 0.09179257 0.042081937 -0.008335715 -0.00019826274 -0.079228096
0.089116074 0.037343025 -0.058925424 0.035279028 -0.04640495 -0.01570474 -0.00023997622 0.0056448663
0.08874244 0.013069995 0.025443753 0.066091776 0.026772693 0.10074103 0.035506055 -0.076294236
-0.026194569 0.0009334441 -0.05371467 -0.056347955 -0.0063751675 0.06552893 0.032732233 0.002186235
0.0012026825 0.09077648 -0.09841974 0.005096372 -0.054720912 -0.08986387 -0.07103478 0.016371755
0.050246444 0.060077623 -0.09750044 0.06882205 0.027539331 0.0025049392 -0.055700615 0.0045227977
-0.08867215 -0.0842667 0.04797899 -0.06149555 -0.0003285557 0.012038829 -0.00849601 0.051200133

convs.0.convs.<region___rev_has_region___subject>.lin_rel.bias f4 [64]
00000000: 40d2 9e39 60b8 a43c 31ca acbb 00af f6bc
00000010: 6399 85bb c04a 5d3d 3f71 803b 705b 273d
00000020: ac37 393d a002 64bd 4474 b63b 920b 82bc
00000030: c709 87bd e6db b43b 64a7 ccbd 9784 b73d
00000040: 37a4 9bbd 5659 c23c e020 acbb d5b8 98bc
00000050: f9ed 353c 8b5e 723c 05c7 b3bd 9ee9 da3b
00000060: 0950 a13d ca46 c13d 101f 2ebd ac5b 4e3d
00000070: 0b40 99bd bd91 83bd daef 7cbd cb44 3e3d
00000080: b4c7 a03d 08e4 573b 69a0 c6bd 5175 353d
00000090: 7e8a 803d 20ca 93bc a0fb bc3d fc75 0d3b
000000a0: f2be 0e3d b68f 8bbd 7f59 70bd 2245 a0bc
000000b0: c6f8 92bd 99e6 b1bd 3a28 bcba c6dc 683d
000000c0: 3744 07bd 551b b53d 08d6 8e3a a01f c63a
000000d0: a442 44bd 410f ca3d 7fb6 783c ca97 1dbd
000000e0: c6c9 09bc 8c91 d6bd 3213 963d bad4 d23d
000000f0: 96df c9bd b41e 2fbd 88ef c03d 32db d4bd
0.00030292757 0.020107448 -0.0052731265 -0.030112743 -0.004077123 0.054026365 0.00391975 0.040858686
0.04521911 -0.055666566 0.005568059 -0.015874658 -0.06593662 0.005519378 -0.09992865 0.089608364
-0.07599681 0.02372424 -0.0052529424 -0.018642822 0.0111041 0.014793049 -0.08778194 0.0066806814
0.078765936 0.0943733 -0.042510092 0.050380394 -0.07482918 -0.06424282 -0.061752178 0.046452325
0.0785059 0.0032942314 -0.096985646 0.044301335 0.06276415 -0.018040717 0.09227681 0.0021585217
0.03485007 -0.0681452 -0.0586791 -0.019564215 -0.07176356 -0.08686561 -0.001435525 0.05685117
-0.03302404 0.08843104 0.0010897527 0.0015115626 -0.047915116 0.09866191 0.015180229 -0.038474835
-0.008409923 -0.104769796 0.0732788 0.102944806 -0.09857099 -0.04275389 0.09420687 -0.10393371

convs.0.convs.<region___rev_has_region___subject>.lin_root.weight f4 [64, 64]
00000000: 2d53 fabd 0899 b0bd 5a1e 993d 846a b6bc
00000010: 9482 58bd ef7a c63d b99f b5bc d2d1 fdbc
00000020: af15 56bd 04f5 443d 5bef 113d e3d9 e5bd
00000030: 5a42 b0bd fed8 a73d c141 343d ad77 b23d
00000040: 306f a53d c7d7 9b3c d022 8bbd 45b7 06bd
00000050: 45aa 583d 4c7a 8a3a 2ccf 843d c12f 08bd
00000060: 2286 e2bd 2249 813d 63b3 023d fee2 703d
00000070: 005e 7e3c ae32 59bd 9d7e 05be 7a66 673d
00000080: 42ca 51bd 57db 74bc c0b4 dbb9 370a ed3d
00000090: 1b05 3cbd 9ca6 ab3d 3ee5 6a3d e248 e9bd
000000a0: 9bf0 acbd e12e 593b feab bc3c 334e c53d
000000b0: 7956 a4bd 0c3e c2bb 52f3 9e3c c4c7 6bbd
000000c0: 6b46 263d 7199 35bc 189b 7fbb 296c 0ebe
000000d0: 2ad3 7abd 98fc b4ba ac30 e3bd f240 aebd
000000e0: e43d 02be 707a b43d 609f 963d 28e1 cd3d
000000f0: 1654 a6bd 4abb e2bd 361b ae3c e0aa 5ebd
00000100: e55d 8a3d eaa4 a43d 3f25 bbbd cf80 923d
00000110: 7ef8 d03d a1b6 aebd 76a9 ce3b 9c2e 843d
00000120: 006c fbba ac78 23bc 1a41 fdbc aeb1 41bd
00000130: daf1 b1bc cbcf 2c3d 6d3f e93b 1a20 d63d
00000140: 9802 aa3c 752d d33d d4bf 8fbd f2aa 88bc
00000150: ff15 523d da86 14bc e688 463c 7e66 bd3d
00000160: a4c9 60bb 7399 85bd 9d7f 10be 9aee 473d
00000170: 8f86 72bd 405a 81b9 a192 703d ba74 873d
00000180: 9678 383d 5a2e 453d aae5 843c 6257 d1bd
00000190: 71e6 eb3d f6b9 10be f89c 3d3d fd64 073e
000001a0: 98a1 87bd 74d7 6fbd 3dd3 4dbd a130 bc3d
000001b0: 6e15 ba3d f031 d8bc 9ce6 55bc fc10 81bc
000001c0: 2b96 23bd a8d6 86bc e26c 31bd 8894 abbc
000001d0: d3cd d73c 02dd f4bd f7cf 8ebd a793 943d
000001e0: 57a6 6a3b b435 f3bb be24 933d b08b 893c
000001f0: b610 383d b30f c23d b488 f43c 7eba a23d
00000200: 922b 6b3d 140b 3fbd 108d dd3d a952 a83d
00000210: 61a7 f3bc 2d71 9ebd f891 623d 67b8 cdbd
00000220: ce24 bdbd d91d a63d 9baf a7bd 3308 ee3d
00000230: bfab 1ebd ec38 da3d b5bd a4bc 3c98 e3bd
00000240: c24a d53d b827 6abd 7070 7ebc d28d cf3d
00000250: 1dc5 babd fc84 a83a 4a3f c23d 8ccf 633c
00000260: cfab 83bd aee7 023e 55bd 7a3d e208 d1bd
00000270: f574 5b3d 98dd 95bd 796a 9fbd 25d3 35bc
00000280: 827a c2bd e7b0 25bd ba75 413c e8c9 9ebc
00000290: f384 873d 1f86 69bd c6d9 57bd 928c 5f3d
000002a0: c8f5 cfbd cfc6 c3bd 084f 29bd dae8 513c
000002b0: 23c0 3e3d d7ca 07be 731f 3abd a931 b4bd
000002c0: ec42 083d f443 bcbd cebe 81bc 7451 123d
000002d0: cb99 c6bc 5298 9dbd c759 293d 2328 a7bd
000002e0: 3f68 cebd cae3 593d 43b7 6fbd af3b b7bd
000002f0: ca4d 79bd 6e33 873d 769f 82bc c4a2 d13c
00000300: caf9 a6bd ad88 c23d 4690 273d b56f 97bd
00000310: 8d95 bbbd 5548 c8bd 786a 5abd b0ce fabd
00000320: 95ef 863d 2827 eebd 7bc5 613d 0158 223d
00000330: a6f0 b1bd f31c d23c 2594 cabd b505 a53d
00000340: 8e0b b13d 8668 cb3d 3b5d cfbc ea4c a93d
00000350: e2ec 1fbd 27da 15bd 32b4 b33d 7807 013e
00000360: 748f e1bd 1ce2 813d 6abc 6ebc efa2 e2bd
00000370: 8cff c13d ed94 c03d b536 cc3d 95ca 42bd
00000380: 3567 f0bd 145b d63d 71dc 9cbd 171f dabd
00000390: 285b 9d3a 7d5b 8d3d fa5c 9d3d 78f4 84bc
000003a0: da06 bf3b 1315 d53d be08 0c3d b5c9 c83c
000003b0: 45cb d83c 8468 ae3d f869 9b3d 5223 bbbc
000003c0: 2e1d 133d 9563 ddbd 3f3b 583d 07de cd3d
000003d0: d62b 003e 4ef3 44bc 5de7 063e a625 12bd
000003e0: b93a 72bd b997 d3bd aded 8c3d 0440 afbd
000003f0: 7042 9d3a b984 d13c 5c82 823c bc9b b13d
-0.12222896 -0.086229384 0.07476492 -0.022267587 -0.052858904 0.096914165 -0.022170888 -0.03098384
-0.052266773 0.048085228 0.035628658 -0.11223199 -0.086064056 0.08195685 0.04400802 0.087142326
0.08077848 0.01902379 -0.06793749 -0.032889623 0.052896757 0.0010565012 0.064848274 -0.033248667
-0.1106074 0.06312777 0.031909358 0.058810227 0.015525341 -0.053026848 -0.1303658 0.056494214
-0.05121828 -0.014944873 -0.00041905604 0.11574214 -0.045903306 0.083813876 0.05734753 -0.113908544
-0.08444329 0.0033139514 0.023031231 0.09634056 -0.08024306 -0.0059278067 0.019403134 -0.05756356
0.0405945 -0.011083947 -0.0039002355 -0.13908447 -0.061236538 -0.0013808189 -0.11093268 -0.08508481
-0.12718922 0.088124156 0.07354617 0.10052711 -0.08121507 -0.11070879 0.02125321 -0.054362178
0.0675619 0.08039267 -0.091379635 0.071534745 0.10203646 -0.085309274 0.0063068224 0.064542025
-0.0019181967 -0.009977501 -0.030914832 -0.04728859 -0.02172177 0.042190354 0.0071181566 0.10455342
0.02075319 0.103114046 -0.0701901 -0.016683076 0.05129051 -0.009065354 0.0121176 0.092480645
-0.0034299875 -0.06523409 -0.1411118 0.048811533 -0.059210356 -0.0002467204 0.058733586 0.06614061
0.045036875 0.048139907 0.016222794 -0.10221745 0.115185626 -0.14133438 0.046292275 0.13222118
-0.066226184 -0.05855508 -0.05025028 0.09188963 0.09086119 -0.026391 -0.01305547 -0.01575517
-0.039938133 -0.016459778 -0.04331673 -0.020944849 0.026343262 -0.119562164 -0.0697326 0.07254725
0.0035804713 -0.0074221734 0.071847424 0.016790241 0.04493781 0.09475651 0.029850341 0.07945727
0.0574146 -0.046641424 0.10817921 0.08218891 -0.029742898 -0.0773643 0.055314988 -0.100449376
-0.092355356 0.08111162 -0.08187791 0.116226576 -0.03873801 0.10655388 -0.02010999 -0.11113021
0.104146495 -0.057166785 -0.015529737 0.10134472 -0.091196276 0.0012857015 0.09484728 0.0139044635
-0.06429254 0.12783691 0.061215717 -0.102067724 0.053578336 -0.07317656 -0.0778398 -0.011097704
-0.09496023 -0.04045191 0.011807853 -0.019383386 0.06617155 -0.057012673 -0.05269792 0.054577418
-0.10154301 -0.09559404 -0.041335136 0.012811864 0.046569955 -0.13260971 -0.04544015 -0.087985344
0.033266947 -0.091926485 -0.015838053 0.03572221 -0.024243256 -0.076950684 0.041345384 -0.08161952
-0.10078477 0.053195752 -0.05852438 -0.089469306 -0.0608652 0.06601606 -0.015945178 0.025590308
-0.08153112 0.09498725 0.040909074 -0.07394353 -0.09159384 -0.09779421 -0.053324193 -0.12246454
0.065886654 -0.11628562 0.055119973 0.03963471 -0.08688478 0.02564857 -0.098915376 0.08057729
0.08644782 0.09932046 -0.02531301 0.08266623 -0.03904427 -0.036585 0.08774604 0.12600505
-0.1101369 0.06341955 -0.014571289 -0.11066233 0.0947257 0.09403405 0.09971372 -0.04755648
-0.11738435 0.104665905 -0.07659233 -0.10650461 0.0012005316 0.06902216 0.076837495 -0.016229853
0.005829674 0.1040441 0.034188025 0.024510244 0.026464114 0.085160285 0.07588571 -0.02284399
0.0359165 -0.108100094 0.052790876 0.10052114 0.12516722 -0.012020899 0.13174196 -0.035680436
-0.059138034 -0.10331673 0.068812706 -0.08557132 0.0011997949 0.025575982 0.0159313 0.08672282

convs.0.convs.<region___is_functionally_connected___region>.att_src f4 [1, 1, 64]
00000000: 0fa2 613d f92a 813e c428 753e 68f0 1f3e
00000010: 39ea 50be 3e3f 353e 33aa 37be 5242 0ebd
00000020: 7178 8f3d bd7d 7d3d 1f48 2dbe d6a8 923d
00000030: e59d f63d 636e 0ebe 2e4e 853d 2e11 133e
00000040: 880e 84bc 1208 023e 5a2f 68bb acf4 593e
00000050: 24c1 62bd ee03 5a3e e306 8e3d 1613 b2bd
00000060: 39e1 afbd f34b f0bd d5c6 2b3e 508a 8fbe
00000070: e390 8bbe 78ba deba 4384 bb3d d3f8 5fbc
00000080: 7af8 7cbe ae89 60be ebc2 8abb 7e52 1bbe
00000090: b643 ccbb 9a3b 233c 73dc e33d edd4 20bd
000000a0: fbce 503e b404 a13c 6f80 013e cc47 4c3e
000000b0: 8176 703e 51a8 81be 286b 703d c06d 5c3e
000000c0: dc8d eb3c 4451 8dbc a7b2 6b3e cac1 3a3e
000000d0: 5189 afbd e2f2 69be 8ccc 8dbd 6e4c aa3d
000000e0: 2eb5 72be 1640 8b3e 78e0 243e fdc7 8b3e
000000f0: 3cef ef3d 7dc4 c8bd 69fc 473e 5ed1 5bbe
0.05508619 0.25228098 0.23941332 0.15619051 -0.20401849 0.17699906 -0.1793602 -0.034731217
0.07005394 0.06188749 -0.16922043 0.07161109 0.12041835 -0.13909297 0.06509052 0.14362022
-0.01612021 0.12698391 -0.0035428614 0.21284741 -0.055359975 0.21290562 0.06934907 -0.086950466
-0.0858788 -0.11733236 0.16775067 -0.28035212 -0.27258977 -0.0016992828 0.09156086 -0.013670164
-0.24704161 -0.2192752 -0.004234662 -0.15168187 -0.0062336577 0.009962941 0.11126032 -0.03926556
0.20391457 0.019655563 0.1264665 0.19949263 0.23482706 -0.25323728 0.058695942 0.21526241
0.028754167 -0.017250665 0.23017369 0.18237987 -0.08571113 -0.22846559 -0.0692378 0.08315359
-0.23701927 0.2719733 0.16101253 0.27301016 0.11715552 -0.09803102 0.1952988 -0.21466586

convs.0.convs.<region___is_functionally_connected___region>.att_dst f4 [1, 1, 64]
00000000: 8993 0e3e b521 0f3e 3a18 d6bd 6795 603e
00000010: c060 83be f149 a33d 0ec7 41be 4b6f 14be
00000020: 11c4 58bd 2811 03bb 228d 42be 5d0f 133d
00000030: 20b1 61be 5d51 563e 283c fd3c 3c86 8bbe
00000040: e31e 91be 3ac5 29be efa5 57be 905e 8b3e
00000050: a6dc b63d 581c 7d3b 1e77 ab3d 35b9 8cbe
00000060: e39c 08be ea82 d9bd 7e65 243d a9b5 3cbc
00000070: f7ab efbd 396a 18be 04b6 2f3e 666d 78be
00000080: 78ba b43d 78c6 653e f13f 5c3e 40c3 e93d
00000090: 3fd5 ba3c bf1f 423e 2284 7d3e a98e 3abe
000000a0: ca9a 323e 293b 1fbe e57a 473e 7f00 afbb
000000b0: 660e 3cbe fb5d 8c3e 608e f4bd 4800 7cbe
000000c0: 7ffb 9ebd 82f2 1b3e 7994 89be 4ae1 703e
000000d0: 923f bebd 3d4d 0f3e 1ea3 b23d d961 41bd
000000e0: e306 ccbd 215b da3c e020 d6bd e9e5 46be
000000f0: 5ee3 893e dc10 493d 9fd2 373d 48c1 853d
0.13923468 0.13977702 -0.104538396 0.21931992 -0.25659752 0.079730876 -0.1892359 -0.1449558
-0.05292136 -0.001999924 -0.1899915 0.035903323 -0.22040224 0.20929475 0.030912474 -0.2725085
-0.28343877 -0.16579142 -0.21059392 0.27220583 0.08928804 0.003862163 0.08372329 -0.27485052
-0.13341098 -0.10620673 0.040135853 -0.0115179205 -0.117027216 -0.1488427 0.17159277 -0.24260482
0.088246286 0.22438991 0.21508767 0.11414194 0.022806762 0.18957423 0.24757436 -0.18218483
0.1744186 -0.15549912 0.19480474 -0.0053406353 -0.18364868 0.2741545 -0.119412184 -0.24609482
-0.07762813 0.15229228 -0.26871088 0.23523441 -0.09289469 0.13994308 0.087225184 -0.047212455
-0.09962251 0.026654782 -0.10455489 -0.19423641 0.2693128 0.049088344 0.0448786 0.06531006

convs.0.convs.<region___is_functionally_connected___region>.bias f4 [64]
00000000: b630 283a 64b9 563a 86c3 3abb 38c8 883a
00000010: 201d b4ba 5443 08bb 3355 c4ba 4620 a63b
00000020: 7c30 04bb 8009 073a e882 973b b4a3 7c3a
00000030: 81a6 703b 1239 c439 1596 41bb eb85 04bb
00000040: 4f30 ceba 6c3b 8dba 1018 20ba 0cf7 da3a
00000050: 1a11 afbb f00c 9cba 3bf3 abbb 2480 483b
00000060: 841e 2939 a0d0 6c3b b256 efb9 3845 45ba
00000070: eda8 223b 5774 143b 938e bbbb f133 caba
00000080: 96c5 e4ba ac22 b03a c204 eaba ac70 e13a
00000090: e204 c63b 004f 3f3b 5650 34bb f652 d83a
000000a0: 238a 99bb e132 8dba a8c9 32ba a04c ec39
000000b0: 8cf9 153b aee7 633a 5c08 bb3a 80a7 d538
000000c0: af55 85bb 46f7 9e3a 6947 533b 1c93 413a
000000d0: 12c8 2cbb dcd6 5bbb 72bb cf3a fcfb dcba
000000e0: b8a1 9dba 792f 8bba 6c85 7d3a e323 3cba
000000f0: 1c96 57bb 63ee f63a e2dd ad3a 2f99 febb
0.000641595 0.00081910775 -0.0028497889 0.0010435646 -0.001374159 -0.0020792084 -0.0014979005 0.0050697653
-0.00201705 0.0005151257 0.0046237595 0.0009637431 0.0036720338 0.00037426554 -0.0029538919 -0.0020221423
-0.001573095 -0.0010775155 -0.0006107101 0.0016705706 -0.005342615 -0.0011905711 -0.005247501 0.0030593956
0.00016128464 0.0036135092 -0.00045650225 -0.0007525268 0.0024819926 0.0022652352 -0.0057237833 -0.0015426857
-0.0017453905 0.0013438067 -0.0017854201 0.0017199717 0.0060430625 0.0029191375 -0.0027513704 0.0016504216
-0.0046856566 -0.0010772609 -0.000682021 0.00045070518 0.0022884337 0.0008693886 0.0014269459 0.00010187831
-0.004069052 0.0012128137 0.0032238609 0.0007384287 -0.0026364368 -0.0033544814 0.001584871 -0.0016859765
-0.0012026345 -0.0010619006 0.00096710655 -0.00071769784 -0.0032895869 0.0018839355 0.0013264979 -0.0077697258

convs.0.convs.<region___is_functionally_connected___region>.lin.weight f4 [64, 64]
00000000: b90c dbbd e672 04be f3b0 a7bd c683 223e
00000010: 1f9a e5bd 4af6 f93d fc1d 883d a32c 35bd
00000020: 956d 6abc 5865 373e 6237 1e3e 56fd ff3d
00000030: fd53 dabd 449c 32be 8391 2f3c 9ce1 2a3c
00000040: c6d5 44be 3fc3 423e db8b 613d e057 9ebd
00000050: 986f 10bc 4c6c 44be dbc3 823c a730 32be
00000060: caa2 1c3e 0360 3e3e 36e4 d83c de99 6fbc
00000070: 3ae9 913c 6b59 0b3e 68c4 00be 8e0b c5bd
00000080: 9096 243e bd6d 99bd 292c e9bd e9fa bbbd
00000090: 6059 60bd da37 48be 9424 d4bd c2f8 2f3e
000000a0: 3e18 cbbd 5add 0a3e e7b0 103e 9527 8a3d
000000b0: aef2 2d3c 6de8 3d3d 944d a0bd cc4c 9ebd
000000c0: d2a5 edbd 1fa1 8a3d 0cfb ce3c 3642 573d
000000d0: 4398 053e 711a c73d f792 91bd 9ca1 43be
000000e0: 6015 433e 708c f1bb 5ae7 373d 4995 dc3d
000000f0: 0a89 cd3b 7dca 3d3e b2d6 973c eaa5 933c
00000100: b879 c53d 6068 23be 243d 07be ae48 693d
00000110: 564d c73d 2359 35bd d4d8 1fbe 639b d2bd
00000120: 035c c03d 41e0 253e e3d4 10be 9f03 3dbe
00000130: 86c3 cd3c aefe 1dbc 1543 7ebc 3635 d93b
00000140: 0801 3ebd 3dd5 bbbb 2e0a f7bd f9b5 cdbd
00000150: 585f f93d 2a6a c8bd 8900 17be a4c5 8cbd
00000160: fc10 bf3d 5b7f d93d bd6f 9a3d d351 0bbe
00000170: d069 913d a426 1ebc ab7e dfbb c8d7 d6ba
00000180: 070b b1bd cfef 1fbd 53af cf3d 606b ec3d
00000190: edc7 213e 5cb0 083c a536 293e b737 a53d
000001a0: 8556 2ebe e748 2d3e 733e 833d cffc cebd
000001b0: c76a 343c e137 5f3d 8c56 393e 5273 323d
000001c0: 8e8f 003e 9b0d 19be c0b8 f1bd 0385 1abe
000001d0: 20be 3d3a b4a7 1d3e 1a73 563d c6f0 42be
000001e0: eeea e1bc a582 df3d 3bf6 c3bd f018 bbbc
000001f0: bf7d 55bd 1e8d 2dbe 1d6f 11be baa9 eb3c
00000200: 439a bf3d 2be2 18be 3f80 debd 351f 253d
00000210: e09e 22bd 69aa e5bb 0ed1 063e 187d 06be
00000220: 850d 4a3c b598 af3d 74ed bf3d 8620 f9bd
00000230: 8b5c 703d cb16 64bd 0ac8 753d 05c2 d83d
00000240: 6094 253e 7800 d6bd 5ff5 04be 9b5a 48be
00000250: 38e1 cf3d 8395 143e 2a9e 7f3d e3f7 2d3e
00000260: 52fc 1d3e c53d 0bbe bdce dabd 24f3 383d
00000270: 9bbd 8cbd 3fe9 cdbd fe23 cdbc 3569 2f3c
00000280: 24c2 f1bc ac43 e73b 81d9 883d b1a6 2f3e
00000290: 852e 183e d037 03bd 6586 01bd 6c57 4d3d
000002a0: 538d 06be a65c 293c 8c46 a4bd 8f7b 1abe
000002b0: 50c9 3b3e 02e6 b2bd 2c74 8e3d 54eb 3f3e
000002c0: 9695 3d3d 38f9 2d3e 33ae e5bd e2f4 f5bd
000002d0: 7574 d4bd ac7a a3bd 338b a73d 369f c6bd
000002e0: 72c1 063e 80d5 863d 89b6 66bd 7eae b63d
000002f0: 590b 0cbe 6eff 003d 73db 31be e3d0 db3d
00000300: c9bf 45bd 7ae8 b63d 402b d3bb 92eb 363d
00000310: 2e1f 2abc 5767 023e f745 3abe de93 d63c
00000320: edb2 c63c 8c6a 023e 83b2 14be 4987 b8bd
00000330: 62c1 adbd 7bd8 313e 5a6e b3bd 43a0 05bd
00000340: 5e90 21be 6b4c 783d ac41 583c 067c b7bc
00000350: fd72 483c 00b8 26be 9a48 13be 0d5d 033e
00000360: e76b 34be 111e 463e 3be3 2fbe f464 133e
00000370: 00e2 a83c 65b0 80bd 60f5 383e 0047 82bc
00000380: 0bd0 44be 9d76 27be 00a2 973d 8231 733d
00000390: e772 f63d 24aa 0ebe fe86 ed3d 38bb 653d
000003a0: 9ee1 153c 1e7a 5c3d aaec 253e 2717 b93c
000003b0: af77 e73b f55e 863d aa82 463e 4608 4e3d
000003c0: 0a18 2a3e 7970 043d 2199 293e e950 bc3d
000003d0: 8d9b 04be f711 7d3d d93d 153e f6d5 74bc
000003e0: c621 393e fe0a 35be 5ba8 b63d 36f9 21be
000003f0: cf5c 20be 01a9 103e f6cf 9f3c ceba 17be
-0.10695786 -0.12934455 -0.08188047 0.1587058 -0.11211037 0.12205179 0.06646344 -0.044232022
-0.014308353 0.17909753 0.15450814 0.12499492 -0.10660551 -0.17442423 0.010715845 0.010429766
-0.19222173 0.19019793 0.055065017 -0.077316046 -0.0088156685 -0.19181937 0.015962532 -0.17401372
0.15296474 0.18591313 0.026476007 -0.014624087 0.017811406 0.13608329 -0.12574923 -0.096213445
0.1607306 -0.07491634 -0.11385376 -0.09178717 -0.054772735 -0.19552556 -0.10358539 0.17184737
-0.09916733 0.13561001 0.14129983 0.06745831 0.010616941 0.046364237 -0.07827297 -0.077294916
-0.11603893 0.06769013 0.025266193 0.052553378 0.13046364 0.0972184 -0.071081094 -0.19104618
0.19051123 -0.007371478 0.04489837 0.107706614 0.00627244 0.18534274 0.018534992 0.01802345
0.09642357 -0.15957785 -0.13206917 0.05695408 0.097315475 -0.04427446 -0.15610057 -0.10283544
0.0939255 0.16198827 -0.1414371 -0.18458413 0.025117647 -0.00964324 -0.015518923 0.0066286577
-0.046387702 -0.005732207 -0.120624885 -0.10044474 0.121763885 -0.09785874 -0.14746298 -0.068736345
0.093294114 0.10619994 0.07540844 -0.13605432 0.0710026 -0.009652767 -0.00682052 -0.0016391212
-0.086446814 -0.03904706 0.10140862 0.11543918 0.15798922 0.008342829 0.16524751 0.080672674
-0.17025192 0.16922341 0.064083956 -0.10106813 0.011011786 0.05449665 0.18099421 0.04356701
0.12554762 -0.14946596 -0.118028164 -0.15089802 0.00072381087 0.15396005 0.052355863 -0.1903716
-0.027577844 0.1091359 -0.09568449 -0.02283904 -0.052121874 -0.16948363 -0.14202543 0.028767455
0.09355595 -0.14930026 -0.10864305 0.040312964 -0.039702296 -0.00700884 0.13165686 -0.13133657
0.012332325 0.085740484 0.093714625 -0.121644065 0.058682006 -0.0556858 0.060005225 0.10583881
0.16169882 -0.10449308 -0.12984227 -0.19565813 0.10150379 0.14510159 0.062406696 0.16989093
0.15428284 -0.13597782 -0.106839634 0.045153752 -0.06872102 -0.10054254 -0.025041576 0.010706236
-0.029511519 0.0070576277 0.066821106 0.17153431 0.14861496 -0.03203565 -0.03162231 0.0501322
-0.13139848 0.0103370305 -0.08021268 -0.15086196 0.18338513 -0.08735277 0.06955752 0.18742114
0.046285234 0.169896 -0.112148665 -0.12009598 -0.10373775 -0.07982382 0.08180847 -0.09698336
0.13159731 0.06583691 -0.056326423 0.089200005 -0.13676204 0.031493597 -0.1736887 0.10733201
-0.048278604 0.0893106 -0.006444365 0.04465825 -0.01038341 0.12734734 -0.18190752 0.026193555
0.02425524 0.12735957 -0.14521222 -0.090101786 -0.084841505 0.17367737 -0.08761282 -0.03262354
-0.15777728 0.060619753 0.013199251 -0.022398006 0.012234447 -0.16281128 -0.14383164 0.12828465
-0.17619286 0.19347407 -0.17176525 0.1439398 0.020615578 -0.062836446 0.18062353 -0.015902996
-0.19219987 -0.16353841 0.07403946 0.059373386 0.12033635 -0.13932091 0.11598013 0.05608675
0.00914803 0.053827398 0.16203561 0.022594048 0.007063828 0.0656108 0.19385782 0.05030086
0.16610733 0.032333825 0.1656232 0.0919512 -0.12949963 0.06178471 0.14574374 -0.01494359
0.1807929 -0.17679974 0.0891883 -0.15817723 -0.15660404 0.1412697 0.019508343 -0.14817354

convs.1.convs.<subject___has_region___region>.lin_rel.weight f4 [64, 64]
00000000: 6acd afbd 2c19 723d 34a7 72bd d8e7 d33c
00000010: a89b f8bc 9a9c dcbd f89e 9abd 044f 82bd
00000020: 0a7d d93d 5aac 873d 243b ea3d 4025 8d3d
00000030: b0aa 78bd 0022 123b b05b 07bd 2618 b6bd
00000040: f2ac dd3d 38d8 babd f26d febd b8d8 92bc
00000050: 9032 743d 0045 f13d 6821 643d 407b 063c
00000060: f81c b43d 8004 953a 6ade d2bd 34d4 6ebd
00000070: a495 3bbd 8846 b1bc 4402 bc3d aeac dc3d
00000080: 7cff 53bd 80eb 703d f023 3ebd 005c 0fbb
00000090: 8ca4 2dbd d81c 73bd 046b cc3d f040 9c3c
000000a0: a029 58bc 1ea2 debd 94ee 83bd 160a bf3d
000000b0: 705f 3abd f0b6 a5bc 4843 f0bc dc2f 23bd
000000c0: 38ee f5bc 90c2 f2bd 2e34 c3bd 8c34 31bd
000000d0: 98b0 a5bc 706a 68bc 5054 d2bc 28a5 debc
000000e0: 0016 76bb 5c10 48bd 3e23 98bd 1054 46bd
000000f0: 0c72 7b3d 9ca4 df3d b813 6f3d 6044 943d
00000100: c00c 173c b41c 74bd 067e 9b3d 060b c1bd
00000110: c8a9 07bd 6087 d2bc 8ca7 ed3d 9821 a4bc
00000120: 38f7 9fbd 58a9 4cbd c2dc 86bd 3e7a edbd
00000130: 608d 9c3d 78fb 49bd f00e 69bd 2e8e ffbd
00000140: 4824 d53c 8020 663c f665 a4bd 6e23 f13d
00000150: 2cbf d3bd 6c3a 3bbd 4474 003d ca15 a03d
00000160: 40ee 1a3b 38ed acbc f46f b2bd 74c4 333d
00000170: 201d 433c 7009 f53c e20c b63d d4e8 3abd
00000180: 8680 c8bd 4e20 cebd 08b4 8f3d 40ed cdbb
00000190: 5c99 623d e43a 323d ce3c e63d 1679 c4bd
000001a0: 3014 15bc 5eeb 813d 644f f83d 543c 42bd
000001b0: 0cb7 86bd 40c8 ce3d ae47 df3d 501a 243c
000001c0: fc63 33bd 9cd3 ec3d a84e fbbd 0070 843d
000001d0: a42c 7e3d 1230 903d 78b8 883c 70bb ad3d
000001e0: 4ebb dc3d 30ec b73d e8f0 de3d 10e6 98bc
000001f0: c68c ac3d c0ab 3dbc f02d 42bc 3832 f2bd
00000200: 225d 973d 202a 723c c6bf b3bd f0ce 97bc
00000210: 304d 8abd 5c79 a13d 1a75 f33d 3045 19bd
00000220: f4c6 5a3d 40c9 94bc 1c82 4a3d ccd1 a9bd
00000230: a610 933d f2cf c8bd d667 91bd d815 3e3d
00000240: c4c2 c23d d45a e6bd 38d2 353d 3803 30bd
00000250: 74f4 323d fa27 b03d e873 6a3d a4c4 5b3d
00000260: 0a0f fa3d ca6c 8fbd b4b4 9cbd ccfb 4ebd
00000270: c0f8 97bb f82a 62bd 60ba 79bc 9847 f43d
00000280: d402 20bd 40f1 143d 303b 93bd a0b2 eebc
00000290: 7cb8 d93d a840 fbbd 4c77 513d 0eda c43d
000002a0: e019 28bd 80d1 3abb 8cc5 533d c06f cbbb
000002b0: e041 e8bc 802c 8e3d 7eb8 cd3d 7c33 823d
000002c0: d070 edbc 8252 fc3d 645b 533d b8d5 e23c
000002d0: c89a b93d 8040 f5bd d80d b83c 728a c3bd
000002e0: 7029 febc 4874 51bd 2c90 f5bd f8ed ffbd
000002f0: 58e6 25bd dcfa 4cbd 900a df3d 84f3 183d
00000300: 5c03 fa3d ac0d 60bd 0efd 803d 9082 723d
00000310: 3823 babc 266d a8bd c091 65bc c844 923d
00000320: b84a b23d 082f a6bd a0f6 14bc 4e71 e73d
00000330: c41f 3bbd 00c3 a53c d0a2 0bbc 8094 bf3d
00000340: 20bd 5fbd f0c2 3d3c 9032 ebbc 12be fbbd
00000350: 7007 bd3c 6068 4f3c b48b bc3d 6cd3 34bd
00000360: a05b 82bd 40cc 5abb b23c f8bd 1e10 bc3d
00000370: 64db 573d 80a1 f73d 5661 c2bd c0bf 58bb
00000380: 303a db3d 005a a6b9 58e5 643d 0c68 abbd
00000390: 1ca5 89bd 200c 7dbc f05f af3d a4c6 283d
000003a0: b4a9 ba3d 6aa5 c33d a6f5 9abd 4020 d73d
000003b0: 6cb3 fc3d 4a3e 8a3d b06f f33d b896 26bd
000003c0: 40c8 cf3d 7057 233d fe57 d03d 6669 b3bd
000003d0: 3c6d f43d 8ca2 2b3d def3 c8bd bcd5 5ebd
000003e0: 18c3 a13c 407e 793b 94aa 15bd 9ee9 9c3d
000003f0: 445b 81bd 0087 503b 0027 fcbb d0ea 963d
-0.085841015 0.059106037 -0.05924149 0.025867388 -0.03034766 -0.10772057 -0.07549852 -0.06362727
0.106195524 0.0662467 0.114370614 0.068918705 -0.060709655 0.0022298098 -0.033046424 -0.08891325
0.10824002 -0.09123272 -0.12423314 -0.017925605 0.059618533 0.11780739 0.05569592 0.008208096
0.08794588 0.0011369139 -0.10296328 -0.05830784 -0.045797005 -0.021640077 0.0918012 0.107751235
-0.05175732 0.05881834 -0.04642099 -0.0021874905 -0.042393252 -0.05935368 0.09981349 0.019073933
-0.013193518 -0.10870765 -0.064419895 0.093280956 -0.045501173 -0.020228833 -0.029328957 -0.039840564
-0.030020818 -0.11853516 -0.09531437 -0.043263003 -0.020225808 -0.014185533 -0.025674969 -0.027178362
-0.0037549734 -0.048843727 -0.07428597 -0.048420012 0.06138806 0.109200686 0.058368415 0.07239604
0.009219348 -0.059597686 0.075923964 -0.09425931 -0.0331209 -0.025699317 0.11604223 -0.02003555
-0.07810825 -0.049966186 -0.06585075 -0.115955815 0.07644153 -0.049312085 -0.05689901 -0.124782905
0.026018277 0.014045835 -0.0802726 0.11774336 -0.103391975 -0.045710012 0.03136088 0.07816656
0.0023640543 -0.021109208 -0.087127596 0.043888524 0.011908799 0.029911727 0.08889176 -0.0456322
-0.09790139 -0.100647554 0.0701676 -0.006284386 0.055322036 0.043513194 0.11242066 -0.09593408
-0.009099051 0.06343721 0.121245176 -0.047420815 -0.06577882 0.100967884 0.10902344 0.010016039
-0.043796524 0.11563799 -0.12270862 0.06466675 0.06205429 0.07040419 0.016689524 0.084830165
0.10777913 0.08980596 0.10885793 -0.01866439 0.08425288 -0.011576593 -0.011851773 -0.11825985
0.073908105 0.014780551 -0.08776812 -0.018531293 -0.067530036 0.078844756 0.1188757 -0.037419498
0.053412393 -0.01816237 0.04944049 -0.08291969 0.0718091 -0.098052874 -0.07099883 0.04640755
0.09509805 -0.11247793 0.044389933 -0.04297182 0.04369016 0.08601375 0.057239443 0.053654328
0.122099 -0.07003172 -0.07651654 -0.0505331 -0.0046378076 -0.05521676 -0.015242189 0.11927718
-0.039065197 0.036362886 -0.071890235 -0.02913791 0.10630891 -0.122681916 0.05113916 0.09611903
-0.0410403 -0.002850622 0.051702067 -0.00620839 -0.028351724 0.069420815 0.10044955 0.06357476
-0.028984457 0.123204246 0.05160083 0.0276898 0.09062725 -0.11975193 0.022467539 -0.09547891
-0.031025618 -0.051136285 -0.11990389 -0.12496561 -0.040502876 -0.050043926 0.108906865 0.03734161
0.12207672 -0.05470054 0.06298266 0.059206545 -0.022721872 -0.082239434 -0.0140118 0.07142025
0.08705658 -0.08114439 -0.009092003 0.11300908 -0.04568459 0.020234585 -0.008522704 0.09354496
-0.054623723 0.011582121 -0.028710634 -0.122921124 0.023074836 0.012659162 0.09206334 -0.04414694
-0.06365132 -0.0033385903 -0.12120952 0.091827616 0.05269946 0.120913506 -0.094912216 -0.0033073276
0.10704458 -0.00031729043 0.05588278 -0.08369455 -0.06720945 -0.015444785 0.085632205 0.041205063
0.091143996 0.095530346 -0.07566385 0.10504198 0.123389095 0.06750162 0.11886537 -0.04067108
0.101456165 0.03987831 0.10173033 -0.087603375 0.11934897 0.041903064 -0.09812139 -0.05440305
0.019746348 0.0038069636 -0.03653963 0.076617464 -0.06316236 0.0031818748 -0.007695079 0.07369006

convs.1.convs.<subject___has_region___region>.lin_rel.bias f4 [64]
00000000: f060 53bd bcd8 d13d ba7b b03d 18d6 8cbd
00000010: a8cb ad3c 60bd 3ebd 1072 583c 8002 24bc
00000020: 80e7 2d3b aa86 b4bd 3eea bbbd 7037 1dbd
00000030: 3653 f7bd c61a ee3d 5027 b1bd 8ec3 993d
00000040: 28cd 1f3d a8db 4c3d 9874 c1bc 742f d83d
00000050: a8ff 793d 6e0d eebd fc34 17bd 1603 9dbd
00000060: 2e80 a0bd 4c93 093d 4c42 3b3d 78ff 233d
00000070: 2815 313d 9857 fe3d 5826 a43d f8fe 8e3d
00000080: 2816 dbbc b868 3ebd 8491 27bd 64b3 393d
00000090: 8819 673d bebf e03d e4cd b2bd 748c dabd
000000a0: 504f 4d3c 6069 81bd 8c9b b23d 3851 bdbc
000000b0: 28a8 6f3d 381e 653d 1cd2 e83d 24fc 5f3d
000000c0: 4043 8ebd bc39 fabd b007 933c f636 bcbd
000000d0: 109f c3bc f40d 4fbd 30a9 9cbc 2433 6cbd
000000e0: 8821 d23d d08c e03d 0077 f43b a08a cd3c
000000f0: 40d8 6bbb b0ff 323d 2006 d63b 0a95 c83d
-0.05160612 0.10246417 0.08617349 -0.06876773 0.021215275 -0.04656732 0.013210788 -0.010010362
0.002653569 -0.08814748 -0.091755375 -0.038382947 -0.12076418 0.116262004 -0.086500764 0.07508002
0.03901401 0.050014168 -0.023615167 0.10555926 0.06103483 -0.11623655 -0.036915764 -0.07666604
-0.07836948 0.03358774 0.045717523 0.040038556 0.043233067 0.12419051 0.08015126 0.06982225
-0.026743963 -0.046486586 -0.04091026 0.045337096 0.056420833 0.10974072 -0.08730677 -0.106713206
0.012531117 -0.06318927 0.087210745 -0.023110017 0.058509976 0.055937022 0.113682 0.05468382
-0.06946421 -0.12218043 0.017948002 -0.091901705 -0.023879558 -0.050550416 -0.019123644 -0.05766596
0.10260302 0.10964358 0.007460475 0.025090516 -0.003598705 0.043700874 0.006531492 0.09794052
