src/model_fold_1.pth (torch, 201910 bytes, 36 tensors)

convs.0.convs.<subject___has_region___region>.lin_rel.weight f4 [64, 64]
0	0xbddd7e9c	-0.108151644
1	0x3da951fe	0.08267592
2	0xbe0c5e01	-0.13707735
3	0x3dd44333	0.1036438
4	0x3da95b16	0.082693264
5	0x3db1230b	0.08649262
6	0x3e0eaaba	0.13932315
7	0xbc19f0d6	-0.009395799
8	0x3e11f1fb	0.14252464
9	0x3c2da800	0.010599136
10	0x3d3b0991	0.04566342
11	0xbc218f3c	-0.00986081
12	0x3dd36acf	0.103231065
13	0x3c9f061f	0.019412098
14	0xbd6923b7	-0.056918826
15	0x3dba5696	0.09098546
16	0xbdd9e3e6	-0.10639171
17	0x3dbdceac	0.09267935
18	0xbc81aac1	-0.015828492
19	0x3d1e0b0d	0.038584758
20	0x3e045d4f	0.1292622
21	0xbd9a0612	-0.07520689
22	0x3da5fdb3	0.0810503
23	0x3d2e317c	0.04252766
24	0x3b7c5e41	0.0038508328
25	0xbdc81191	-0.097689755
26	0x3cf3832f	0.02972564
27	0xbd53f8f8	-0.051751107
28	0xbda7f4a8	-0.08200961
29	0x3c85ef44	0.016349442
30	0xbd94dcae	-0.07268654
31	0xbe0eec72	-0.13957384
32	0xbd8703a3	-0.065924905
33	0x3d95fa75	0.073231615
34	0xbd4598a0	-0.048241258
35	0x3d95b326	0.073095605
36	0x3d1ea6e2	0.03873337
37	0x3dc247b8	0.094863355
38	0x3cf28ecc	0.029609106
39	0xbd27f1f1	-0.041002218
40	0x3dcecaac	0.1009725
41	0x3db0cf3a	0.08633275
42	0x3ddf36ce	0.10899125
43	0xbca8b573	-0.020594334
44	0xbdae6598	-0.08515471
45	0xbcb3a228	-0.021927908
46	0xbdb047f5	-0.08607475
47	0x3dc8d6cf	0.098065965
48	0x3c711289	0.014713892
49	0x3cda377f	0.02663779
50	0x3d56d372	0.052447744
51	0xbdab26f6	-0.083570406
52	0x3ca06c33	0.019582843
53	0x3d84c63f	0.06483125
54	0xbd3ef271	-0.04661793
55	0xbd13202e	-0.03591936
56	0xbd4dc81a	-0.05023966
57	0xbd6038fd	-0.05474185
58	0xbe030aa0	-0.12797022
59	0xbdc549d6	-0.09633224
60	0xbd32e96e	-0.043679647
61	0x3db2d35c	0.0873172
62	0x3d8b579e	0.06803821
63	0x3ca928a3	0.02064926
64	0x3d87b434	0.06626168
65	0x3dc52d80	0.09627819
66	0xbdba1be4	-0.09087351
67	0x3dd9e205	0.10638813
68	0xbdabfc47	-0.083977275
69	0xbd2b3536	-0.041798793
70	0x3d8eb495	0.06968037
71	0x3dd130a0	0.102143526
72	0xbd080f16	-0.033217512
73	0xbd472471	-0.048618738
74	0xbd7a2597	-0.061071005
75	0xbde8e39e	-0.113715395
76	0x3d64ea2a	0.05588738
77	0xbdcb0073	-0.09912195
78	0xbd8ec2c5	-0.06970743
79	0x3dd2cbb3	0.10292759
80	0x3d99eaeb	0.0751551
81	0x3d1819f4	0.037134126
82	0xbdbcd203	-0.09219744
83	0xbd9a5723	-0.07536151
84	0xbdf35438	-0.11881298
85	0x3c7de837	0.015497259
86	0xbc755d90	-0.01497592
87	0xbdbf82bb	-0.09351107
88	0x3d1c46b4	0.038153365
89	0xbdb6253c	-0.08893821
90	0x3a188fb8	0.00058197556
91	0x3cff957f	0.031199215
92	0x3dbbf59c	0.09177706
93	0xbc8d7390	-0.017267019
94	0x3daae190	0.08343804
95	0xbdbf8d3b	-0.093531094
96	0x3ce98950	0.028507859
97	0x3c3af673	0.011411297
98	0xbdac4268	-0.084111035
99	0x3bfdaa57	0.0077412534
100	0xbc00a277	-0.007851235
101	0xbdc6ca93	-0.09706607
102	0x3d696423	0.056980263
103	0xbdc6f25c	-0.09714195
104	0xbd52128b	-0.051287215
105	0x3d1f1b60	0.038844466
106	0x3cdf2979	0.027241455
107	0x3c3ee875	0.011652102
108	0xbbf64562	-0.0075155953
109	0xbd8b4954	-0.068010956
110	0x3dc7cd79	0.09755988
111	0x3d102c09	0.035198245
112	0xbc5e34b4	-0.01356237
113	0x3d3e02ec	0.046389505
114	0x3dd04d11	0.10170949
115	0xbd83e852	-0.06440796
116	0xbdb96ce6	-0.09053974
117	0x3d7230b2	0.05912847
118	0x3d813545	0.063089885
119	0xbd52b017	-0.051437464
120	0x3c107a5e	0.008818237
121	0x3dab061c	0.08350775
122	0x3df8aef2	0.12142743
123	0xbd8b55ee	-0.06803499
124	0x3c10e30a	0.008843193
125	0x3c99c0d1	0.0187687
126	0x3cec3688	0.028834596
127	0xbca53d72	-0.020170901
128	0xbcab1ba2	-0.0208872
129	0x39e2009c	0.00043106533
130	0xbd430d3f	-0.047620054
131	0xbd38a210	-0.04507643
132	0xbbbb0a3c	-0.005708007
133	0xbd97b584	-0.07407668
134	0xbb8781a4	-0.0041353274
135	0x3d49c575	0.049260575
136	0x3c371e99	0.011176729
137	0x3cad8df4	0.021185853
138	0xbdaf8bb1	-0.08571566
139	0xbdb4b56a	-0.088236645
140	0x3da8ce61	0.08242489
141	0x3d64d120	0.0558635
142	0xbd97fdfa	-0.07421489
143	0xbc320f81	-0.010867954
144	0xbc5c55d1	-0.013448195
145	0x3c719757	0.014745555
146	0xbdf96d94	-0.121791035
147	0x3d35c2fa	0.044375397
148	0xbd6e21e1	-0.05813778
149	0xbdc9843a	-0.09839673
150	0x3d829020	0.06375146
151	0x3d982825	0.07429532
152	0x3e0210ed	0.12701769
153	0xbceaf08e	-0.028679159
154	0xbd3a7fda	-0.045532085
155	0x3d828538	0.06373066
156	0xbd527706	-0.05138304
157	0xbd1b0007	-0.037841823
158	0xbd534788	-0.05158189
159	0x3cb7aeb9	0.022422181
160	0x3d099dcc	0.033597752
161	0xbd49e38a	-0.049289264
162	0x3d187ab3	0.03722639
163	0x3daf8548	0.08570343
164	0xbd807827	-0.06272917
165	0xbd33a1a9	-0.043855343
166	0x3db561ed	0.088565685
167	0xbd58e2e6	-0.052950762
168	0x3d561170	0.052262723
169	0xbdcb3e8a	-0.09924038
170	0xbc9892d1	-0.018624695
171	0xbda329fa	-0.07966991
172	0x3d7c2f7a	0.061568715
173	0xbd826ed7	-0.06368797
174	0xbceac71d	-0.028659398
175	0x3dae87fa	0.08522029
176	0x3d8c0a5f	0.06837916
177	0xbd13b9b2	-0.036065765
178	0xbcb5a1f6	-0.022171956
179	0xbca8b8c6	-0.02059592
180	0xbc562352	-0.013069944
181	0xbd22e3e9	-0.039768133
182	0xbd44ce1a	-0.048048116
183	0x3d914436	0.07093088
184	0xbc723fc0	-0.014785707
185	0xbd642da3	-0.055707585
186	0xbd4da405	-0.05020525
187	0x3ca02b12	0.019551788
188	0xbd3fcb19	-0.04682455
189	0x3d669108	0.056290656
190	0xbdacc1d0	-0.08435404
191	0x3db417b3	0.08793583
192	0x3c6f0407	0.014588363
193	0xbb5ba703	-0.0033516295
194	0xbcb4b2da	-0.02205794
195	0xbc01c1a9	-0.007919707
196	0xbd418140	-0.047242403
197	0x3d5f0960	0.0544523
198	0x3db8f8d9	0.09031839
199	0x3c4779f4	0.012175072
200	0x3d4f4a0f	0.050607737
201	0x3c7d72f9	0.015469306
202	0x3c4d60e5	0.0125353085
203	0xbd2d9be7	-0.04238501
204	0x3dcc62db	0.09979793
205	0x3c8f149d	0.017465884
206	0x3db60a52	0.08888687
207	0x3c8d38a2	0.017238919
208	0xbdc4ad36	-0.0960335
209	0xbc88b553	-0.016688025
210	0xbc5e8b97	-0.0135830855
211	0x3d6e0a1d	0.058115114
212	0xbdf993bc	-0.12186381
213	0xbdc49325	-0.09598378
214	0xbdcc08e1	-0.09962631
215	0x3ceacce1	0.028662147
216	0xbd0b4fe9	-0.034011755
217	0x3cb68a3d	0.022282714
218	0xbd106f51	-0.03526241
219	0x3d20d72d	0.039267708
220	0xbc8af2ee	-0.016961541
221	0x3dc421f4	0.095767885
222	0x3d7f4de7	0.062330153
223	0xbd987f4a	-0.074461535
224	0xbd6928c5	-0.056923646
225	0xbceba5f1	-0.02876565
226	0x3c9aa8d2	0.018879328
227	0xbd6359b0	-0.055505455
228	0xbd722fc2	-0.059127577
229	0xbd89375f	-0.06700014
230	0xbc9cf4f8	-0.019159779
231	0x3dc1cd7f	0.094630234
232	0xbd96328c	-0.0733386
233	0xba6dee14	-0.0009076309
234	0xbd80f49d	-0.06296656
235	0xbc56db92	-0.013113873
236	0x3d943689	0.07236964
237	0xbcf3729d	-0.029717738
238	0xbd64983d	-0.05580925
239	0x3b7e3a96	0.0038792244
240	0xbc71c025	-0.0147552835
241	0x3d400c71	0.046886865
242	0xbd4a26de	-0.049353473
243	0xbcd877cc	-0.026424311
244	0xbd6248f9	-0.055245373
245	0x3d78bf2a	0.060729183
246	0xbd6a2d53	-0.05717213
247	0xbc83295a	-0.016010929
248	0x3d10a1c7	0.035310533
249	0x3d5f8992	0.054574557
250	0xbd0e499d	-0.03473817
251	0xbc83ea74	-0.016103007
252	0x3c301cbe	0.01074904
253	0x3d49a7bf	0.04923224
254	0x3d7554cf	0.059895333
255	0x3cb029b7	0.021504266

convs.0.convs.<subject___has_region___region>.lin_rel.bias f4 [64]
0	0x3bec1ed2	0.0072058225
1	0xbb6e0e59	-0.003632447
2	0xbb396848	-0.0028290916
3	0xbc4df5a9	-0.012570777
4	0xbd7b9404	-0.061420456
5	0xbd96d81c	-0.07365438
6	0x3d347ec7	0.044066217
7	0xbd34e95a	-0.044167854
8	0x3bc0ea86	0.0058873324
9	0xbd4e8514	-0.050419882
10	0x3bdd1765	0.0067471736
11	0x3c2ad181	0.010425926
12	0xbc310a10	-0.010805622
13	0xbc447c82	-0.011992576
14	0xbd38923c	-0.045061335
15	0x3c182119	0.009285235
16	0xbd551976	-0.052026235
17	0xbaac7769	-0.0013158146
18	0x3d27b8cf	0.04094773
19	0xbb946f8e	-0.0045299
20	0xbd5e46cb	-0.054266732
21	0x3b2aec92	0.0026080948
22	0x3d35b58e	0.044362597
23	0xbb841864	-0.004031228
24	0x3d3505b3	0.04419489
25	0x3d2f8fc9	0.042861734
26	0xba9fbf6e	-0.0012187788
27	0xbd3899e9	-0.045068655
28	0xbb3c3d90	-0.0028723218
29	0x3bc6dd84	0.006068887
30	0xb996dfc8	-0.0002877696
31	0x3a95e668	0.0011436464
32	0xbc4e9ae0	-0.012610167
33	0xbc4dd69a	-0.012563372
34	0x3d802afc	0.062581986
35	0xbd8672f1	-0.06564892
36	0x3cfba77e	0.030719515
37	0xbc89599c	-0.016766362
38	0x3aa068fa	0.0012238317
39	0xbd979a81	-0.07402516
40	0x3b2b1d18	0.002610987
41	0x3c044d65	0.008075093
42	0xbb5eff16	-0.0034026555
43	0x3d8a3bbc	0.06749675
44	0x3d619538	0.055073947
45	0x3d46be60	0.0485214
46	0x3c430aaf	0.011904403
47	0xbd246cf2	-0.04014296
48	0x3c647833	0.013944673
49	0xbbf5159d	-0.007479383
50	0x3d103a4e	0.035211854
51	0xbc815123	-0.01578576
52	0x3c3c3c4c	0.011488985
53	0xbce9ae3d	-0.028525466
54	0x3d354d9c	0.044263467
55	0xbb1fea48	-0.0024401117
56	0xbd91c30a	-0.07117279
57	0xbb9c79ac	-0.0047752466
58	0x3d8d2231	0.06891287
59	0x3c4f3042	0.012645783
60	0x3b1a9aa8	0.0023590717
61	0x3cc5c992	0.024143968
62	0xbd70bbd0	-0.058772862
63	0x3d806aa8	0.06270343

convs.0.convs.<subject___has_region___region>.lin_root.weight f4 [64, 64]
0	0xbd85e140	-0.06537104
1	0xbd8168d4	-0.063188225
2	0x3d3d9860	0.046287894
3	0x3db6a956	0.08919017
4	0x3d8d66cf	0.06904375
5	0xbdd7a7b7	-0.10530036
6	0x3c14b5d8	0.009076558
7	0xbdacad9d	-0.084315516
8	0x3d27d116	0.040970884
9	0x3d5192a3	0.051165234
10	0x3d0aebc2	0.033916242
11	0x3ccee35a	0.025254894
12	0xbd8eb452	-0.06967987
13	0xbc60c8d7	-0.013719759
14	0xbddf3c90	-0.10900223
15	0x3d947feb	0.07250961
16	0xbcb97cec	-0.022642575
17	0x3cf2e2df	0.029649196
18	0xbd55db7c	-0.05221127
19	0xbdcbab97	-0.099448375
20	0xbd014901	-0.031563763
21	0x3daae176	0.083437845
22	0x3d0712eb	0.032977026
23	0xbd312afb	-0.04325388
24	0xbcf93389	-0.030420082
25	0x3b9e1336	0.0048240675
26	0xbaca7a0a	-0.0015447747
27	0x3c5b293c	0.01337653
28	0x3ce4581f	0.02787405
29	0x3d8b7dd1	0.06811107
30	0xbe0d7c78	-0.13817012
31	0x3dae2086	0.08502297
32	0x3d1c82fd	0.038210858
33	0x3d375eec	0.04476826
34	0xbc77dbbf	-0.015128075
35	0xbddab1ab	-0.10678419
36	0x3b6be0c8	0.0035992134
37	0xbd202416	-0.039096914
38	0x3c9fe419	0.019517945
39	0x3d7a54cf	0.061116036
40	0xbe03915a	-0.12848416
41	0xbd68a0bd	-0.056793917
42	0xbd99f3ab	-0.07517179
43	0x3dc05291	0.09390748
44	0x3ce3cb50	0.027806908
45	0x3d5897e5	0.052879233
46	0xbc9d7f28	-0.019225672
47	0x3d8287ae	0.06373535
48	0x3dc2b191	0.09506524
49	0xbccd174d	-0.025035525
50	0xbdd27ba5	-0.102774896
51	0x3dad5b4b	0.084646784
52	0x3d11fab6	0.035639487
53	0x3d264a3d	0.040598143
54	0xbd358e8b	-0.044325393
55	0xbd0f5aaf	-0.034998592
56	0xbd820397	-0.06348341
57	0xbd6a13b2	-0.05714769
58	0x3dc85313	0.0978147
59	0xbd0cfae4	-0.034418955
60	0xbb9b2fb1	-0.00473591
61	0x3df8e60f	0.12153255
62	0x3886ea80	6.433297e-05
63	0x3db3a114	0.087709576
64	0xbd850503	-0.064950965
65	0x3ce6db44	0.028180726
66	0x3cf6763c	0.030085675
67	0xbc8d329f	-0.017236052
68	0xbd9fcf8a	-0.07803257
69	0xbcd535fe	-0.026026722
70	0x3d4717c4	0.04860665
71	0xbd8dae63	-0.06918027
72	0x3d81ef8e	0.063445196
73	0x3cf899a3	0.030346697
74	0x3d373898	0.044731706
75	0x3bfcb5a0	0.007712081
76	0xbd4b674a	-0.04965905
77	0xbbeb8e84	-0.00718862
78	0x3c888acc	0.016667746
79	0x3da093b4	0.07840672
80	0x3d0f8c5b	0.035045963
81	0xbd0a932e	-0.033831768
82	0xbca57f21	-0.020202221
83	0xbd91980b	-0.07109078
84	0xbd8bc097	-0.06823843
85	0x3c700782	0.0146502275
86	0x3d848222	0.06470133
87	0x3da52224	0.080631524
88	0x3d2836df	0.041067954
89	0x3d822988	0.06355578
90	0x3d94b6cc	0.07261428
91	0x3d771513	0.060322832
92	0xbc4b340a	-0.012402544
93	0xbd2f09ab	-0.04273383
94	0x3d03b08d	0.032150794
95	0xbce5280f	-0.027973203
96	0x3d945436	0.072426245
97	0x3da8cc31	0.082420714
98	0xbd0056aa	-0.03133265
99	0xbb9f9123	-0.0048695966
100	0x3d177ee3	0.036986243
101	0xbc80b322	-0.015710417
102	0x3cae9e51	0.021315726
103	0x3daa26bd	0.0830817
104	0x3ced9104	0.028999813
105	0xbc9a2d93	-0.01882056
106	0x3d696f58	0.05699095
107	0x3d84b32c	0.06479487
108	0x3d803e10	0.062618375
109	0xbbdc4e56	-0.0067232056
110	0x3d0a3aa8	0.033747345
111	0xbd36c246	-0.044618867
112	0x3d58f19c	0.05296479
113	0x3d6212d3	0.055193733
114	0xbcfb3961	-0.030667009
115	0xbd83502e	-0.064117774
116	0xbd9305f6	-0.07178871
117	0xbd279338	-0.040911883
118	0xbd0a48cb	-0.033760827
119	0x3b55f768	0.0032648686
120	0xbce5fe74	-0.028075434
121	0x3d91d0ad	0.0711988
122	0x3c7407bf	0.014894425
123	0xbcb6aa06	-0.02229787
124	0xbc87fd4e	-0.016600277
125	0x3d2dbbd2	0.042415448
126	0x3d9ec50d	0.07752428
127	0xbd179a7b	-0.03701256
128	0x3d9d2578	0.07673162
129	0xbd38589f	-0.04500639
130	0xbd438f5f	-0.04774415
131	0xbd789c7f	-0.06069612
132	0x3d83c39f	0.06433796
133	0x3d7cba35	0.06170102
134	0xbd78ce76	-0.06074377
135	0x3c6355fd	0.013875482
136	0xbd8ab55d	-0.067728736
137	0xbbd7e090	-0.0065880492
138	0xbd86c2db	-0.065801345
139	0xbca599bb	-0.020214906
140	0x3ce66e6d	0.028128827
141	0x3c75a297	0.014992378
142	0x3b87b8d8	0.004141908
143	0x3d87a294	0.06622806
144	0xbc114c09	-0.008868226
145	0xbb0bd2dc	-0.0021335399
146	0x3d9c2633	0.076244734
147	0x3d0d4db0	0.034497917
148	0xbd4f3030	-0.050583065
149	0xbd964c99	-0.073388286
150	0xbc94081e	-0.018070277
151	0x3dc5ccd8	0.096582115
152	0x3d6d2096	0.057892404
153	0xbc0cb252	-0.008587437
154	0x3d835be6	0.064140126
155	0xbdae00dd	-0.084962584
156	0xbcac76c2	-0.021052722
157	0x3def7ddf	0.1169393
158	0x3aadf118	0.0013270704
159	0xbbd1870c	-0.0063942727
160	0x3dbecaf6	0.093160555
161	0xbd0e06a5	-0.034674305
162	0x3d835466	0.06412582
163	0xbdb5c4d1	-0.088754304
164	0x3d4e3e82	0.05035258
165	0xbd9c9a3e	-0.07646607
166	0x3b3cfa00	0.0028835535
167	0xbd88b4c7	-0.066751055
168	0x3d65b072	0.056076474
169	0x3d8c2f49	0.068449564
170	0xbcc6bfb3	-0.024261331
171	0xbd8a9f10	-0.0676862
172	0x3b8b468c	0.004250353
173	0xbc1d1526	-0.009587562
174	0xbcb30a86	-0.021855604
175	0xbba03561	-0.0048891758
176	0xbdc34eed	-0.09536538
177	0xbad7f0f8	-0.0016475013
178	0xbda91ce9	-0.08257467
179	0x3bcbeee8	0.006223548
180	0xbc076d94	-0.008265872
181	0xbcfa665c	-0.030566387
182	0xbd9045a9	-0.070445366
183	0x3d727de9	0.05920211
184	0x3b9e53bb	0.004831759
185	0xbd773f2a	-0.060362972
186	0x3dc2c6ec	0.095105976
187	0x3c64fd12	0.013976352
188	0x3d397e18	0.045286268
189	0x3d59e4c0	0.05319667
190	0xbd52c43f	-0.051456686
191	0x3d9185bb	0.07105585
192	0xbd2f018b	-0.04272608
193	0xbc32e04a	-0.0109177325
194	0xbd55b0ec	-0.05217068
195	0x3ca01722	0.01954228
196	0x3d0fefb2	0.0351407
197	0x3d7f6d74	0.062360242
198	0x3d32a037	0.043609824
199	0x3d379fd7	0.04483017
200	0x3d88fdac	0.06689009
201	0x3bebbd5c	0.0071942043
202	0xbdc48b95	-0.09596936
203	0x3d90dfbd	0.07073925
204	0xbc916a92	-0.017751012
205	0xbd14503f	-0.03620934
206	0xbcf59bd3	-0.02998153
207	0xbcf7b59e	-0.030237969
208	0xbccbc00f	-0.024871854
209	0x3d5bf17b	0.05369709
210	0x3ddf7c39	0.109123655
211	0x3b9b9e98	0.0047491305
212	0xbdc3dda2	-0.095637575
213	0xbb8b0b58	-0.0042432956
214	0x3d2ef822	0.042717107
215	0x3cde8b0a	0.027165908
216	0xbd841e21	-0.06451059
217	0x3d8d05ef	0.06885897
218	0xbd6ca5cb	-0.0577753
219	0x3a95ca14	0.0011428022
220	0x3dbbaa9a	0.09163399
221	0x3cac95b4	0.021067478
222	0xbbdfd782	-0.0068311105
223	0xbc877672	-0.016535971
224	0x3dbf6606	0.09345631
225	0x3d8a5172	0.06753816
226	0xbd404b7e	-0.046946995
227	0x3ce0505b	0.027382066
228	0x3dc4b11e	0.09604095
229	0xbcfcc31a	-0.03085475
230	0xbcd1bc7c	-0.025602572
231	0x3c8b9772	0.017039988
232	0xbdbcbaba	-0.09215303
233	0x3d744211	0.05963332
234	0xbcef5dae	-0.029219475
235	0xbd656a36	-0.056009494
236	0x3cb4cb14	0.022069491
237	0x3df4767f	0.11936664
238	0x3da3950f	0.07987415
239	0x3db8b359	0.09018583
240	0x3cc99374	0.024606444
241	0x3c085f79	0.008323544
242	0x3d55b1c6	0.05217149
243	0x3d9ff150	0.078096986
244	0x3b51be09	0.003200414
245	0x3de3f504	0.111307174
246	0xbdb8edc2	-0.09029724
247	0xbd521d70	-0.051297605
248	0xbd901fac	-0.07037291
249	0xbcc0c9b0	-0.023533672
250	0x3c198d62	0.009372087
251	0xbd9055ff	-0.070476525
252	0xbcdc52f7	-0.02689503
253	0x3bf05464	0.007334279
254	0xbd7a7d1b	-0.061154466
255	0xbdde30ed	-0.108491756

convs.0.convs.<region___rev_has_region___subject>.lin_rel.weight f4 [64, 64]
0	0x3d38f7b1	0.045158092
1	0x3ba0c733	0.004906559
2	0xbd312ee2	-0.0432576
3	0x3b2f9668	0.002679253
4	0xbc0ff13f	-0.008785545
5	0xbd873681	-0.06602193
6	0xbd81e8c9	-0.06343228
7	0xbc3a605c	-0.011375513
8	0x3b1660a5	0.0022945788
9	0x3d259c1e	0.040432088
10	0x3ba276a1	0.0049579893
11	0x3c0d58b8	0.008627109
12	0x3b5fce1c	0.003414995
13	0xbba41e33	-0.005008483
14	0x3cec09ec	0.028813325
15	0x3c8238b6	0.015896183
16	0xbc314604	-0.010819916
17	0xbc1fb860	-0.009748548
18	0xbc088206	-0.008331781
19	0x3c33a13f	0.010963737
20	0x3d3c690a	0.04599861
21	0x3b9e859d	0.0048377053
22	0xbb9b77c7	-0.004744503
23	0x3d42594b	0.047448438
24	0x3be53f14	0.006996045
25	0x3d9b0428	0.07569152
26	0xbbb87c7f	-0.0056300755
27	0xbd22ba7b	-0.039728623
28	0xbbf778ec	-0.007552257
29	0x3c33dce1	0.010977955
30	0x3d37468e	0.04474502
31	0xbd528622	-0.05139745
32	0xbaac65c8	-0.0013152892
33	0xbba94ad7	-0.0051663923
34	0x3c1e7dc5	0.0096735405
35	0xbc667b84	-0.014067534
36	0xbcdedd4d	-0.027205134
37	0xbb86cf89	-0.0041140956
38	0xbcb59976	-0.022167902
39	0x3beb8e8c	0.007188624
40	0x3c16c4bc	0.009202179
41	0xbcde0779	-0.027103173
42	0x3c4d8dc4	0.012546007
43	0xbc9830c1	-0.018577935
44	0x3d79d43b	0.060993414
45	0xbc7c1e4a	-0.015388081
46	0x3c1a7537	0.00942736
47	0xbd2bd71c	-0.04195319
48	0x3d936d85	0.071986236
49	0x3b04b854	0.002025147
50	0xb90df34a	-0.0001353744
51	0x3c14a519	0.0090725655
52	0x3d69cae8	0.057078272
53	0xbc5f3f5e	-0.013625948
54	0xbbae75c2	-0.0053240964
55	0x3bbeeba2	0.0058264295
56	0xbbfb762c	-0.0076739993
57	0x3cbb59d0	0.022869974
58	0x3d9219b1	0.071338065
59	0xbc06c670	-0.008226022
60	0x3c72b2f6	0.014813175
61	0x3b4cdc14	0.0031259106
62	0xbcbe4e20	-0.023230612
63	0xbb76d85c	-0.0037665581
64	0x3d782ee2	0.060591586
65	0x3c6c13a5	0.0144089805
66	0x3d55ca53	0.052194905
67	0xbd6e8e7d	-0.058241356
68	0x3c5410f3	0.012943494
69	0x3d5177a0	0.051139474
70	0xbc4bc7ce	-0.012437774
71	0x3d2e37da	0.042533733
72	0xbbb5730e	-0.005537397
73	0x3c05c70e	0.008165134
74	0x3c4e93e5	0.012608503
75	0xbd866e49	-0.06564004
76	0xbd861f7c	-0.06548974
77	0xbca4e17e	-0.020127054
78	0xbc1c5628	-0.009542026
79	0xbbf43e50	-0.0074537173
80	0x3c04009a	0.008056784
81	0xbd307a6e	-0.043085508
82	0x3a8be370	0.001067264
83	0x3b3507b6	0.0027623004
84	0xbbf7aa4e	-0.0075581437
85	0x3c20bf15	0.0098111825
86	0x3bb5ab6c	0.0055441167
87	0xbd64bbc5	-0.055843133
88	0xbd92436e	-0.071417674
89	0xbcfa8f24	-0.030585833
90	0x3ad9b348	0.0016609216
91	0x3d8f5bb4	0.06999913
92	0xbcff7308	-0.03118278
93	0xbd75a13b	-0.059968214
94	0xbd822db4	-0.063563734
95	0xbd958a7a	-0.07301803
96	0xbb1d4fc4	-0.0024003843
97	0xbaa3bab8	-0.001249156
98	0x3d49c61a	0.04926119
99	0x3d90786d	0.070542194
100	0xbba11274	-0.00491553
101	0x3d5d261f	0.053991433
102	0x3d9b6116	0.07586877
103	0x3d8f238b	0.06989201
104	0xba554720	-0.00081359036
105	0xbaa80559	-0.0012818977
106	0x3c154585	0.009110813
107	0xbbf00a03	-0.0073254122
108	0x3c00896b	0.007845263
109	0xbd254f36	-0.040358745
110	0xbd21d532	-0.03950996
111	0x3b883df4	0.004157776
112	0xbd54cff0	-0.051956117
113	0xbc5331ce	-0.012890292
114	0xbbf789d0	-0.0075542703
115	0x3c04c34a	0.008103201
116	0xbd760109	-0.06005958
117	0x3c79c5fb	0.015244956
118	0x3d6ba846	0.057533525
119	0x3cbd46e9	0.023105102
120	0xbc1c84e3	-0.009553167
121	0x3d958c38	0.07302135
122	0x3d85b2d0	0.065282464
123	0xbd4e80c2	-0.05041576
124	0x3d05e3d6	0.032687984
125	0xbc046a9f	-0.008082061
126	0xbb46b43a	-0.0030319826
127	0xbc684172	-0.01417576
128	0x3c36f3ca	0.011166522
129	0xbc20ce85	-0.009814863
130	0x3b9c8d16	0.004777561
131	0x3cf6f852	0.030147705
132	0xbb2a679a	-0.0026001693
133	0xbd4f5ac2	-0.050623663
134	0x3c3d0419	0.0115366215
135	0x3bd218a0	0.006411627
136	0xbc478b58	-0.012179218
137	0xbc3635f0	-0.011121258
138	0x3c1d7812	0.0096111465
139	0x3d8873aa	0.06662686
140	0xbd2263d4	-0.039645985
141	0x3cdee36e	0.027208056
142	0x3c313ee8	0.010818221
143	0xbd24241f	-0.04007351
144	0xbbea1c7e	-0.00714451
145	0xbb8569cc	-0.00407145
146	0x3d03c512	0.032170363
147	0x3d5286e8	0.051398188
148	0x3d619300	0.05507183
149	0xbccc3d57	-0.024931593
150	0x3d76d0ba	0.06025765
151	0x3c33b1cf	0.010967686
152	0x3d754c4e	0.059887223
153	0x3ca26c46	0.01982702
154	0x3c2980dd	0.010345665
155	0x3c414094	0.011795182
156	0x3d893e65	0.06701354
157	0x3b53f1a0	0.0032340065
158	0x3cf21090	0.029548913
159	0xbc99ab4a	-0.018758435
160	0xbd1ba922	-0.038003094
161	0x3bb4423b	0.0055010593
162	0xbabeae20	-0.0014547743
163	0xbbbbf7b6	-0.0057363166
164	0x3b6d762b	0.0036233764
165	0xbd97ba56	-0.07408588
166	0xbbb2e3a9	-0.005459268
167	0xbbfad4d8	-0.0076547675
168	0x3ba9d3d9	0.005182725
169	0xbcee3238	-0.02907668
170	0xbb734ec8	-0.0037125815
171	0x3c35a0ea	0.011085728
172	0xbac3cd30	-0.001493847
173	0x3bae6251	0.005321779
174	0x3d62cc6e	0.05537074
175	0x3d38ce95	0.045118887
176	0xbcc05806	-0.023479473
177	0x3c471654	0.0121513195
178	0x3ae24928	0.0017264234
179	0x3d917008	0.071014464
180	0x3c3a3e74	0.011367429
181	0x3c982ffa	0.018577565
182	0xbc4215ea	-0.011846045
183	0xbbda76f5	-0.006667013
184	0xbcc50f54	-0.02405516
185	0x3b624b14	0.0034529613
186	0x3bbd15ac	0.0057704058
187	0x3d2bf74e	0.041983895
188	0x3cb49629	0.022044258
189	0x3c35cb31	0.011095808
190	0x3d6baffa	0.05754087
191	0xbb7f5034	-0.0038957717
192	0x3c16a1c7	0.009193844
193	0x3d7c4af4	0.06159492
194	0x3bf7ed07	0.0075660977
195	0xbc178eaa	-0.009250322
196	0x3d0ec2bf	0.034853693
197	0xbcb3eace	-0.02196255
198	0xbd8f27de	-0.06990026
199	0x3d3b4866	0.04572334
200	0x3d193cc7	0.037411477
201	0x3c113e9b	0.008865024
202	0x3b6c7164	0.0036078328
203	0xbc3fd5c5	-0.0117086815
204	0xb9853880	-0.00025409833
205	0x3bae1d75	0.00531357
206	0xbcd3dd8a	-0.025862474
207	0xbc130772	-0.008973943
208	0xbb809c6e	-0.003924898
209	0xbc0dc471	-0.008652792
210	0xbd864864	-0.06556776
211	0x3bc345a4	0.0059592295
212	0xbce3ef02	-0.027823929
213	0xbb4ec374	-0.0031549605
214	0x3cfa3896	0.03054456
215	0x3d335bfe	0.043788902
216	0xbbd0b1c1	-0.006368846
217	0xbd1d4b52	-0.03840191
218	0xbab126c4	-0.0013515581
219	0x3aa7a99c	0.0012791636
220	0x3c45c9b2	0.012072014
221	0xbcab94de	-0.020945009
222	0xbc37872c	-0.011201661
223	0xbc4946ff	-0.012284993
224	0xbd7cf8f7	-0.06176087
225	0xbc500904	-0.012697462
226	0xbc8f94a6	-0.017526936
227	0xbbc4faea	-0.0060113566
228	0x3d555dbf	0.052091356
229	0x3d7a51ea	0.061113276
230	0x3b956862	0.0045595625
231	0xbb41669a	-0.0029510618
232	0xbcbfd7ec	-0.02341839
233	0xbd5138c4	-0.051079527
234	0xbb84e0e2	-0.0040551284
235	0xbd4c02ec	-0.049807474
236	0xbc8498d6	-0.01618616
237	0x3d3831b7	0.044969287
238	0xbc14deb1	-0.009086297
239	0x3d8527e3	0.065017484
240	0xbbad1484	-0.0052819867
241	0x3b31b43a	0.002711548
242	0x3b42a975	0.0029703055
243	0x3c093100	0.008373499
244	0xbd1e22d3	-0.03860743
245	0x3d90f029	0.07077057
246	0x3d83e844	0.064407855
247	0x3c9422f0	0.018083066
248	0xbc3c4b94	-0.011492629
249	0xbd6458a8	-0.05574861
250	0x3c073a14	0.008253593
251	0x38f4d3c0	0.00011674268
252	0x3d3f311f	0.046677705
253	0xbb909ac0	-0.004412979
254	0xbb82705a	-0.0039806785
255	0xbc850dac	-0.01624187

convs.0.convs.<region___rev_has_region___subject>.lin_rel.bias f4 [64]
0	0x3c6ba673	0.014382946
1	0xbb08f204	-0.0020896206
2	0x3c0412ca	0.00806112
3	0x3d0613bb	0.03273366
4	0xbd72f73c	-0.059317812
5	0x3be8d77c	0.007105766
6	0x3c54acc5	0.012980645
7	0x3b591200	0.00331223
8	0xbd1890bd	-0.03724741
9	0xbd803ee8	-0.062619984
10	0x3c08afdd	0.00834271
11	0x3c2331da	0.009960616
12	0xbd7fbef5	-0.06243797
13	0xbd70c890	-0.05878502
14	0x3d8de7c9	0.06928975
15	0x3d0391dc	0.032121524
16	0x3c228ef8	0.009921782
17	0x3d2ce2a9	0.042208347
18	0xba865b7e	-0.0010250655
19	0x3c3104bf	0.010804354
20	0x3d6c1d2d	0.05764501
21	0xbcee6cd1	-0.029104622
22	0x3d93215d	0.07184098
23	0x3b870deb	0.004121532
24	0x3b53f5bc	0.0032342514
25	0x3d6b68e2	0.05747307
26	0xbd5ae468	-0.05344048
27	0x3d0aeb15	0.033915598
28	0x3a585a30	0.0008253185
29	0xbd55b182	-0.052171238
30	0xbc8d25f4	-0.017230012
31	0xbd976597	-0.073924236
32	0xbc3fd756	-0.011709055
33	0xbc9d6c6c	-0.019216739
34	0x3b98fdec	0.0046689417
35	0x3c5213c2	0.012822093
36	0x3b76aa80	0.0037638247
37	0xbd263c52	-0.04058487
38	0xbc5cf219	-0.013485455
39	0xbc320bcd	-0.010867071
40	0x3c28a9b4	0.010294367
41	0x3c270b44	0.010195557
42	0xbb378161	-0.00280007
43	0xba6b2fb0	-0.00089716446
44	0xbd948a19	-0.072529025
45	0xbd857842	-0.06517078
46	0xbd9332a2	-0.07187392
47	0x3c43d73c	0.011953171
48	0xbc2ff2c8	-0.010739036
49	0xbba251ee	-0.0049536144
50	0x3d3108a3	0.043221127
51	0x3b9a5ada	0.0047105374
52	0x3be6397e	0.0070258966
53	0xbc541257	-0.012943826
54	0xbd12420e	-0.035707526
55	0xbd37fc1a	-0.044918157
56	0xbd07739d	-0.03306924
57	0xbb159159	-0.002282223
58	0x3d18a668	0.037268072
59	0x3d13c59e	0.036077134
60	0xbbcc3257	-0.006231587
61	0x3d094480	0.033512592
62	0xbc9624bf	-0.018328069
63	0xba9db870	-0.0012033116

convs.0.convs.<region___rev_has_region___subject>.lin_root.weight f4 [64, 64]
0	0xbde69bb1	-0.112601645
1	0xbbc9cabe	-0.006158202
2	0x3d7b3def	0.06133836
3	0xbd1b56c0	-0.037924528
4	0xbd205a56	-0.03914865
5	0x3decd9c2	0.115649715
6	0xbd152012	-0.036407538
7	0xbdb6eb7c	-0.08931634
8	0xbc844601	-0.016146662
9	0xbd098b3a	-0.033580042
10	0xbd09ef98	-0.03367576
11	0x3dc05f53	0.09393182
12	0xbd45c53b	-0.048283797
13	0x3d9d3a5a	0.07677145
14	0xbd43f355	-0.04783948
15	0xbd85ffd0	-0.06542933
16	0x3cb643ad	0.022249067
17	0x3cfceab0	0.030873626
18	0xbb4fb3d8	-0.0031692889
19	0xbdda55be	-0.10660885
20	0x3db889a7	0.0901063
21	0xbd9cf526	-0.07663946
22	0x3dbadb42	0.09123851
23	0xbe091294	-0.13385993
24	0x3d9b68b5	0.07588331
25	0xbdefca1b	-0.117084704
26	0xba599168	-0.000829956
27	0x3c46d29e	0.012135176
28	0x3e0e5836	0.13900837
29	0xbddeb4c0	-0.10874319
30	0xbd685037	-0.056717124
31	0xbdc455de	-0.0958669
32	0x3d173618	0.036916822
33	0x3d6e6995	0.05820616
34	0x3dda0ffc	0.1064758
35	0x3e234b6e	0.15946743
36	0x3de17baf	0.11009919
37	0xbddb79bd	-0.10716579
38	0x3dc58571	0.096445926
39	0x3d64007a	0.055664517
40	0x3dcda8ef	0.10041987
41	0xbdeb663f	-0.11494111
42	0x3d278175	0.040894944
43	0xbc150ddb	-0.009097542
44	0xbb4c51c6	-0.003117667
45	0x3d9b2d2e	0.07576977
46	0x3d83aaee	0.064290866
47	0xbd6544fa	-0.055973984
48	0xbda8c9a0	-0.08241582
49	0xbd35aacf	-0.04435235
50	0x3e1bf607	0.1523057
51	0x3d1cb965	0.038262744
52	0xbe0461e8	-0.12927973
53	0x3d0e55d3	0.034749817
54	0xbcbb8707	-0.022891534
55	0x3e096817	0.13418613
56	0xbd4c8fe3	-0.04994191
57	0xbde1d861	-0.11027599
58	0xbd6cd9c6	-0.057824872
59	0xbca537b6	-0.020168167
60	0xbe141b67	-0.14463578
61	0x3ded02e4	0.11572817
62	0xbd96023f	-0.07324647
63	0x3cf32ec7	0.029685391
64	0x3d588a88	0.05286649
65	0x3db58b3f	0.0886445
66	0xbd1fd1c4	-0.039018407
67	0x3d849da3	0.06475379
68	0xbce7691f	-0.028248368
69	0xbdc32f26	-0.09530477
70	0xbd3df9a2	-0.046380647
71	0x3d919b68	0.071097195
72	0x3c6ee703	0.014581445
73	0xbd26df01	-0.040740017
74	0xbd005f39	-0.03134081
75	0x3ca950ce	0.020668413
76	0xbde14f6a	-0.11001475
77	0xbdf806c1	-0.12110663
78	0xba5a12a0	-0.00083188154
79	0xbdea6f1a	-0.11446972
80	0xbd0202da	-0.031741
81	0x3e1be36f	0.15223478
82	0xbc23e1f4	-0.010002602
83	0x3c6d3185	0.014477138
84	0x3db55978	0.088549554
85	0xbd3cdded	-0.046110082
86	0x3d43bb47	0.047786023
87	0x3d7867fe	0.06064605
88	0xbbccc959	-0.0062495884
89	0x3d3d2863	0.046181094
90	0x3d63c30c	0.055605933
91	0x3daa27a3	0.08308341
92	0x3bf6c32b	0.00753059
93	0x3d49ecb3	0.049298
94	0x3d8ab08d	0.06771956
95	0xbd032f88	-0.03202775
96	0xbd6f0c5f	-0.058361407
97	0xbd16f135	-0.036851127
98	0xbd1fca67	-0.039011385
99	0xbd9d7b10	-0.07689488
100	0xbd8f8442	-0.07007648
101	0xbe1097b7	-0.14120375
102	0xbcfadf3a	-0.03062402
103	0x3b5fe724	0.003416487
104	0xbc3222de	-0.010872571
105	0x3d432502	0.047642715
106	0xbddac740	-0.10682535
107	0xbd4474c2	-0.04796291
108	0xbd5370fa	-0.051621415
109	0xbdd5802a	-0.10424836
110	0xbdacfc68	-0.0844658
111	0x3dc934df	0.098245375
112	0x3dca7b4b	0.098867975
113	0x3ce282fd	0.02765035
114	0x3c4a53ef	0.012349113
115	0x3d978045	0.07397512
116	0xbd5cc77a	-0.053901173
117	0xbd7bf3a8	-0.061511666
118	0x3deefb94	0.116690785
119	0x3df2f003	0.11862185
120	0x3daae94f	0.08345281
121	0xbc9a0ba2	-0.018804375
122	0x3db1ae0c	0.08675775
123	0xbdfd736a	-0.12375529
124	0xbd2faac7	-0.042887475
125	0x3dbf4c49	0.09340722
126	0xbe034f41	-0.12823202
127	0xbdcc3474	-0.09970942
128	0xbc789a5a	-0.015173519
129	0xbd553242	-0.052049883
130	0xbe0ff7f2	-0.14059427
131	0x3e0c3e0a	0.13695541
132	0x3c44a68b	0.012002598
133	0x3db800ac	0.08984503
134	0x3b56d052	0.0032777977
135	0x3c082f26	0.008312022
136	0x3cfda22a	0.030961115
137	0xbc9b712d	-0.018974865
138	0xbd8b7394	-0.06809154
139	0x3dcf81b9	0.101321645
140	0x3c07042f	0.008240744
141	0x3e0e9f54	0.13927966
142	0x3db7a4e0	0.08966994
143	0x3d31d42b	0.04341523
144	0xbe0014af	-0.1250789
145	0x3e0cc778	0.13747966
146	0x3d78ba42	0.060724504
147	0x3d9ca549	0.07648713
148	0xbcddbcb8	-0.027067527
149	0xbd32ce54	-0.0436538
150	0x3dcd3793	0.100203656
151	0xbd31ee79	-0.043440316
152	0x3d3705ba	0.044683196
153	0xbdb4ff82	-0.08837797
154	0xbd49f058	-0.049301475
155	0xbd765786	-0.060142063
156	0xbda2e368	-0.079535306
157	0x3db19a8c	0.086720556
158	0xbd4f1d9e	-0.050565355
159	0xbd439872	-0.047752805
160	0x3c47e7d8	0.012201272
161	0xbc3809de	-0.011232821
162	0x3db025cf	0.086009614
163	0xbba85318	-0.0051368587
164	0x3dabc6c0	0.08387518
165	0x3d7eca83	0.06220485
166	0xbd89e70c	-0.06733522
167	0xbe1946b3	-0.14968376
168	0x3dbba249	0.09161813
169	0x3bbe56cf	0.0058086882
170	0x3bfc504d	0.0077000023
171	0xbc792723	-0.015207085
172	0x39c49c00	0.00037500262
173	0x3da80e7d	0.082058884
174	0x3dfb8000	0.122802734
175	0x3c05bf6a	0.008163312
176	0x3d5f7b3a	0.054560877
177	0x3d1a9f14	0.037749365
178	0x3d5b8a53	0.053598713
179	0x3e17fc3f	0.14842318
180	0xbc91fcd5	-0.017820755
181	0xbe1228f2	-0.14273432
182	0x3dc29921	0.09501863
183	0x3d9914ae	0.074746475
184	0xbc435d83	-0.01192415
185	0x3d96e30d	0.07367525
186	0x3d05974a	0.032614984
187	0xbd787244	-0.060655847
188	0x3d453631	0.048147384
189	0x3da0401d	0.07824729
190	0xbdc8e54f	-0.09809362
191	0xbd2a5c7d	-0.04159211
192	0xbd87f9d1	-0.066394456
193	0x3e1619e3	0.14658312
194	0xbaafb908	-0.0013406584
195	0xbd70c712	-0.0587836
196	0xbc8998fc	-0.016796581
197	0x3c898bd5	0.01679031
198	0x3e02b110	0.12762856
199	0xbdc13333	-0.094335936
200	0x3e1782b2	0.1479595
201	0xbe10f17f	-0.14154623
202	0xbe14c8d2	-0.14529732
203	0xbd92e213	-0.071720265
204	0xbdd231d1	-0.10263408
205	0x3d93cae8	0.07216436
206	0xbd88dca3	-0.06682708
207	0xbd3a5429	-0.045490418
208	0x3ba816d3	0.005129674
209	0x3d87545e	0.06607889
210	0x3d2dcec0	0.0424335
211	0x3ad2a4f8	0.0016070893
212	0xbcf468fc	-0.029835217
213	0x3d2d0d1c	0.04224883
214	0xbd2c8c1b	-0.042125802
215	0x3d6f2882	0.05838824
216	0xbda2ed62	-0.079554334
217	0x3d350316	0.044192396
218	0x3ce11cbc	0.027479522
219	0xbd63256e	-0.055455618
220	0xbabbaee0	-0.0014319085
221	0xbd39f8ee	-0.045403413
222	0xbd26bc10	-0.040706694
223	0xbe02432a	-0.12720934
224	0x3ce917e1	0.02845377
225	0x3d9f2bad	0.07772002
226	0xbde804d4	-0.11329046
227	0xbcc00c3c	-0.023443334
228	0x3e0ee9b5	0.1395634
229	0xbe18ea5d	-0.14933152
230	0x3ccdaae7	0.025105907
231	0x3dd02534	0.10163346
232	0xbe013f8d	-0.12621899
233	0xbd8ce255	-0.06879107
234	0x3c663fa1	0.014053256
235	0xbcc3aac0	-0.02388513
236	0xbd45bf2e	-0.048278026
237	0x3d44ab52	0.048014946
238	0xbd434589	-0.047673736
239	0xbd9e4ff1	-0.07730091
240	0x3dad2936	0.08455126
241	0x3d748309	0.059695277
242	0xbd518486	-0.051151775
243	0x3dfae10f	0.12249958
244	0xbdbc2458	-0.091866195
245	0x3d8ecec2	0.0697303
246	0x3ccefe5e	0.025267776
247	0x3c9bd652	0.019023094
248	0x3dc8748d	0.09787855
249	0xbd7cda88	-0.061731845
250	0xbdf91779	-0.1216268
251	0xbd70c61b	-0.058782678
252	0xbdc9cabe	-0.09853123
253	0x3db0a498	0.08625144
254	0xbe180a97	-0.1484779
255	0xbd4ebca7	-0.05047288

convs.0.convs.<region___is_functionally_connected___region>.att_src f4 [1, 1, 64]
0	0x3e665f01	0.22497179
1	0x3cc9040e	0.024538066
2	0x3d57a32e	0.052645855
3	0x3dbec4be	0.09314869
4	0x3d63b150	0.05558902
5	0xbdbf5d82	-0.09344007
6	0x3e1b67bc	0.1517629
7	0x3e4e5b88	0.20152104
8	0x3e7ebe7a	0.24877349
9	0x3bc95de8	0.0061452277
10	0xbe36d1f7	-0.17853533
11	0xbd5220d6	-0.051300846
12	0x3df7ed9a	0.12105866
13	0x3e3682e8	0.17823374
14	0x3e00ea3c	0.12589353
15	0xbe440e01	-0.19145967
16	0x3df4278c	0.119216055
17	0xbd96b214	-0.073581845
18	0x3e09730c	0.13422793
19	0xbe1c1b5f	-0.15244816
20	0x3e2f0ac9	0.17093958
21	0x3d988e10	0.07448971
22	0x3d6afb8f	0.05736881
23	0x3e6db413	0.23213224
24	0x3e6d99d4	0.23203212
25	0x3d976b87	0.07393556
26	0x3e3fef94	0.18743736
27	0xbd5e3f5a	-0.054259636
28	0x3e7bd652	0.24593475
29	0x3e444bf3	0.19169597
30	0xbe74e053	-0.23913698
31	0xbcd79a8e	-0.026318815
32	0x3e6767d7	0.22598206
33	0xbdda0dd2	-0.10647167
34	0x3ca346e6	0.019931268
35	0x3b9c2782	0.004765452
36	0xbd86d209	-0.0658303
37	0x3dff5ffe	0.12469481
38	0x3df3fd8e	0.11913596
39	0x3e380005	0.17968757
40	0xbdc91622	-0.098186746
41	0x3e228c59	0.15873851
42	0x3e618139	0.22021951
43	0xbe674c25	-0.2258764
44	0xbe514ef4	-0.20440274
45	0xbd347a99	-0.04406223
46	0xbd0eccd4	-0.034863308
47	0x3da94192	0.0826446
48	0xbe7174bb	-0.23579685
49	0x3bfd3dd0	0.007728316
50	0xbe33a527	-0.1754347
51	0xbe075f08	-0.13219845
52	0xbb8b82d4	-0.0042575393
53	0x3d29a4ba	0.04141686
54	0xbe617851	-0.22018553
55	0xbcc5c301	-0.024140837
56	0x3cc2e52c	0.023790918
57	0x3e0ad852	0.13559082
58	0x3daf972d	0.08573756
59	0x3e7b5462	0.24543908
60	0x3e20ea1b	0.15714304
61	0x3e45d335	0.1931885
62	0xbe7a7339	-0.24458016
63	0xbd08673d	-0.03330158

convs.0.convs.<region___is_functionally_connected___region>.att_dst f4 [1, 1, 64]
0	0x3ddcd8f1	0.10783566
1	0x3e5ac4c1	0.21364118
2	0x3cb4e1d5	0.022080341
3	0xbe021f65	-0.12707289
4	0x3e794e7c	0.24346346
5	0xbcd6cbd2	-0.026220236
6	0xbe1db0dd	-0.15399499
7	0x3e0e8138	0.1391648
8	0x3e3ccc43	0.18437295
9	0x3e7b6037	0.24548422
10	0xbe786dde	-0.24260661
11	0xbe1028d2	-0.14078072
12	0xbc2cea3d	-0.010553894
13	0x3cbe7fd5	0.023254314
14	0x3d535262	0.05159224
15	0x3e17bf3c	0.14819044
16	0x3d369b4a	0.04458169
17	0x3d53ef5c	0.051741943
18	0x3e5b48f5	0.2141455
19	0xbdcbe9d4	-0.099567086
20	0x3e2b6a8d	0.16739865
21	0x3d509da4	0.050931588
22	0x3dca0a8a	0.098652914
23	0xbd0f4e72	-0.03498692
24	0x3dd9b8b0	0.106309295
25	0x3d52a130	0.05142325
26	0x3dbcf6af	0.09226739
27	0xbcf5bbd4	-0.02999679
28	0x3d49fb27	0.049311783
29	0xbcfa1d0b	-0.030531427
30	0xbe48f0ba	-0.1962308
31	0xbda2fb87	-0.07958131
32	0xbe20b049	-0.15692247
33	0x3e06061a	0.13088265
34	0x3e4deac0	0.20109081
35	0xbe5ff83f	-0.21872042
36	0xbe0b265b	-0.1358885
37	0x3d926d2b	0.071497284
38	0x3e3a3fd9	0.18188418
39	0x3dc76649	0.09736306
40	0xbdbde973	-0.092730425
41	0x3e21b101	0.15790178
42	0xbe2be830	-0.16787791
43	0xbe01a6af	-0.12661241
44	0x3d65bc38	0.056087703
45	0x3e5be237	0.21473013
46	0x3d172476	0.036900006
47	0x3c71a87f	0.014749645
48	0xbe12f848	-0.14352524
49	0xbdb86871	-0.090042956
50	0xbd8dbdd1	-0.0692097
51	0x3e3f5a60	0.18686819
52	0xbe5d66ea	-0.2162129
53	0x3e0d77b9	0.13815202
54	0x3e52ddec	0.20592469
55	0x3e238f16	0.15972552
56	0x3d81eef6	0.06344406
57	0x3e0c9daa	0.13732019
58	0x3c9abd2f	0.018889038
59	0x3e143d58	0.14476526
60	0x3e0cee1a	0.13762704
61	0x3e1eb637	0.15499197
62	0x3d176cee	0.036969118
63	0x3e717db6	0.23583111

convs.0.convs.<region___is_functionally_connected___region>.bias f4 [64]
0	0xbbef9080	-0.007310927
1	0x3b8412d8	0.0040305667
2	0xba01043a	-0.0004921589
3	0x3aa5d085	0.0012650645
4	0xbbae7628	-0.005324144
5	0x3b0ed3b9	0.0021793677
6	0x3aebcb26	0.001798962
7	0x3b39c73b	0.002834751
8	0x3ad94bcc	0.0016578375
9	0x3acaabce	0.0015462579
10	0xbb5873c1	-0.003302798
11	0x3ad19cda	0.001599218
12	0x3b9b55e3	0.004740463
13	0xb7845040	-1.5772996e-05
14	0xbc2ec4d8	-0.010667048
15	0x3b110649	0.002212899
16	0x3bc3c1ec	0.005974045
17	0x3b2781ca	0.0025559538
18	0xbb2ea7a6	-0.002665022
19	0x39d1de00	0.0004002899
20	0x3b483620	0.003054984
21	0x3b8688e6	0.004105675
22	0x3abd4eb2	0.0014443009
23	0xb90ce9e0	-0.00013438566
24	0x3c06c3e8	0.008225419
25	0xbbb8e63f	-0.005642682
26	0x3abeddfb	0.0014562005
27	0xbbffac56	-0.0078025265
28	0xbbd753d8	-0.0065712743
29	0xbad73db6	-0.001642159
30	0xbb29b12d	-0.0025892959
31	0xba54f7da	-0.0008124091
32	0xbbbe8030	-0.005813621
33	0x371553c0	8.900592e-06
34	0x3b113886	0.0022158935
35	0xbbc45802	-0.0059919367
36	0xbb78c3ea	-0.003795857
37	0xba50f9c8	-0.00079717906
38	0xbaffd53e	-0.0019518507
39	0xbaab9f24	-0.0013093692
40	0x3ba78e14	0.0051133726
41	0xbb204b00	-0.0024458766
42	0x3a2f8198	0.0006695031
43	0xbb495507	-0.0030720846
44	0x3c09fcce	0.00842209
45	0x3829c1b0	4.0473125e-05
46	0xbadf95b4	-0.0017058165
47	0xbba0f382	-0.004911841
48	0x3c1faab7	0.009745291
49	0xbb1b88a4	-0.0023732567
50	0xbb4e967c	-0.00315228
51	0xbc0679a1	-0.0082077095
52	0x3b0ea929	0.0021768308
53	0x3a4239d4	0.000740913
54	0x3bbc0227	0.0057375613
55	0x3bbb5a38	0.005717542
56	0x3bbb06af	0.005707584
57	0xbb499e35	-0.0030764465
58	0xbb903872	-0.00440126
59	0x3b0ee865	0.0021805998
60	0x3a65cfee	0.00087666407
61	0x3ac70a6c	0.0015185601
62	0x3ba6187d	0.005068837
63	0xbbbf8798	-0.0058450215

convs.0.convs.<region___is_functionally_connected___region>.lin.weight f4 [64, 64]
0	0x3db70e3d	0.089382626
1	0xbd9c3b68	-0.07628518
2	0xbe2abe7c	-0.16674227
3	0x3d487be4	0.048946276
4	0x3c28e11c	0.0103075765
5	0xbdd16f22	-0.10226275
6	0xbdf6f014	-0.1205751
7	0x3a93c36c	0.001127345
8	0x3d63af7d	0.05558728
9	0x3dc679b7	0.09691184
10	0xbd828c3c	-0.06374404
11	0xbd90bfe1	-0.07067848
12	0x3ded5f10	0.11590397
13	0xbc8ba65e	-0.017047103
14	0xbd2c0a0a	-0.04200176
15	0xbe1c2647	-0.15248977
16	0x3cca54e2	0.024698678
17	0xbd98570a	-0.074384764
18	0x3c96944b	0.018381258
19	0x3df7d606	0.121013686
20	0x3c1a84c1	0.009431065
21	0xbdb0cff7	-0.08633416
22	0x3c0c9fc4	0.008583013
23	0xbb82e92a	-0.0039950805
24	0xbe00bb77	-0.12571512
25	0x3c157c1b	0.009123827
26	0x3dfa4cd6	0.122216865
27	0x3e1cc980	0.15311241
28	0x3d01f260	0.031725287
29	0xbd83a06e	-0.06427084
30	0x3dcb5134	0.09927598
31	0xbd88cb5a	-0.06679411
32	0x3cb1dd10	0.021711856
33	0x3e09ab0c	0.13444155
34	0x3ad72cb0	0.0016416516
35	0xbdf2ff1f	-0.11865067
36	0x3bcd9c36	0.0062747253
37	0xbe10f19d	-0.14154668
38	0x3d56a840	0.05240655
39	0xba06fc28	-0.00051492685
40	0xbd6bfa11	-0.05761153
41	0x3a2eafb0	0.0006663753
42	0x3b9744bc	0.004616348
43	0x3d122888	0.035683185
44	0xbc97904d	-0.018501425
45	0xbcebf2c0	-0.028802276
46	0xbdd53349	-0.104101725
47	0xbe249b9a	-0.16074982
48	0xbbc87274	-0.0061171595
49	0xbd01e774	-0.03171487
50	0x3c3751a0	0.0111888945
51	0xb99077e0	-0.00027555134
52	0xbdbad1ab	-0.09122022
53	0x3d5871ae	0.05284279
54	0xbd8cb954	-0.06871286
55	0xbdae52ea	-0.08511908
56	0xbc915b50	-0.017743737
57	0xbc555a8b	-0.013022075
58	0xbde4f23d	-0.11179016
59	0xbbdd24b4	-0.00674876
60	0xbd2bb5e8	-0.041921526
61	0xbe0822b0	-0.13294482
62	0xbddb1b13	-0.10698523
63	0x3c8f81d4	0.017517962
64	0xbdec79b4	-0.115466505
65	0xbd9817ef	-0.0742644
66	0xbe23efbe	-0.16009423
67	0x3c3582b8	0.011078529
68	0x3d6c5076	0.05769392
69	0xbcb5c4b4	-0.022188522
70	0x3c4d0202	0.012512686
71	0x3c0ac61e	0.008470086
72	0x3c38369d	0.01124349
73	0xbe1389c9	-0.1440803
74	0x3db9c53d	0.09070823
75	0xbc23cce1	-0.009997577
76	0xbc5831c5	-0.01319546
77	0xbc51dea1	-0.0128094265
78	0xbd8f670d	-0.07002077
79	0xbcb55020	-0.022132933
80	0xbaad61f8	-0.001322805
81	0xbc04ed23	-0.008113178
82	0x3e017812	0.1264346
83	0x3dfa63db	0.12226077
84	0x3e0405f1	0.12892891
85	0xbe29a61b	-0.1656727
86	0x3de2da56	0.110768005
87	0xbb33f838	-0.0027461182
88	0x3d04a34d	0.0323823
89	0x3d21dd5a	0.039517738
90	0x3c2fa6ac	0.01072089
91	0x3e060e90	0.13091493
92	0x3cc4b256	0.024010818
93	0x3c6ec700	0.0145738125
94	0x3df68315	0.12036721
95	0x3df38438	0.11890453
96	0xbdde3394	-0.108496815
97	0xbca4618a	-0.020066041
98	0x3d986d98	0.07442778
99	0xbd8e35f2	-0.06943883
100	0x3de837da	0.11338778
101	0x3b96e51f	0.00460495
102	0x3d3e21fe	0.046419136
103	0xbe049cf1	-0.12950493
104	0x3dcef5eb	0.10105499
105	0xbc8d3400	-0.01723671
106	0x3e292d3c	0.16521162
107	0xbe1235d9	-0.14278354
108	0xbde2f79c	-0.11082384
109	0x3bb5c2ac	0.0055468883
110	0xbdacccc0	-0.084374905
111	0xbd5dfe6b	-0.05419771
112	0xbdbf7b36	-0.093496725
113	0x3df272fd	0.118383385
114	0x3c38794c	0.011259388
115	0x3e1e8dcf	0.15483783
116	0xbda084ab	-0.078378044
117	0xbd87436f	-0.06604659
118	0x3c822ae7	0.015889598
119	0xbe049781	-0.12948419
120	0x3c9b2bd4	0.018941797
121	0x3e139c9a	0.14415208
122	0xbdd39263	-0.103306554
123	0xbd2a641f	-0.04159939
124	0x3a6c8620	0.0009022672
125	0xbd784343	-0.06061102
126	0xbddd3ed6	-0.10803001
127	0xbd2a662b	-0.04160134
128	0xbde98631	-0.11402548
129	0x3ba2802a	0.004959126
130	0x3d75c533	0.060002517
131	0xbd2c33a5	-0.04204144
132	0xbde739f8	-0.112903535
133	0x3e267159	0.16254176
134	0x3e17d5d8	0.14827669
135	0x3daea3a6	0.08527307
136	0x3d978799	0.0739891
137	0x3d9e913d	0.07742546
138	0x3bed783c	0.007246999
139	0x3e2a9c6f	0.16661237
140	0xbd8ac054	-0.06774965
141	0xbdd109e1	-0.102069624
142	0x3e16aaa8	0.14713538
143	0x3af0eaf0	0.0018380564
144	0xbd957c16	-0.07299058
145	0xbdb2947f	-0.0871973
146	0x3d99e41a	0.0751421
147	0xbcec039e	-0.028810319
148	0xbe1cd197	-0.15314327
149	0xbc9b5382	-0.018960718
150	0xbcc1007e	-0.023559805
151	0x3d8981e6	0.06714229
152	0x3e064ec8	0.1311599
153	0x3dc1da60	0.0946548
154	0xbdd1fe54	-0.10253587
155	0xbd3077cc	-0.043082997
156	0x3ca11140	0.019661546
157	0xbb162d06	-0.002291502
158	0xbab61270	-0.0013890993
159	0xbdec5189	-0.11538989
160	0xbdc5ba53	-0.09654679
161	0xbdbed0f7	-0.09317201
162	0x3d843d90	0.064570546
163	0xbe1aad85	-0.15105255
164	0xbe177446	-0.14790449
165	0x3d09b464	0.0336193
166	0x3bed1c2c	0.0072360244
167	0xbd67aeb4	-0.056563094
168	0x3df973e2	0.12180306
169	0xbe144c68	-0.14482272
170	0xbc53f498	-0.012936734
171	0x3d1bbde8	0.038022906
172	0x3cc8cb7f	0.024511097
173	0xbc1f9488	-0.009740002
174	0xbe2a732f	-0.16645502
175	0x3e0eaa6b	0.13932197
176	0xbdc07c62	-0.09398724
177	0xbbf02eb2	-0.0073297853
178	0x3df0f473	0.11765375
179	0x3e15a0e6	0.14612159
180	0xbdc78b13	-0.09743323
181	0xbd966870	-0.073441386
182	0x3b45d318	0.0030185636
183	0xb9ba6e80	-0.00035559013
184	0x3c8691f6	0.016427021
185	0x3dab415d	0.083620764
186	0x3bd5437e	0.00650829
187	0x3e1d8fc1	0.15386869
188	0xbbbcca4d	-0.005761421
189	0xbacc55ac	-0.0015589497
190	0xbe1ffee7	-0.15624581
191	0xbb73caff	-0.0037199853
192	0xbe0e7734	-0.1391266
193	0x3beb849c	0.007187439
194	0x3e18f180	0.14935875
195	0xbe1191d1	-0.14215781
196	0x3e25a313	0.16175489
197	0xbcca8e04	-0.024725921
198	0xbcff27a0	-0.031146824
199	0x3e015b64	0.12632519
200	0x3db739c1	0.089465626
201	0x3deeabce	0.11653863
202	0xbdc445ff	-0.09583663
203	0xbd33d070	-0.043899953
204	0xbdb79cfd	-0.0896549
205	0x3d1f9c37	0.038967337
206	0xbcbced3a	-0.023062337
207	0x3bb4a7c8	0.005513165
208	0xbc480f90	-0.012210742
209	0x3e1c7dda	0.15282384
210	0xbc57e203	-0.013176444
211	0x3c1bcafc	0.009508844
212	0xbd744b24	-0.059641972
213	0xbaa3c258	-0.0012493832
214	0x3e031052	0.12799194
215	0xbc4699bb	-0.012121613
216	0xbc0d4357	-0.008622012
217	0xbbb0e3d8	-0.005398255
218	0x3e06ddda	0.13170567
219	0xbe013d4b	-0.12621038
220	0x3e0d7114	0.13812667
221	0x3bdf70b2	0.0068188543
222	0x3cfb4200	0.03067112
223	0x3de9ff5f	0.11425661
224	0x3d703fc4	0.05865456
225	0x3d0d9664	0.03456725
226	0xbd952e6a	-0.072842434
227	0x3b134f7a	0.0022477792
228	0x3daeb2ce	0.08530198
229	0xbd923826	-0.07139616
230	0x3de9963e	0.114056095
231	0xbde66eb0	-0.11251581
232	0x3d1080cd	0.035279084
233	0xb9192ca0	-0.00014607841
234	0x3e0bbc90	0.1364615
235	0x3cba50d9	0.02274363
236	0xbdb1cda4	-0.08681801
237	0x3dae9d42	0.08526088
238	0x3c71c744	0.014756981
239	0xbc682de0	-0.014171094
240	0xbe265050	-0.16241574
241	0x3c11a9a6	0.008890545
242	0x3aa7d2c8	0.0012803907
243	0xbc1186ac	-0.008882206
244	0x3c8ce11a	0.01719718
245	0xbd93def6	-0.07220261
246	0xbcb88fa6	-0.022529434
247	0x3cd9c2cf	0.02658215
248	0xbda33423	-0.07968929
249	0x3d8c1b3a	0.068411306
250	0x3b0e5e6c	0.002172376
251	0xbdb17fff	-0.086669914
252	0xbe253689	-0.16134085
253	0xbd5e27b2	-0.054237075
254	0xbd6069e0	-0.05478847
255	0xbd9c8a54	-0.076435715

convs.1.convs.<subject___has_region___region>.lin_rel.weight f4 [64, 64]
0	0xbd76bfec	-0.060241625
1	0xbdcb8576	-0.09937565
2	0x3dae2036	0.085022375
3	0x3de84f4e	0.11343251
4	0x3dd61efc	0.104551286
5	0xbcf0e960	-0.029408157
6	0xbddf53ea	-0.10904677
7	0xbdf5fb90	-0.12010872
8	0xbd3c8ad0	-0.04603082
9	0x3d92a436	0.07160227
10	0x3bfea7e0	0.007771477
11	0x3c2dfe10	0.010619655
12	0xbd01d62c	-0.03169839
13	0x3dbc2910	0.091875196
14	0xbd504f70	-0.050857008
15	0xbdcf1ad4	-0.10112539
16	0x3dc25a20	0.09489846
17	0x3d027af0	0.031855524
18	0xbd7f7938	-0.062371463
19	0xbdfd8e2a	-0.12380631
20	0xbd0a5b1c	-0.033778295
21	0x3cd910f8	0.02649735
22	0x3d8d4d9c	0.068995684
23	0xbd747ee4	-0.059691325
24	0x3d3a4f0c	0.04548554
25	0x3d8cbe22	0.068722025
26	0xbdbbfc6c	-0.09179005
27	0x3d1d1094	0.03834589
28	0x3d32f914	0.04369457
29	0x3dc61adc	0.09673092
30	0x3d70d060	0.058792472
31	0x3d08bbb0	0.033382118
32	0xbc40ff50	-0.011779621
33	0xbd7278b0	-0.059197128
34	0x3d8a4b8e	0.06752692
35	0x3b6f4cc0	0.0036514252
36	0x3dfe2b02	0.12410547
37	0xbd73db9c	-0.059535608
38	0xbd1a10bc	-0.037613615
39	0x3d7f9378	0.062396497
40	0x3d588430	0.05286044
41	0x3dbbc990	0.09169304
42	0xbdaa71b6	-0.0832247
43	0x3ae26c80	0.0017274767
44	0xbd60e8c8	-0.054909497
45	0x3d1b2b58	0.037883133
46	0x3dea3052	0.114349976
47	0x3c48e730	0.012262151
48	0x3db70ed6	0.089383766
49	0x3d9db126	0.07699804
50	0x3c950728	0.018191889
51	0xbd51c7a4	-0.051215783
52	0xbdae3bfe	-0.08507536
53	0xbd542160	-0.05178964
54	0xbd95e7a6	-0.07319574
55	0xbda199be	-0.07890652
56	0xbdfe3b82	-0.12413694
57	0x3dec2140	0.115297794
58	0x3d699368	0.057025343
59	0x3d9b6340	0.0758729
60	0x3cda50d8	0.026649877
61	0x3cec7220	0.028863013
62	0x3d5c5180	0.053788662
63	0x3da485dc	0.08033344
64	0xbd251c8c	-0.040310428
65	0xbcda3c48	-0.026640072
66	0xbdfbb42c	-0.122902244
67	0xbc0994c0	-0.008397281
68	0x3bef4020	0.0073013455
69	0xbd89ecc0	-0.067346096
70	0xbddd9512	-0.108194485
71	0x3d89cdd0	0.06728709
72	0xbdab6bea	-0.08370192
73	0xbcb49900	-0.022045612
74	0x3c8b7fc8	0.017028704
75	0x3de57670	0.11204231
76	0x3d75c3cc	0.06000118
77	0xbd9dd6a2	-0.077069536
78	0xbdf16ef0	-0.11788738
79	0xbdf98da8	-0.12185222
80	0x3cbdd190	0.023171216
81	0x3d0ac448	0.033878595
82	0xbd61b930	-0.05510825
83	0xbda66956	-0.0812556
84	0xbdbd013a	-0.092287496
85	0xbc22d420	-0.00993827
86	0xbd8dfa68	-0.06932527
87	0x3d102230	0.035188854
88	0xbd39dfdc	-0.045379505
89	0x3cd118e0	0.025524557
90	0xbdc8a62e	-0.09797321
91	0x3d9eee32	0.07760276
92	0xbdea6c58	-0.11446446
93	0x3d2a34b8	0.041554183
94	0xbbdb7fa0	-0.0066985637
95	0x3cb1b5d0	0.02169314
96	0x3ce86ed8	0.028373167
97	0x3d72ff70	0.059325635
98	0xbdbb6a42	-0.091511264
99	0xbd997af0	-0.074941516
100	0x3d64fa14	0.055902556
101	0x3db744c8	0.08948666
102	0x3dc25230	0.09488332
103	0x3d00bda8	0.03143087
104	0xbdb9bb9c	-0.09068987
105	0xb8d82000	-0.00010305643
106	0x3cd82798	0.026386067
107	0x3c49deb0	0.012321159
108	0x3d480ce4	0.04884042
109	0xbdb18dce	-0.08669625
110	0x3deafbbe	0.11473797
111	0x3c34b210	0.0110287815
112	0x3d96e274	0.07367411
113	0x3d64cd84	0.055860057
114	0x3daf204c	0.08551082
115	0xbd7085c0	-0.058721304
116	0xbde45ed0	-0.111508965
117	0x3d628f38	0.055312365
118	0x3b998180	0.004684627
119	0x3d5813e8	0.05275336
120	0x3d5c52e8	0.053790003
121	0xbdbda50c	-0.09259996
122	0xbda85884	-0.08220008
123	0xba665d00	-0.0008787662
124	0xbceaf638	-0.02868186
125	0xbdd5608a	-0.10418804
126	0xbdd1dd7e	-0.102473244
127	0xbd19bb44	-0.037532106
128	0xbd9991e6	-0.07498531
129	0x3deab094	0.11459461
130	0xbdf19418	-0.11795825
131	0x3d95fd64	0.07323721
132	0x3d63adfc	0.055585846
133	0xbd08401c	-0.033264264
134	0x3c652830	0.013986632
135	0x3d83e054	0.064392716
136	0x3dfc4022	0.1231692
137	0x3de6f34e	0.112768754
138	0xbcd91f50	-0.026504189
139	0xbce8d8c8	-0.028423682
140	0x3ce63980	0.02810359
141	0xbd987c98	-0.07445639
142	0x3dfdee24	0.12398937
143	0x3ddee8c4	0.1088424
144	0x3c587eb0	0.013213798
145	0x3d570c7c	0.05250214
146	0x3deab020	0.114593744
147	0x3d6979ec	0.05700104
148	0x3cf09e40	0.029372334
149	0x3dc6d512	0.09708609
150	0x3d4fd358	0.050738662
151	0x3d66d9f4	0.0563602
152	0x3db04844	0.086075336
153	0x3cda8a20	0.026677191
154	0x3df88ed6	0.12136619
155	0xbdb81f18	-0.08990306
156	0xbd767644	-0.06017138
157	0xbbf1df60	-0.0073813647
158	0xbdf7f528	-0.12107307
159	0x3d9f4d98	0.07778472
160	0xbd7446ac	-0.05963771
161	0x3de2aa3e	0.11067627
162	0xbc0d9090	-0.008640423
163	0x3d3fd21c	0.046831235
164	0x3df14ade	0.11781858
165	0xbda80b0a	-0.082052305
166	0x3c160010	0.009155288
167	0x3d0a1ac0	0.033716917
168	0x3dc30ac8	0.09523541
169	0xbdc360f2	-0.09539975
170	0x3d3e9784	0.046531215
171	0x3dff2aa6	0.124593064
172	0x3dab77dc	0.08372471
173	0xbdb1f576	-0.08689396
174	0xbd7a1c20	-0.06106198
175	0xbd0b4574	-0.034001783
176	0xbd9220fe	-0.07135199
177	0x3ce54830	0.027988523
178	0xbd91b742	-0.07115032
179	0x3bb32760	0.0054673404
180	0xbd930fba	-0.07180734
181	0xbdc4818e	-0.09595023
182	0x3d732f0c	0.05937104
183	0x3bddfac0	0.0067742765
184	0x3cae0270	0.021241397
185	0xbdb3faea	-0.087880924
186	0x3dc26958	0.09492749
187	0x3d068e14	0.03285034
188	0xbd5f51e4	-0.054521456
189	0x3d9d6b4c	0.07686481
190	0x3d8e83f8	0.06958765
191	0x3d288a8c	0.041147754
192	0xbdbfb970	-0.09361541
193	0xbcfb5b80	-0.030683279
194	0xbd98fb3e	-0.07469796
195	0x3d584764	0.05280246
196	0x3db10fd6	0.086455986
197	0xbc8ee610	-0.017443687
198	0xbcc3c7f8	-0.023899063
199	0x3d297db0	0.04137963
200	0xbda7ade8	-0.08187467
201	0xbb195bc0	-0.0023400635
202	0xbdfdc202	-0.1239052
203	0xbd361644	-0.044454828
204	0xbda0a1ac	-0.078433365
205	0xba9e0300	-0.0012055337
206	0xbdd876b6	-0.10569517
207	0x3d9dad64	0.07699087
208	0xbdd7d60a	-0.105388716
209	0xbd42cb90	-0.047557414
210	0xbdf9ddec	-0.12200531
211	0xbcecea18	-0.028920218
212	0x3ccb03e8	0.024782136
213	0xbdee9ad2	-0.116506234
214	0xbcab18c0	-0.020885825
215	0x3d601320	0.05470574
216	0x3d4da19c	0.05020295
217	0x3c5999b0	0.013281271
218	0x3dfdbd8a	0.12389667
219	0x3dabfa74	0.083973795
220	0xbcfc66f8	-0.030810818
221	0xbdb6e2c4	-0.08929971
222	0x3d8c2944	0.06843808
223	0x3c9a6b48	0.018849984
224	0x3d1bd140	0.038041353
225	0xbddb5522	-0.10709597
226	0xbc36dc40	-0.01116091
227	0xbdf13936	-0.1177849
228	0x3d9985ac	0.07496199
229	0x3dc81c84	0.09771064
230	0x3ca974b8	0.020685539
231	0x3de99448	0.114052355
232	0xbdb83722	-0.08994891
233	0x3dec1956	0.1152827
234	0x3d813efa	0.0631084
235	0x3d42c848	0.047554284
236	0x3dfeaf3c	0.12435767
237	0x3df1c656	0.11805408
238	0xbd8a5bf6	-0.067558214
239	0xbd6ada7c	-0.05733727
240	0x3db841ac	0.08996901
241	0x3d0c88a4	0.03431
242	0xbda96960	-0.08272052
243	0xbd3d9e24	-0.046293393
244	0xbdad1190	-0.084506154
245	0x3d96539a	0.073401645
246	0xbad5e580	-0.0016319007
247	0xbc7ea5d0	-0.0155424625
248	0x3cc43ff8	0.023956284
249	0xbdc0bdbe	-0.094111905
250	0x3d18bb8c	0.037288234
251	0x3d426c00	0.047466278
252	0xbb17b940	-0.002315119
253	0xbc0fe180	-0.008781791
254	0x3d05578c	0.032554194
255	0x3dd992f8	0.10623735
