src/model_fold_4.pth (torch, 201910 bytes, 36 tensors)

convs.0.convs.<subject___has_region___region>.lin_rel.weight f4 [64, 64]
00000000: 10a6 e53c d368 7abc fe6d 603d 95c4 81bd
00000010: f0d9 98bd c8ea 153c d0fe 80bd a0c9 f4bd
00000020: 8151 4a3d 3382 2dbc 43ef 0abe 674e cbbc
00000030: 42e6 03be 63fd ccbd 1ab2 aebc 935a f63d
00000040: 676e ce3c 2c6a 1c3e a093 543c 23cb 4bbd
00000050: 58f9 113e 4e0b 283e 23e4 08bd e3aa a0bc
00000060: c599 1e3d aa93 e4bc 972c 90bd e139 09be
00000070: 800f 82bc cdd2 5bbd fbdb 673d 48aa 553d
00000080: 8184 363d 6692 0cbe b0cc f2bd 0dd6 27bd
00000090: 5b03 1cbd 5e63 c73d c1be 0bbe 6e14 cebc
000000a0: 9cf8 d6bc 860e c6bc f98e 7a3d 6d16 af3d
000000b0: 6e24 ddbb e9f0 973d 4557 30be 95b0 bf3d
000000c0: 6f47 133e e7e0 80bd 6804 153e 8139 64bd
000000d0: 44d2 3bbd 6c38 11be ba5f cc3c c606 1b3c
000000e0: 1150 7f3d 97db c8bd a860 d33c d877 c6bc
000000f0: fec7 8dbd f044 a2bc 0d60 8dbd 3b87 9ebc
00000100: 74fb f2bc aac5 0d3e ca34 4dbc 09ca 5f3d
00000110: d5da 3abd dc12 f439 59ef 153e 4b48 ecbc
00000120: 2a2a 0bbe 5846 0d3d e386 153e b349 0bbc
00000130: 2166 153d 3664 ffbc 0b23 6f3c d901 4bbc
00000140: 1cc4 e2bd 0408 0b3c 5f1d 43bd b40a fabd
00000150: 9d9e 8abd 230c 98ba 7e01 863d 575f 1dbe
00000160: d620 0ebc 078a d6bc 6b60 863c 9825 0abd
00000170: c393 f63c 11f9 273c 3ec0 203d 62b1 17bd
00000180: 3ca1 62bd 80bf e53d ed13 38bc f749 4e3d
00000190: bd3c 86bc 762d c0bd a76d eb3d 734b cbbd
000001a0: 26ec 323d b094 f6bc 60d4 40bc a708 ccbd
000001b0: 6e70 a23c ca9a 12bd 5ad8 91bd 8ed0 4f3d
000001c0: 6f5f acbd 7c7f 53bb bd40 7e3d 6bda 41bc
000001d0: 1002 4f3c 2af9 1f3e 84d1 85bb 9ed3 003d
000001e0: de9e e8bc a6c2 943c bdea 53bd 62e2 89bd
000001f0: 0644 d33c fa3b 433d 595e 1bbc 12e2 99bd
00000200: 5c7d 723d 300e db3c 9868 c73c 600d f13b
00000210: ebfd edbd 88cc 463d 804a 04be 3a90 b23d
00000220: 5bf8 933d bb2a 223d b71e 053d a093 abb8
00000230: 6775 ae3d 9e90 0a3d 5d9b 083d 0c71 5fbc
00000240: 1a88 d0bb 495d 913d 067f 0abe 5953 aa3d
00000250: 710d 8fbd 2fca 603d 0e3d 44bd 2fe8 d0bc
00000260: 5ac4 81bd afee a7bd c9d4 bcbd 5af8 d6bd
00000270: b7b6 163e 546e 72bd 0853 b9bd f74f 463c
00000280: 96e5 f0bc 0539 e8bd 8e14 83bd 8271 a6bd
00000290: 9f92 4abc 7eb9 42bd ea90 e0ba bc5a 8d3d
000002a0: 72c9 dcbd 56fd eb3d bcd8 c03c d821 683d
000002b0: 7cf2 d6bd c05a 6d3c e6c8 613c 7f2f 053e
000002c0: da19 013e 2bb0 703d 3ca9 80bd a32f ff3d
000002d0: 0a62 793d 31a1 783d 0ca7 abbd 1779 8e3b
000002e0: c7a7 ee3c f8be cabd 62b5 323d adc6 183d
000002f0: f05a 0cbe 6b5f 8d3c c777 f03d 65f5 e63d
00000300: 6bfd bcbd 50b1 30bd 5119 32be bf1d 543d
00000310: 62f9 b53c 3ac4 31bd abad 5f3d 6f00 8b3d
00000320: 1372 05bd 6b3f f8bb ef46 073d 9abf 2f3d
00000330: 102c 4dbc d644 0cbd 4f0e 1b3d 75bf 2abe
00000340: b7fd 91bd cdd8 963c 5f00 6b3d 3d2f 1abe
00000350: facc 31bd 1b41 d13c 862a 8abd 55c7 8abc
00000360: 3fe3 3a3d e255 ecbd 8a99 ac3c b3d1 183e
00000370: c13f 1cbe 880d 8d3d 07c0 9cbd 5c5c 2a3d
00000380: 87d0 c6bc eef7 763d 5b5b 1d3e 5d07 d0bd
00000390: ab4e 9ebd e743 babd b722 ddbc 2b74 7cbd
000003a0: 2a5c df3d b8f9 a2bd 7a44 e63d 1ffd 9a3c
000003b0: 536f b93d 8369 81bd 76d5 9bbc 1818 52bc
000003c0: 186f debd a13e d8bc 96bf 1ebe e5e2 3ebd
000003d0: bd27 09be d250 833d ed96 c5bc 6a84 4f3d
000003e0: 7da1 dfbd 8781 2dbb a014 fc3c b5e0 fc3b
000003f0: 0b36 21bd 9ca7 b73c 7706 12bd 755c 4bbd
0.028033286 -0.015283781 0.054792397 -0.06336323 -0.07463443 0.0091502145 -0.062986016 -0.119525194
0.049394134 -0.010590124 -0.13567834 -0.024817659 -0.12880805 -0.10009267 -0.02132516 0.120289944
0.025199128 0.15274876 0.01297465 -0.049754273 0.14255273 0.16410562 -0.033420693 -0.019612735
0.038720865 -0.027902443 -0.07039755 -0.13400985 -0.015876532 -0.053667832 0.056606274 0.052164346
0.04455996 -0.13727722 -0.11855447 -0.04097562 -0.038089138 0.0973575 -0.13646986 -0.025156226
-0.026241593 -0.024176847 0.061171506 0.08549199 -0.0067487275 0.07418997 -0.1722079 0.09359852
0.14382719 -0.06292897 0.14552462 -0.055718902 -0.04585482 -0.1418168 0.02494799 0.009462064
0.062332217 -0.098075084 0.025802925 -0.024227068 -0.06922911 -0.019808263 -0.06903086 -0.019351592
-0.029660918 0.13844934 -0.012524793 0.054636035 -0.04561885 0.00046553358 0.14642085 -0.028843066
-0.13590303 0.034490913 0.14602236 -0.008501458 0.03647435 -0.031175714 0.014595757 -0.012390577
-0.11072561 0.008485798 -0.047635432 -0.12209073 -0.06768534 -0.0011600297 0.06543253 -0.153684
-0.008674821 -0.026188863 0.016403398 -0.03372726 0.030099755 0.010252253 0.039245836 -0.0370344
-0.055329546 0.11218166 -0.011235219 0.050363507 -0.016386384 -0.09383671 0.11495524 -0.099265
0.04368224 -0.030100197 -0.011769384 -0.09962588 0.019829001 -0.03579215 -0.07121344 0.050736003
-0.0841664 -0.0032272032 0.062073458 -0.01183186 0.012634769 0.15622392 -0.004083814 0.031451814
-0.028396066 0.018159222 -0.051737536 -0.06732632 0.025789272 0.04766462 -0.009482943 -0.075138226
0.059201583 0.026740164 0.024341866 0.0073563308 -0.11620697 0.0485349 -0.12919044 0.08718915
0.072251044 0.039591532 0.032499995 -8.181413e-05 0.085184865 0.033829324 0.03335129 -0.013637792
-0.006363881 0.07097871 -0.13525018 0.083166786 -0.069849856 0.054880317 -0.04790979 -0.025501339
-0.06336279 -0.08199822 -0.09220273 -0.10496588 0.14718138 -0.05918725 -0.0904904 0.012104026
-0.02940635 -0.113390006 -0.06400405 -0.08127119 -0.012364059 -0.04754018 -0.0017133032 0.06902072
-0.1078061 0.11522929 0.023540847 0.0566729 -0.10495469 0.0144869685 0.013780808 0.130064
0.12607518 0.058761757 -0.06282279 0.12460258 0.060884513 0.0607006 -0.08381471 0.004347931
0.029132737 -0.09899706 0.04363001 0.037298847 -0.13706565 0.017257413 0.11741596 0.11277274
-0.09228023 -0.04313785 -0.1739247 0.05178618 0.022213642 -0.043400027 0.054608982 0.06787192
-0.032579493 -0.0075759194 0.033026632 0.042907335 -0.012522712 -0.034245335 0.037855443 -0.16674598
-0.071284704 0.018413926 0.0573734 -0.15057082 -0.04340837 0.02554374 -0.06746392 -0.016940752
0.045626875 -0.11539818 0.021069307 0.14923744 -0.15258695 0.068873465 -0.07653814 0.041591987
-0.024269355 0.060295038 0.1536688 -0.101576544 -0.077298485 -0.090949826 -0.026994092 -0.061634224
0.10906251 -0.07957786 0.112435296 0.018919526 0.090544365 -0.06318953 -0.019022685 -0.012823127
-0.10861033 -0.026397051 -0.15502772 -0.046603102 -0.13394065 0.064118996 -0.024119819 0.05066339
-0.10919473 -0.002647491 0.030771554 0.007717217 -0.03935818 0.02241879 -0.035650697 -0.04964872

convs.0.convs.<subject___has_region___region>.lin_rel.bias f4 [64]
00000000: ceb0 16bc 162f d93b 0821 863c 44f2 6c3c
00000010: c5e8 9d3a b737 313b 13ed 10bc 70ab 1c3c
00000020: f5b6 a6bc ed24 163b d2bf 4bbc ba7e f13a
00000030: b0f5 bb3b 6132 af3b a8a6 7bbb 67fa 82bc
00000040: 26ff d83b 1386 9f3c ceea bcbb d0ad 97bc
00000050: 3f54 03bc c4de 87ba d5a4 89bc 8920 db3a
00000060: 666e fabc 0022 c5bb 5b2e 97bb 72d7 86bc
00000070: 89ff 7abc 2351 b03b 3ac6 87bc 1b83 78bc
00000080: 28c5 6b3c 127c 7d3c af65 8a3c d2d0 49b9
00000090: 3d38 9b3c de64 29bb e5a4 ec3b a436 4c3c
000000a0: 412e babb 4204 2b3b 6b99 a53b 36a2 9e3b
000000b0: b179 cf3c 2841 923c d341 573a 793a ad3a
000000c0: 0a5f 46bc 9630 6fbc 3264 683c fb56 433b
000000d0: c493 62bc 6b98 9a3c c6f0 57bb dae9 943c
000000e0: 1ab1 933c ebef 853b fdae f4bb 55de 30bc
000000f0: a4a6 9c3b 57f0 38bc 477a 90bc ba40 5dbc
-0.009197427 0.0066279275 0.016373172 0.0144620575 0.001204752 0.0027041265 -0.008845585 0.009562358
-0.020350913 0.0022910193 -0.01243587 0.0018424608 0.0057360753 0.005346582 -0.0038398895 -0.015988542
0.006622213 0.019473111 -0.0057652956 -0.018515497 -0.008015691 -0.0010366072 -0.01680223 0.001671807
-0.03057022 -0.006016016 -0.0046136803 -0.016460154 -0.015319713 0.005380766 -0.016574014 -0.015167977
0.014390267 0.015471475 0.01689419 -0.00019246645 0.018947715 -0.0025847475 0.0072218054 0.012464199
-0.0056817834 0.0026095067 0.0050536892 0.0048411144 0.025326582 0.017853335 0.00082114077 0.0013216279
-0.01210762 -0.014598986 0.014184045 0.0029806483 -0.013829175 0.018871507 -0.0032949909 0.018177915
0.018028785 0.0040874383 -0.0074671493 -0.010795196 0.0047806073 -0.01128777 -0.017636431 -0.013504202

convs.0.convs.<subject___has_region___region>.lin_root.weight f4 [64, 64]
00000000: 2e57 9d3c 65c4 05be 9ae9 c23d 1cfc a1bc
00000010: 7459 9b3c 2e1c 273d 7b94 983c 1ccd ac3d
00000020: 13bd 24bd 8ef7 b7bb d782 453c 9536 1a3d
00000030: 565c f5bb ed2a 21bd 0ba5 ce3d 8554 693c
00000040: e3a9 63bc f6cf 143c 22ed 8abc 2d50 833d
00000050: 6f5d 8a3c 71f8 48bd 83b6 943d ef84 633d
00000060: a952 9b3d 0de8 cfbc 84e4 dbbb 0d05 73bd
00000070: e5e2 4cbd b278 6cbd 1319 973c 846a 383d
00000080: 2a6e e33b f8a6 153e d9fa 17bc be03 763d
00000090: 8354 c13b 9835 2ebd 82e6 45bc 5180 18bd
000000a0: ffc7 673c d23d 9d3d cc94 bd3d 1c54 edbc
000000b0: 1fb7 3b3d 4971 6d3d ce69 6fbc d83a 4cbd
000000c0: 8c2b 03bc ed63 f8bd 90c4 b0bd 467e 383d
000000d0: 3468 cc3c 1624 fbbc 3220 203d 7c04 06bd
000000e0: c9c7 b93c d8a4 403d 6e80 633c eff2 af3d
000000f0: cfd2 763d 88d4 f8bc e3b4 0bbd 1a60 c3bc
00000100: 72f4 38bc 0d58 26bd 4f12 99bd 1ad4 963d
00000110: 86e2 21bd 35c2 7e3c b76d c63c 4761 ca3b
00000120: 5456 1fbc f4e9 5a3d 037e 7a3d 467d 5d3c
00000130: f4b0 9ebd 94a4 aa3c 529c 80bd 4e4c 9b3d
00000140: 8644 26bd e764 1ebc c4b3 f63c 9d27 8b3c
00000150: 8460 a43d dd19 f6bc 228b 6e3c 8eb6 59bd
00000160: 2ad6 4c3d be61 f3bb f0b8 753d 6a83 983d
00000170: 9189 383d 60d9 fdbb a57a e23c c5a8 0cbd
00000180: ba04 c23c 1a3f 6b3d 3b5d 2b3c c145 a4bd
00000190: 6d45 143d 295c 4cbd 7e2c 1cba ef20 e2bd
000001a0: 58d3 acbd ca24 fcbc 3e04 85bb 0370 75bc
000001b0: b8b6 993d b4ff 433c 8055 2d3b a80b 68bc
000001c0: 9831 5d3d 7852 93bc 9b00 36bd b22f af3c
000001d0: 6cd4 43bd 4603 3a3d 49d8 983b c6d4 0c3d
000001e0: 6868 a1bd b4bf a238 e66a 143c d4c1 123d
000001f0: 1dfc 873d f832 3dba 2c31 773d b008 77bd
00000200: 89ce 07bd 9d63 28bd 378b 07bc 2479 6e3d
00000210: d11f b63c 23cd d13d d8ab 063d 32ed 593c
00000220: 12ec 453d e858 00bd 7b74 9abc a58f 14bc
00000230: cb5c c0bd 1bcf c03c ef6e dd3c e893 a3bd
00000240: 2398 583d 8fde e0bb 392b 703d 3572 703c
00000250: e8df 8cbc 3953 08bd 3403 533d 51d9 593c
00000260: df46 853d 1793 8c3d f8b5 e63b 7494 e0bc
00000270: 2d51 b2bd ff1a 0dbd 6432 b6bc 3746 d73c
00000280: c2f4 babd 1be7 223d 2258 b33d a722 c43d
00000290: d033 543c fb1f 84bd 64bf 883c 05d5 3abc
000002a0: 8599 373d fb8b 763b d3bd 8dbd 85a4 2b3d
000002b0: 8d3b 783d 04f9 913d c6ef 1b3d a94c 3cbd
000002c0: 44dd c83b a588 c53d e1ac 4f3d 6be2 753d
000002d0: b85f 413d 8d7a c03b ade2 c03d c1b9 81bd
000002e0: 7787 5b3d e0b2 073d 0f8c 14bc 1dd3 88bd
000002f0: 75ff f63d 607b 4a3d 022b a03d b33e ef3c
00000300: 5f04 bf3d b285 b7bc be7d c4bc b5d8 46bd
00000310: 6562 45bd 006e 2b3d bc1d 9bbc 0318 303d
00000320: d7bd 7cbd 3c89 153e 30b4 5eba 7195 cdbd
00000330: 943e 65bd d656 3ebd 1295 7abc a317 78bd
00000340: 0fff df3d dcc4 1e3d 7a17 e5bc bd83 b83d
00000350: 365c c9bd 3bfb 12bd 7e42 e6bd ce09 593d
00000360: 8f14 6e3c 64d9 8abd 5708 5bbc 1f61 473d
00000370: 9e05 eb3d acfd 9c3c 52a5 223d aed5 8e3b
00000380: 57f9 aebc 2d0f a83d 0775 c9bc 71b4 413d
00000390: 8bee cc3c 7293 753c 2113 e03c 3291 4b3b
000003a0: 139c 9abd fead 083d eb40 233d 72e4 8c3c
000003b0: 544f 343c aad8 033c 095f 793c 25ed 3c3d
000003c0: 4332 003d bfa0 a13d 3574 c93c 384e 5b3d
000003d0: 394e c5bb 1541 563d 13d1 8cbc dc60 2fbd
000003e0: 42b4 35bd 8840 683d 8209 6abd 3eee 553d
000003f0: 3d4c e0bc 2815 2c3d c480 a6bd 55a6 473d
0.01920661 -0.130632 0.09517212 -0.019773535 0.018963553 0.04079836 0.018625489 0.08437559
-0.040219378 -0.0056142276 0.01205512 0.03764971 -0.007487814 -0.039347578 0.10090073 0.014241342
-0.013895485 0.009082785 -0.016958777 0.06411777 0.016890256 -0.049065057 0.07261374 0.055546697
0.075841255 -0.025379205 -0.006710591 -0.05933099 -0.05002107 -0.05773229 0.018444574 0.045023456
0.006940623 0.14614475 -0.009276115 0.060062163 0.005899967 -0.04253158 -0.012078883 -0.037231747
0.014146804 0.07677807 0.092568964 -0.02897077 0.045828935 0.057969365 -0.014612628 -0.049860805
-0.008005988 -0.12128434 -0.08631241 0.0450423 0.024952032 -0.030656856 0.039093204 -0.03271912
0.022678273 0.047032207 0.0138856005 0.08591258 0.060259636 -0.03037478 -0.034108054 -0.023849536
-0.011288749 -0.040611316 -0.07474195 0.07364674 -0.03952267 0.015549232 0.024222238 0.006176147
-0.009725172 0.05344577 0.06115533 0.013518637 -0.07748595 0.02083043 -0.06279816 0.07582913
-0.040592693 -0.009667612 0.030115016 0.016986663 0.080262214 -0.03004163 0.014559539 -0.053152613
0.05000893 -0.0074274233 0.059990823 0.0744694 0.04505307 -0.0077468604 0.027646372 -0.03434064
0.023683894 0.057433225 0.01045924 -0.08021117 0.036199022 -0.04989258 -0.00059575576 -0.11041438
-0.08438748 -0.030779261 -0.0040593436 -0.014980319 0.07505554 0.01196282 0.0026448667 -0.014162935
0.054002374 -0.01798366 -0.04443417 0.021385048 -0.047810003 0.045413278 0.004664455 0.034382604
-0.07881242 7.7604695e-05 0.00905869 0.03582938 0.06639884 -0.0007217373 0.06034963 -0.06031102
-0.03315595 -0.041110624 -0.0082729375 0.058220997 0.022231968 0.10244205 0.032878727 0.013301181
0.048320837 -0.031334788 -0.01885437 -0.009067451 -0.09392699 0.023536256 0.027030436 -0.07987195
0.052879464 -0.0068624686 0.05863497 0.014675667 -0.01719661 -0.033282492 0.051516727 0.013296441
0.06507658 0.06863993 0.0070407353 -0.027414538 -0.08706889 -0.034449574 -0.022240825 0.026278598
-0.09128715 0.03977118 0.087570444 0.09576922 0.012951806 -0.06451412 0.016692825 -0.011403327
0.044824142 0.0037620056 -0.06920972 0.041904945 0.060603667 0.07127574 0.038070463 -0.045971546
0.0061298925 0.096452035 0.05070198 0.060030382 0.047210425 0.005873984 0.09418235 -0.06334258
0.053595986 0.033129573 -0.009066596 -0.06680892 0.12060443 0.049434066 0.07820703 0.029204702
0.093270056 -0.022402618 -0.02398574 -0.04854651 -0.04818954 0.04185295 -0.018935077 0.04299165
-0.061704483 0.14603132 -0.0008495478 -0.10038269 -0.055967882 -0.046469532 -0.01529433 -0.060569417
0.109373204 0.03876196 -0.027965296 0.09009502 -0.09832041 -0.035884123 -0.11243151 0.052987866
0.014531269 -0.06779745 -0.013368688 0.048676606 0.11475681 0.019163929 0.039708443 0.0043589687
-0.021359129 0.082060196 -0.024591936 0.047291223 0.02501609 0.014988767 0.027352871 0.0031061885
-0.075493 0.033369057 0.039856832 0.017198775 0.011005241 0.008047262 0.015220412 0.046124596
0.031297933 0.07891988 0.024591545 0.053541392 -0.0060212878 0.05230816 -0.017189538 -0.04281698
-0.04436136 0.056702167 -0.057137974 0.05222916 -0.027380103 0.042012364 -0.08130029 0.04874261

convs.0.convs.<region___rev_has_region___subject>.lin_rel.weight f4 [64, 64]
00000000: 924d 68bc 00b8 443c 761e 843c 9fdb 163c
00000010: 8e9f 753c 393f 363c a337 a7bb 30aa 433c
00000020: f67f d2bb 9a52 17bc 7d74 3fbc 0646 8bbb
00000030: c8db 8a3a 9095 86bc 5ebb 863c f979 f03b
00000040: 47e0 0e3c dcd5 3e3b cbb3 6bbc 589e 41bb
00000050: 5e60 7fbc fa22 573c 65ec 5f3c 963c 6e3a
00000060: a0af 21bb b2d6 363c ac6c bf3a 156c 153c
00000070: 1dba 3fbc e2f8 3fbb ca6f 8fbb 8920 383c
00000080: 0fc6 863c 07af 6a3c 3aa1 5fbc 72a5 d2bb
00000090: 50f7 f939 8f9e 3bbb ccf6 9d3b ce0b 8cbc
000000a0: 75c3 40bc 3ffa 193c 3a36 713b a900 423c
000000b0: 6358 d33b 9f5f 3ebc 7ada 543b 68f0 1fbc
000000c0: 8d59 13bc 1d71 813c f585 59bc f904 8e3c
000000d0: 065c 5d3c 017d 263c e877 0abb 742f 05bb
000000e0: 1c72 54bc 90cb 233c faad 6bbc a89c c939
000000f0: 1d3c c7ba e520 853c b60a 39bc db7c 5fbc
00000100: 51b8 733c 8075 453c 95c4 83bc bb27 913b
00000110: e950 94bc 1386 6abc e00d bf39 3771 893c
00000120: 1b42 11bb db10 933c f076 8c3c fac7 76ba
00000130: 00af e9b8 f1b2 1c3b 4bdd a43b 0757 87bc
00000140: 4740 883c b8ee 29ba 0420 8bbb 80da 783b
00000150: bb4d 92bc 2529 6e3c 9925 a5bb 286b 93bc
00000160: f9d6 a03b 0ac9 803b eea4 833c 8693 8e3c
00000170: 184f 26ba 7a4c f53b 3cc2 4f3c 6b45 69bc
00000180: 0497 953c f0aa 0bbc 4ed3 5c3c 981c 72bc
00000190: c3b0 943c e8f7 5c3c f4d9 e2ba 4661 68bb
000001a0: 6153 393c 9263 943b 267d 14bb e18a 05bc
000001b0: 2e9d 50bb 9e55 05bb b1fe 83bc 4bad 66bc
000001c0: 5a90 533c 3458 8f3c f94c 31bb 5ca4 953b
000001d0: 460f 83bc b413 6d3b 6e95 923b cefc 52bc
000001e0: 4f70 9b3b 28e2 84bb f897 b43b a0b3 503c
000001f0: 65a8 93bc 935b 8bbc da08 843c 1e99 79bc
00000200: 5360 80bc 403d c4b9 118f b13b 844c 913c
00000210: 89eb 26bb b7b8 2cbc f09f 973c c014 40ba
00000220: 9ed5 893b 226f 813c fabf 31bc f31d 8ebc
00000230: c717 f1bb 3f9e a739 e226 8bbc a7f3 8b3a
00000240: 1036 b3bb d3a6 80bc cf87 7b3c aca8 7bbc
00000250: 5637 cd3b aeb3 43bc 1b98 a1bb 3b58 90bc
00000260: 5619 efbb 405e 9639 72d3 3dbb 3595 913c
00000270: d7fd 343b 9499 6b3c b351 8bbc 2f40 80bc
00000280: f8f2 943c 625f 083b f81a 02bb 8723 483c
00000290: be6c a03a f6da 0f3c e423 98bb 9814 603a
000002a0: 6351 963c b066 0cbc cad2 cfbb bfbb 573c
000002b0: 067c 243c aecf 8e3b da40 8fbc 7e8b 923c
000002c0: d46c 28bc 0db9 3dbc b6bf e53b 28d3 69bb
000002d0: 0572 63bb 9bc3 9f3b 20aa e23b cd0b 1c3c
000002e0: 3033 fb39 72ee 6a3b 6c15 59bc b495 0f3c
000002f0: 9a4e 4f3b 2c91 ebbb 3478 143c 4e94 94bc
00000300: 2cf5 b2bb 5fb5 83bc ba7c 743c 4645 613a
00000310: 885a 9db9 a0b4 74b9 b1b3 233c ae35 5b3c
00000320: 4184 033c 1afc afbb c767 9abb f0d0 a63b
00000330: e2c3 5fbc ac9d 343c ff93 8f3c 3a5a f53a
00000340: 92da 1e3a 4ab8 a0bb a361 7e3c a4ad 933c
00000350: 646e 96bc f84d 073b 70a2 03bb 400e 943c
00000360: 54cf dd39 9241 143c 53f9 25bb 2aaa 263c
00000370: 2135 98bc 0aea 1f3c 2455 81bc 2c54 413c
00000380: 32c0 90bc 453e 8c3c c7db 213c 419c 88bc
00000390: 3169 91bc cd5a 14bb f908 66bb dd9c 4a3c
000003a0: 08cd 2cbc e4ab 043c b9a8 61bc d5cb c0bb
000003b0: 261d 983c 8240 533c dabb af3b aed0 113b
000003c0: f79e 923c d793 2c3c 5e2a 943b 5a2a 3c3b
000003d0: 315b d33b 1ef5 983c b3bb 253c 667e 49bb
000003e0: b976 8ebc 3c9f 053c 80a1 dbbb 2688 76bc
000003f0: 8040 373b da47 93bc 3763 0abc 7b45 04bc
-0.01417865 0.01200676 0.016127806 0.009207635 0.014991654 0.011123472 -0.005103068 0.011942431
-0.0064239455 -0.009236002 -0.011685488 -0.004250291 0.0010594064 -0.016428739 0.016446766 0.007338759
0.008720464 0.002911917 -0.014386128 -0.0029543843 -0.015586941 0.013130898 0.013667201 0.00090880075
-0.002467133 0.011159586 0.001460453 0.009120007 -0.011702088 -0.0029292633 -0.00437734 0.011238226
0.016451864 0.014323956 -0.013649279 -0.006428414 0.00047677243 -0.0028628444 0.0048206802 -0.017095473
-0.011765351 0.009398042 0.0036806003 0.011840978 0.0064497455 -0.0116194775 0.0032478855 -0.009761907
-0.008993519 0.015801007 -0.013276567 0.017336356 0.01351071 0.010161639 -0.0021128599 -0.0020322474
-0.012966659 0.009997264 -0.014384741 0.00038454426 -0.001520041 0.016251037 -0.011294058 -0.013640608
0.014875487 0.01205194 -0.016084949 0.004429785 -0.018104987 -0.014314192 0.00036440697 0.016777618
-0.0022164646 0.017952373 0.017146558 -0.0009413954 -0.00011142902 0.0023910368 0.005031263 -0.01652099
0.016632212 -0.000648241 -0.00424576 0.0037972033 -0.01785933 0.014536177 -0.0050398824 -0.017995432
0.0049084392 0.0039302157 0.016069856 0.017404329 -0.00063441833 0.0074859234 0.012680586 -0.014237742
0.018260486 -0.008524641 0.013478113 -0.014777325 0.018150693 0.01348684 -0.0017307387 -0.003545837
0.011311383 0.0045284713 -0.0022657602 -0.008150787 -0.0031831968 -0.0020345221 -0.016112657 -0.014079402
0.012912834 0.017498113 -0.0027053936 0.0045667123 -0.015998494 0.0036175074 0.00447338 -0.012877656
0.004743613 -0.0040552802 0.00551128 0.012738138 -0.018024633 -0.01701144 0.016117502 -0.01523426
-0.015670931 -0.00037429668 0.005418666 0.01773668 -0.002546998 -0.010542086 0.018508881 -0.0007327311
0.0042063734 0.015800063 -0.010848993 -0.017348265 -0.007357571 0.00031970625 -0.016986314 0.0010677472
-0.0054690912 -0.015704548 0.0153522035 -0.015360039 0.0062627 -0.011944694 -0.0049314625 -0.017620197
-0.0072967215 0.0002868045 -0.0028965143 0.017771343 0.002761712 0.014379878 -0.01700673 -0.015655605
0.018182263 0.0020808806 -0.00198525 0.012215502 0.0012239439 0.008780232 -0.0046429504 0.00085479906
0.018349355 -0.0085694045 -0.0063422667 0.013167321 0.010039335 0.0043582534 -0.017486978 0.01788878
-0.010279853 -0.011579764 0.007011379 -0.0035678837 -0.0034705412 0.004875613 0.006917253 0.009524298
0.00047912588 0.003584769 -0.013249736 0.008763719 0.0031632544 -0.0071889367 0.009061862 -0.018137123
-0.0054613557 -0.016077695 0.014922315 0.00085933914 -0.00030012825 -0.00023336941 0.009991572 0.013379497
0.008027137 -0.005370629 -0.0047120783 0.0050908253 -0.013657542 0.01102392 0.017526625 0.0018718906
0.0006059791 -0.0049047815 0.015526208 0.018027134 -0.018363185 0.0020645838 -0.0020085834 0.018073201
0.00042306876 0.009048836 -0.002532561 0.010172406 -0.018580021 0.009760389 -0.015787669 0.011799853
-0.01766977 0.017119536 0.009879059 -0.01667607 -0.017750354 -0.002263713 -0.0035100563 0.012366501
-0.01054693 0.008097623 -0.013773137 -0.0058836737 0.018568587 0.012893798 0.00536297 0.0022249627
0.017898066 0.010533295 0.004521652 0.0028711767 0.00645008 0.018671568 0.010115552 -0.0030745505
-0.017390596 0.00815564 -0.006702602 -0.015047109 0.002796203 -0.017978597 -0.008446506 -0.008073206

convs.0.convs.<region___rev_has_region___subject>.lin_rel.bias f4 [64]
00000000: 1034 a3b9 fdd9 88ba cac3 ecbb d770 9abb
00000010: a1c1 5ebb 4015 72bc 8a85 3cbb 7f0a 3c3b
00000020: 224f daba 40fd 8d3c dee9 5c3a 8191 8c3c
00000030: 2ee0 943c 3bab a73b 29e2 62bc 8d58 8f3c
00000040: fc30 61bc 4ad8 27bc e580 93bb 4053 09bc
00000050: 2acd de3b 9d88 8dbb 41a6 f73b b494 933a
00000060: 8cfd 943c bd46 ccbb 8805 3a3c 685a 48bb
00000070: 406b 833c 038c 743c 9332 aabb 8da6 74ba
00000080: d69e 80bb e5b4 693b 6479 0cbb a794 893b
00000090: 5ca1 4a3a d6af 423a 8024 9c3b e35e 4aba
000000a0: a09d 953c d23f 3a3c 52e0 78bb a8ac 89ba
000000b0: 5403 8dbb b01c 963b 5cfc 953c f05e 823c
000000c0: 1e31 713c c165 7fbc c6a6 02bc ce37 9d3a
000000d0: 0eae bfba b957 313c 436b 3b3c 1aca 8d3b
000000e0: 43e5 4c3b 0c3e 70bc 6167 05bb 84e1 873c
000000f0: d192 e83a 9f5d 8a3c d667 8bbc 5c30 943c
-0.00031128572 -0.0010440942 -0.0072254883 -0.0047131586 -0.0033989924 -0.014775574 -0.002876612 0.002869278
-0.0016655663 0.017332673 0.0008427183 0.017159225 0.018173303 0.005116848 -0.013847866 0.017498279
-0.013744589 -0.010244438 -0.0045014494 -0.008381665 0.00679936 -0.004319264 0.007557661 0.0011259527
0.018187307 -0.0062340186 0.011353858 -0.0030571464 0.016042352 0.0149259595 -0.005194017 -0.00093326793
-0.0039251847 0.00356608 -0.002143466 0.004198629 0.0007729733 0.00074267143 0.0047650933 -0.00077198277
0.018263638 0.011367755 -0.0037975502 -0.0010503726 -0.0043033753 0.0045810565 0.01830881 0.01591441
0.014721183 -0.015588225 -0.007974332 0.001199478 -0.0014624016 0.010824137 0.011439147 0.004327071
0.003126458 -0.014663231 -0.0020355808 0.016587026 0.001774395 0.016890345 -0.017017286 0.018089466

convs.0.convs.<region___rev_has_region___subject>.lin_root.weight f4 [64, 64]
00000000: 7216 683c ef68 1c3e 291e 1dbe b174 2e3e
00000010: ed56 86bd 0818 97bd e43c 87bd 7a33 c33d
00000020: 3617 35be d95e 12be 0a74 603d 5103 2f3e
00000030: c553 053e b74b 71bd c567 103d dce1 ccbb
00000040: 1d97 09bd 2a8f 213d 893b 2a3d 2065 a1bd
00000050: 393c 16be a19f 0fbe 7fcc 87bd 63a1 c9bd
00000060: 1038 cebc 56b7 303d e690 3c3d ffa9 7d3d
00000070: 5342 12bb ebd4 7c3d 0a53 4abd 4d07 ecbc
00000080: 19da 7e3d 0d51 48bb 3022 9c3d 73ac 053d
00000090: 8a91 b0bd bf99 1d3d d7dc d93d 1195 0ebd
000000a0: 010d 303e c866 b6bd ffaf 82bd 5b8b 80bd
000000b0: 1b06 d23d d35c ae3d 43dd 0f3d d095 7ebd
000000c0: db92 15bd ae78 9fbd 8974 1bbe 999d b6bc
000000d0: 832e 0fbe 75a5 7abd 9e05 f9bc 560d 46bc
000000e0: 61ec 2bbc 3be2 28bd 5127 cbbd 538b a43d
000000f0: 10a3 f73d a619 53bd 9ab3 08bb dba9 0fbd
00000100: dbe2 94bb a901 d33d f70c b2bb 86a6 8ebd
00000110: ca9d 6b3d 3932 463a a6ce 64bd 8020 9b3d
00000120: c080 0f3d b06d 0bbd fee7 c33d aa27 dd3d
00000130: fd82 f23d 123d 46bd 0cf1 e43d 9797 8e3d
00000140: 0682 d4bb de1a 2abe 7a94 4bbe cb09 03be
00000150: 5021 38be 1847 8fbc 890c 9ebd 5188 a4bd
00000160: d26d dcbc b850 ccbd d296 89bc 2f50 03bd
00000170: 7535 a3bc f9d5 853d a9ee 45bd 70f0 c03c
00000180: d8d8 1fbe 3c11 b6bd 5aa8 f73d c7a2 29bc
00000190: 00af 94bd 790b 31bd af30 2f3d c573 0fbe
000001a0: 531c bfbd e63f acbd 736e 02bd 69a4 2cbd
000001b0: 491d a83d f18f e93d 6ebf 8ebd 45b6 04be
000001c0: 926c 103d 57f1 91bc c3a3 32be a8c5 febd
000001d0: 882b c3bd 2acd e8bc 493e 073d 1431 80bd
000001e0: 26e3 b8bd 77b0 42bd ca54 1abd 1be5 0d3e
000001f0: 038c 64bd 6cfe 873d 5486 d1bd 8ecc 4e3d
00000200: ac76 00be 3893 bfbd ef2d 193c 8377 ebbd
00000210: 76fc a13d 2003 58bd 79b0 e63c b263 62bd
00000220: 2eb5 e5bd 2aaa 203e e84b f43c 2542 b3bb
00000230: 4d07 b93d da7c 3cbe 7e6c ef3d 1202 8f3d
00000240: a861 5cbd c09a c73d 975e e63d c7c7 0d3d
00000250: fbb6 12bd e8b3 c23a 62fb 56bc 400d fbbb
00000260: ef60 e3bd 638b 02be 537e c3bc 718b 23be
00000270: 9222 f83d ce24 cb3d f831 28bc ac7b f8bd
00000280: a8df f33d 25e2 263d 30df 8d3c 67de 4b3d
00000290: e726 c7bd 011d 2e3d ecc5 3cbd 5820 8e3d
000002a0: ccde d83d 86e8 80bd 8e2c 23bd 1838 17bd
000002b0: 80a5 26bd cb4a 02be a3db 9fbd 6686 98bc
000002c0: aa6e e53c b303 a93d e6db 853d 2083 d5bc
000002d0: cdb8 9f3d bb1e 74bd 07ba cdbd 9c49 86bd
000002e0: bc92 fc3d 5f74 13bb bd60 543d 7118 c8bd
000002f0: d228 dfbb 7ad7 a4bd dfcd 32bd a030 25bc
00000300: fa85 753d 9af4 853c 3e05 0d3e ee93 cbbd
00000310: 1ec1 4f3c bbc3 bbbb 9a34 05be f675 ee3c
00000320: 1c41 a6bc b498 6f3d dfb6 d6bd 68fb 01bd
00000330: 47b4 bcbd 065e 943c 0f5e 033d c0e1 17bd
00000340: ff1d 2b3d bbea c43d 587c 22be daf8 c43c
00000350: 4e36 303c cd31 a73d 198d 7b3d fc93 363e
00000360: f84b edbb f82b 263e 4ce0 81bc 898d 77bd
00000370: dcec f1bc 2a2e e3bd f906 ee3d 40ec 01be
00000380: e190 e43c 6da7 dabd 6dbd 413d 227e 5f3d
00000390: 2933 5e3c b0c7 613d 87c2 99bd f77d c93d
000003a0: e1c5 313d ce39 1c3e 97e8 473d 062a 26bd
000003b0: 2bd1 f7bd 0e45 6bbc 2fee 363d f4f8 4b3d
000003c0: d8b6 1c3e 26d2 8cbc 5999 f73d eb4d c13d
000003d0: 3ea7 543d 8a3c 823c aafd c3bc e005 3abd
000003e0: af76 c93d 7e1b 7c3c 6ab9 71bc c321 19be
000003f0: c426 06be 496a 1fbe 3a86 8bbd b9ac fd3b
0.014165508 0.15274404 -0.15343536 0.17036702 -0.065595485 -0.073776305 -0.06603411 0.09531303
-0.17684636 -0.14293994 0.054798163 0.17091109 0.13020237 -0.058910098 0.035255212 -0.0062525105
-0.03359138 0.039443173 0.041560683 -0.07880616 -0.1467141 -0.14025737 -0.066308014 -0.09845235
-0.025173217 0.043143593 0.046036623 0.0619297 -0.0022317364 0.061726492 -0.0493956 -0.028812075
0.062219713 -0.0030565888 0.07623708 0.032635164 -0.086215094 0.0384767 0.10637825 -0.03481013
0.1719246 -0.08906323 -0.06381225 -0.0627658 0.10255071 0.085137986 0.03512312 -0.06215459
-0.036517005 -0.0778669 -0.15181173 -0.022291945 -0.13982587 -0.06119295 -0.030398186 -0.0120881405
-0.010493369 -0.041231375 -0.099196084 0.080343865 0.120916486 -0.051538132 -0.0020859004 -0.035074096
-0.004543645 0.10303051 -0.0054336744 -0.069653556 0.057523526 0.00075605843 -0.055861138 0.07574558
0.035034895 -0.034040153 0.095657334 0.10798581 0.1184139 -0.048398085 0.111787885 0.06962507
-0.0064852266 -0.16611812 -0.19880858 -0.12796704 -0.17981458 -0.017489955 -0.07717235 -0.08033813
-0.026907835 -0.099763334 -0.01679555 -0.03205889 -0.019922951 0.06534953 -0.048323307 0.02355215
-0.15610063 -0.08890006 0.120926574 -0.010353751 -0.07259941 -0.04322383 0.042771038 -0.14009006
-0.09331574 -0.08410625 -0.031843614 -0.04214898 0.08208711 0.11404408 -0.06970106 -0.12960155
0.03525979 -0.017815275 -0.17445283 -0.12440044 -0.09529787 -0.028418142 0.033018384 -0.06259361
-0.090277 -0.04753157 -0.037678517 0.13856928 -0.055797588 0.06640324 -0.10230699 0.050488047
-0.1254527 -0.093542516 0.00934933 -0.114974044 0.07909481 -0.052737355 0.02816032 -0.055270858
-0.11216198 0.15689912 0.029821351 -0.0054705315 0.09034596 -0.18407002 0.11690615 0.06982817
-0.05380407 0.09746313 0.1124851 0.03461435 -0.035819035 0.0014854642 -0.013121458 -0.0076614916
-0.11102473 -0.12748484 -0.023863947 -0.15971161 0.12115969 0.09919129 -0.01026582 -0.121329635
0.119078934 0.040743012 0.017318338 0.049772646 -0.09724217 0.04250813 -0.04608719 0.06939763
0.1058937 -0.0629435 -0.039837413 -0.03691873 -0.040685177 -0.12723844 -0.07805564 -0.018618774
0.02800687 0.08252659 0.06536083 -0.026063502 0.0779892 -0.05959962 -0.100452475 -0.065570086
0.12332675 -0.0022499782 0.05185007 -0.09770287 -0.006810286 -0.080489114 -0.043653365 -0.010082394
0.059942223 0.016351987 0.13771531 -0.09940325 0.01268032 -0.00573012 -0.13008347 0.029108983
-0.020294718 0.05849524 -0.10484099 -0.0317339 -0.09214073 0.01811124 0.032072123 -0.037080526
0.041776653 0.09615084 -0.15867746 0.024044443 0.010755135 0.081637956 0.061413858 0.17829889
-0.007241722 0.1622771 -0.015854023 -0.060437713 -0.029531889 -0.110927895 0.11622424 -0.12687778
0.027901115 -0.10676465 0.04729979 0.05456365 0.013562002 0.055122077 -0.07507806 0.09838479
0.043401603 0.15256426 0.0488058 -0.04056742 -0.121004425 -0.014359726 0.044660743 0.049797967
0.15304124 -0.01719005 0.120897956 0.0943869 0.051917307 0.015898008 -0.023924667 -0.04541576
0.0983709 0.015387414 -0.014753679 -0.14954285 -0.13100725 -0.15567888 -0.06812711 0.0077415374

convs.0.convs.<region___is_functionally_connected___region>.att_src f4 [1, 1, 64]
00000000: aa99 d939 c895 e0b9 f662 f2bd 0296 083a
00000010: 1aa8 4fbd 47b0 76bc 859c 50bc 7d24 0b3e
00000020: 9065 1c3b d378 0f3d adee 173c 80aa a5bd
00000030: 024a cd3d 4ee5 e5bd dbb6 af3d 35b0 813c
00000040: bd22 1abe db57 413d 39a5 773c 7e47 c0bd
00000050: 40d9 0e3c 4e58 e4bd db89 a23d 76fa b6bc
00000060: 92de c13a 1d12 10ba c0e9 d93c 3710 5b3d
00000070: ec83 0fbe 497c dfbc a641 9f3d 7486 92bc
00000080: a625 ca3b 9ffc 12be feb5 86bd 4b12 5bbd
00000090: 90fd f73d 7369 863d 5d53 d13d 2d0b dabd
000000a0: 1cc8 9dbb 744c 1d3e 8bc6 32bc 2e7a c6bd
000000b0: 9991 85bc 5296 963d fa6d c93d dcb1 46ba
000000c0: 29f6 27bd 808c c4bc 6856 93bc 0458 0fbc
000000d0: 605e 033d 39c3 b23c 87b0 82bc c1ec 09bb
000000e0: 7464 453c 10b0 95bd 7181 423c 96d5 943c
000000f0: e65e a6bc fcdb a23c 6135 123e fabe 82bc
0.00041503954 -0.00042836205 -0.118352816 0.0005210341 -0.050697424 -0.015056676 -0.01273263 0.13588138
0.0023864247 0.035027336 0.009273213 -0.08089161 0.100238815 -0.11225377 0.08579799 0.015831092
-0.15052314 0.047202926 0.015115076 -0.09388636 0.008718789 -0.11149655 0.0793645 -0.022336226
0.0014791063 -0.0005495863 0.026600718 0.05348226 -0.14015168 -0.027280943 0.07776193 -0.017886378
0.006169039 -0.1435418 -0.06577681 -0.053484242 0.1210891 0.065630816 0.102209784 -0.10646663
-0.0048151147 0.15361196 -0.010911594 -0.09691273 -0.016304778 0.0735289 0.098354295 -0.00075796037
-0.04100624 -0.023992777 -0.017985538 -0.008749012 0.032072425 0.021821605 -0.015953315 -0.0021045657
0.012047876 -0.07308972 0.011871682 0.018168252 -0.020308923 0.019880287 0.14278175 -0.015960205

convs.0.convs.<region___is_functionally_connected___region>.att_dst f4 [1, 1, 64]
00000000: 114e 80bc e3ab 24bc 446b ce3c 295c 123e
00000010: 8513 133e 6897 10be be91 08bc 6301 1cbc
00000020: 676e f5bd 18ac 973c 080a acbd 4704 913b
00000030: 7e8c fa3d ab41 a03d 8347 1bbe e4f4 10be
00000040: a4ab 2f3c b1dd 313d d22c 5e3c f388 943c
00000050: 25ac 4bbc 3816 043a 8c05 14bc 0c0f a4bd
00000060: 0384 f8bd cacd 783b 485e 58bc de40 f7bc
00000070: d7fc d63b e838 4e3d 8690 4d3d 1ee0 a73d
00000080: 097c 8abd ee6f 023c a110 2d3d 1e1f e8bc
00000090: 263c 943d 2a86 bbbc 72a9 873d 501f 8f3c
000000a0: 0ce7 3dbc fea5 ea3c 7061 823b 9311 23bc
000000b0: 6dcf e43d 7d35 9e3d b044 db3d 1f1f 293c
000000c0: 5ad5 ad3b 70a5 5dbc 0e7b 91bc 6239 423c
000000d0: 4ded 373b 5b98 803c 2352 00bc cb42 183d
000000e0: b218 0a3e f0b2 42b8 b8d7 f6bc 107a 193e
000000f0: efc1 80bd 5082 dd3c 5574 5c3d 8cf2 abbc
-0.015662225 -0.010050747 0.025197633 0.14292969 0.14362915 -0.14120257 -0.008335529 -0.009521815
-0.11983948 0.018514678 -0.08400351 0.0044255587 0.12233828 0.07825025 -0.15163998 -0.14155918
0.010722075 0.043424312 0.013560491 0.018131709 -0.012431179 0.0005038711 -0.009034526 -0.080106825
-0.12134554 0.0037964457 -0.013206072 -0.030182298 0.0065609026 0.05034724 0.050186656 0.08197044
-0.06761939 0.007961256 0.042252187 -0.02833515 0.07238035 -0.022891123 0.06624116 0.017470986
-0.01159073 0.028643604 0.0039789006 -0.0099529205 0.11172376 0.07725046 0.107064605 0.010322361
0.0053049745 -0.013528213 -0.017758872 0.011854501 0.0028065026 0.015697649 -0.007832083 0.037173074
0.13485983 -4.6419853e-05 -0.03013216 0.1498797 -0.0628699 0.027039677 0.05382188 -0.020989679

convs.0.convs.<region___is_functionally_connected___region>.bias f4 [64]
00000000: 13c7 30bc a916 4abb e2ad ecbb 5808 223a
00000010: a24a c1bb b65b 15bb f85f 523c 65d1 533c
00000020: 0a80 473b c848 62ba 156f c4bb e840 50bb
00000030: bd2b dd3b fc1e e83b c2f1 e63a 05a0 b039
00000040: 7f3c 47bc 6c06 b33c ddb5 20bb a954 d33a
00000050: a4c3 b2bc 7e95 f03a 6a5d c7bb 5b28 b43a
00000060: 3331 2fbc 9d53 263b 0ad5 28ba 900c 82bb
00000070: 3f59 2a3b 0afd c1ba 8ccd b6bb 0aaa 69ba
00000080: 306d bd3c 1e5c 033c b6aa 083b 22a8 a539
00000090: bc55 7c39 a6af 7d3a dce3 a5b9 6f40 82ba
000000a0: 759f 123b 2807 833a f084 3abc 9c7c 243b
000000b0: 653b 953c 642a 043b 0ae1 f23a a287 d0ba
000000c0: e692 3cbb 21b3 4c3a c7fa 1a3c 0e2d ce3b
000000d0: f59a 8abc f40a 84bb 9e4b 14bb 1776 2fbb
000000e0: c4ff 3fba a385 c3bc aa4a a73b 67f1 e63a
000000f0: 8853 793a bc06 af3b b0f1 d6bb 7a8d 6ebc
-0.0107896505 -0.003083626 -0.007222877 0.0006181053 -0.0058987895 -0.002279026 0.012840264 0.0129283415
0.0030441307 -0.0008632061 -0.0059946873 -0.0031776968 0.006749599 0.0070837718 0.0017619657 0.0003368856
-0.0121604195 0.021853648 -0.0024522461 0.0016123253 -0.021821804 0.0018355099 -0.006084134 0.0013744937
-0.010692882 0.0025379427 -0.00064404367 -0.0039687827 0.0025993136 -0.0014800143 -0.0055787023 -0.00089135824
0.023123354 0.008017568 0.0020853705 0.0003159652 0.00024064531 0.0009677358 -0.0003164102 -0.0009937416
0.0022372876 0.000999664 -0.011384234 0.0025098687 0.018216798 0.0020166868 0.0018530202 -0.0015909562
-0.0028774082 0.00078086747 0.009459204 0.006291992 -0.016919592 -0.004029626 -0.002262808 -0.0026773268
-0.0007324184 -0.023867434 0.005105336 0.0017619551 0.00095110433 0.005341379 -0.006559573 -0.014560098

convs.0.convs.<region___is_functionally_connected___region>.lin.weight f4 [64, 64]
00000000: 3036 44bc 6e65 b6bb 85ec 86bd b30c 443d
00000010: bf37 603c 1a34 d23b 328d 023b 3f8b 923d
00000020: 60d5 813d ef00 bdbb 8998 8abd 7c69 273c
00000030: 84e8 ec3c c1e7 eabc e4e2 7abc 0ac3 443c
00000040: 6a9b 59ba c2a6 23bc 842e 3a3a 1c67 403a
00000050: 0d16 1a3d 0485 893b 0d8e 41bb b5d7 7cbb
00000060: e1fa 34bc 2e26 c0bc 9e29 8ebd b628 fa3b
00000070: 47f6 023d 7c56 76bb 24bd b4ba ca80 9b3c
00000080: 2282 c23c 819d 693c 989c bfbb 64da 11bb
00000090: e02b ebbb 3414 d4bc eaf2 bbbb 260d ba3c
000000a0: 8e57 8c3d a495 793c 94d9 8b3b 5c92 a83b
000000b0: 6a1b 85bd 751a 4fb9 c8fa 2cbb 0964 e5bc
000000c0: 77a0 993c a3e3 d23c c284 d83c 493f 1abc
000000d0: e1c6 013b 75b1 8c3c c82e c439 1e89 973a
000000e0: f7ca 78bd 3456 e93c 8758 80bc 1199 953b
000000f0: 281a 9ebc a2af d83a aa7e 0b3d de80 ffbb
00000100: c88b 88bc a45c b0bb c02c 993c 7053 87b8
00000110: d7b7 9c3c c705 883c 5b29 91bd 51cd 833d
00000120: 31bd 20bd 6051 8abc 624e afbb 5323 c9ba
00000130: d362 813c 5a0d ecbb 0293 463c 8781 c33b
00000140: b44c 94bb ba12 71bd 7033 a03c 4f68 95bc
00000150: 9069 433b 1667 7c3b 0eda 7ebc 2ef8 b1bb
00000160: e3ff a13c 5272 563b 0755 6d3a 0320 2cbc
00000170: 7132 843c ac76 5ebb a5d7 ec3c 22df 96ba
00000180: 000c 13b8 32a6 443b 04e4 84bc d410 edbb
00000190: 248b 08bb 1649 cdbc 2c85 8abc aa8c a93a
000001a0: 3f6a c43a 64c6 1fbc 95a7 66bd 9348 ca3b
000001b0: fedd 9ebb 283f 73b9 64a6 4dbc 515f 07bb
000001c0: 3cc9 5bbc 3785 91bd cb4f 973a 9d42 7bbc
000001d0: 5e40 573b a3ce 8fbd 6a17 03bc c882 30bc
000001e0: 1831 d73b 25a4 3fbd 32e1 a939 4723 903c
000001f0: 0f56 823d 0afe 2fbd b9ca 97bc 747a 55bd
00000200: 7fb1 323d 5148 51bd 761f bd3a 1d89 9bbc
00000210: 392a 66bc cb9e 0bbc 8d5a bcbc 350f 893d
00000220: 2453 973c 2c54 55bc 3533 ddbb 4df0 063c
00000230: 566c 903d 26fc c93c d8bc a5ba cc3e c1bb
00000240: b06f ddbb 20f3 4f39 4d81 4e3d 385b 82bc
00000250: dd89 8e3c 5621 fabb 28e7 f03c b573 76bc
00000260: 740f 713c 5158 d03c 71ab c9bb 15b6 53bc
00000270: 6ece 333c 7d82 143b 32b9 7cbd 66d0 c43a
00000280: 663c 82bc 2813 873b d6ae abbc 4b2d 87bd
00000290: 84d9 973b 91e9 943c d824 88bb 9dab 903d
000002a0: 00ec aabb d832 a43b cee7 b83c 7eb4 f9bc
000002b0: eafc b53a 71f5 7b3d 85b1 0e3c a7e0 aa3c
000002c0: 4a5e 48bc b1da 31bc 3e2f 26bc 55d1 1bbc
000002d0: f26e 20bc 5879 26bd 7502 743c 31cb f03c
000002e0: 76a4 ebba ab9d 3dbc d7d7 97bc a021 45bc
000002f0: 9526 58bd b40f 67bc 930a b4bc a096 b2bc
00000300: a7d6 acbc e1d4 10bd 67e3 283c 1677 8bbc
00000310: 729d 15bc bf2c 2ebc ef04 5d3d 8bc3 583b
00000320: 2446 583c f6a3 59bd 9b5c 34bc 04a8 863d
00000330: 2a84 443c 213b 37bc 4399 be3c 3f01 203d
00000340: 9785 673b be47 293d 64d7 b63c 26b5 7abc
00000350: 77e2 a8bc 99ff ebbc b0b3 b23c 00bc 5036
00000360: 9c9e 28bd 0ce8 443c f7e4 253b 38c8 ef3c
00000370: 488f 6d3c 7683 c9bb 7827 0abc a836 9dbc
00000380: 80e2 d93b bd77 00bd 94d2 523c 7eca e0ba
00000390: a681 713d 8f8f 61bd 81ca 19bc 8ed8 d3bc
000003a0: 963e 1ebd a059 b83c cf4c 47bc 28b8 9d39
000003b0: 2254 a2bb 7699 98bc 289c 983b 56f5 953c
000003c0: 3e94 44bc daf9 36bc 9514 253c 03c2 0e3d
000003d0: 048b c83b 26a1 823d 85ba 96bc d746 8d3d
000003e0: ceff 033b f04b 513d d41e c43b b031 6e3c
000003f0: 5644 02bc 246c 90bb 29dd 9b3b ded5 293b
-0.01197581 -0.0055662906 -0.06588081 0.047863673 0.013685166 0.0064149024 0.0019920585 0.07155465
0.06339526 -0.0057679336 -0.06767375 0.0102180205 0.028919466 -0.028674962 -0.015312884 0.012009392
-0.00083010516 -0.009988489 0.0007102268 0.0007339583 0.037618686 0.004196765 -0.0029534132 -0.003858072
-0.011046142 -0.023455705 -0.069415316 0.0076342477 0.03197315 -0.003758817 -0.0013789278 0.01898231
0.023743693 0.014258743 -0.005847525 -0.0022255415 -0.007176861 -0.02588854 -0.0057357447 0.022711348
0.06852637 0.015233431 0.0042678807 0.0051444005 -0.064993694 -0.00019750914 -0.0026394594 -0.028001802
0.018753273 0.025743311 0.026430491 -0.009414502 0.001980238 0.017174462 0.00037418888 0.001156125
-0.060740437 0.028483488 -0.015667213 0.004565366 -0.019299582 0.0016531835 0.034056343 -0.0077973446
-0.016668215 -0.0053821374 0.018698096 -6.452843e-05 0.01913063 0.016604317 -0.07087966 0.06435645
-0.039242927 -0.016884506 -0.00534992 -0.001534561 0.015794193 -0.00720374 0.01212001 0.0059663686
-0.0045257453 -0.05885575 0.019555777 -0.018238215 0.0029817559 0.0038513592 -0.015554918 -0.0054311967
0.019775337 0.0032721949 0.00090535026 -0.010505679 0.016137334 -0.0033945246 0.028911421 -0.001151059
-3.5058707e-05 0.0030006287 -0.016222008 -0.007234672 -0.0020834887 -0.025059264 -0.016909204 0.0012935598
0.0014985277 -0.00975189 -0.056312162 0.0061732023 -0.004848241 -0.00023197813 -0.012551878 -0.0020656178
-0.013414677 -0.07105487 0.0011544166 -0.015335706 0.0032844762 -0.07021835 -0.008001188 -0.010773368
0.0065671317 -0.0467874 0.00032401975 0.017594947 0.063640706 -0.04296688 -0.018529283 -0.052118734
0.043626305 -0.051094357 0.0014428932 -0.01898628 -0.014048153 -0.008521746 -0.022992397 0.06692354
0.018472262 -0.013020556 -0.006750489 0.008236003 0.070519134 0.024656367 -0.0012644781 -0.0058973785
-0.006757699 0.0001983163 0.05041628 -0.015912637 0.017399723 -0.0076333685 0.029407099 -0.015042235
0.014713157 0.025432738 -0.0061544706 -0.01292183 0.01097451 0.0022660785 -0.061700054 0.0015015721
-0.01589794 0.0041221566 -0.020957392 -0.06600436 0.004634084 0.01817778 -0.0041547827 0.07063983
-0.0052161217 0.005010944 0.02257147 -0.030481573 0.0013884578 0.061513368 0.008709316 0.020859076
-0.0122295115 -0.010855363 -0.010143099 -0.009510358 -0.009792076 -0.040643066 0.014893164 0.029393764
-0.001797809 -0.0115732355 -0.018535538 -0.012031943 -0.05277117 -0.014102865 -0.021977698 -0.02180034
-0.021098448 -0.035359267 0.010308123 -0.017024558 -0.009131776 -0.0106307855 0.053959783 0.0033075537
0.013200317 -0.05313488 -0.011008407 0.06575015 0.011994401 -0.011183531 0.02326644 0.03906369
0.0035327428 0.041328184 0.022319503 -0.015301978 -0.0206158 -0.028808402 0.021814197 3.1103846e-06
-0.041166887 0.012018215 0.0025313476 0.029270276 0.014499493 -0.0061497046 -0.008432262 -0.019191101
0.0066493154 -0.03136419 0.012867589 -0.0017150191 0.058961533 -0.05506855 -0.00938666 -0.025860097
-0.038633905 0.022503674 -0.012164309 0.0003008258 -0.004953877 -0.018627863 0.004657287 0.018305462
-0.011998234 -0.011167968 0.010075708 0.034852993 0.0061200876 0.06378393 -0.018399486 0.06898277
0.0020141485 0.05109781 0.0059851203 0.014538214 -0.007950863 -0.0044074226 0.004756589 0.0025914828

convs.1.convs.<subject___has_region___region>.lin_rel.weight f4 [64, 64]
00000000: 1859 613d 907b 46bd a6f1 e6bd 70af 703c
00000010: 942f d73d 2456 93bd 88df 623d 8055 373c
00000020: 560d a63d 6831 9e3c ba5c 81bd 6686 cebd
00000030: 5024 e7bd dc7a 5b3d 220f df3d 8ce6 b3bd
00000040: d0ca 7f3d c8ea cabd 7896 c6bc 6ca2 ba3d
00000050: 40dd 2f3d 7803 163d 90f2 68bd 20a9 cdbb
00000060: c42d 30bd 3062 03bd 8cb9 bfbd 2820 97bd
00000070: 6a33 f1bd d0a0 20bd 1834 5f3d f8b6 253d
00000080: a812 893d 84fc c43d d683 b73d 90d5 873d
00000090: a8fe 463d 00e2 dd3d 4057 633d 345d 14bd
000000a0: b0ba 44bc baea 9fbd 08dc c23c cce7 dcbd
000000b0: 5860 243d ec43 0d3d dc38 b33d 6cf2 57bd
000000c0: 6010 d9bb d876 ee3d 2c85 4f3d f4fc dcbd
000000d0: 72fe b1bd 4c62 13bd 4079 67bc 000a ee3d
000000e0: e80b 85bc 4cd3 0ebd a4fc dbbd 90cb 9c3d
000000f0: dc30 21bd eab8 a0bd b0c0 1d3d be75 c9bd
00000100: 6ce6 20bd ee7a 9b3d 62ca afbd 8072 9c3c
00000110: 5069 523d e0bd e23b 9297 cdbd 4878 43bd
00000120: 6805 2dbd c63c c03d 2460 f4bd 783a 01bd
00000130: 3e17 ecbd e077 8dbc 3464 d7bd e045 86bb
00000140: 3892 3e3d 28fa d4bd ec04 80bd 4055 b3bd
00000150: f02f 8abd 7235 9a3d d03d 34bc 0636 f1bd
00000160: 7ab6 e73d 489b b03c 7699 a1bd 9ec3 923d
00000170: e4e1 73bd 2cf8 573d 3c00 9e3d e0ed eb3c
00000180: a0bb 6c3c 4cc1 ea3d 6a14 973d c846 02bd
00000190: b422 753d e451 edbd 405a 5cbc 90ab eebc
000001a0: 74e4 aabd 8cea d33d a454 a13d 5011 c8bc
000001b0: b817 3f3d 0091 0e3d e05b da3d 28e6 85bd
000001c0: fade be3d 5e43 c1bd a258 dabd 5830 ea3c
000001d0: 7835 ffbd 2013 62bd 385c eebd 5ad5 a03d
000001e0: 700f 2cbc b80e 163d 307e be3c 9463 bbbd
000001f0: 2698 ea3d f89c d9bd dc80 243d d4fd 1abd
00000200: 38d1 da3c c8cf 5bbd 3228 d83d 0886 ccbd
00000210: 2a5e 9a3d 58c6 81bd 98c3 db3c d03d cd3c
00000220: 7013 2abd b818 cdbd b426 24bd 98b6 79bd
00000230: 34e3 793d c0d0 dfbd 364d adbd ec37 2fbd
00000240: 6039 dabd 00c5 0cbc 0410 abbd ca0f 963d
00000250: 2098 793c a65e 873d a2ed be3d aa14 83bd
00000260: f80f efbd d023 283d 340a 18bd 4044 afbd
00000270: d04f 7fbd 24e2 623d 6e2d d23d 0cfa 373d
00000280: 6037 c0bb 884b 88bd 80ae e5ba 5873 58bd
00000290: c8ef bb3d 9ce0 98bd 684f f83d 546c 073d
000002a0: 0064 c33d 00a9 9cbb b4bf 103d b066 ab3d
000002b0: f4ff c4bd 04cc 7abd 10f2 ccbc 940c 16bd
000002c0: 7819 f8bc e226 a5bd a088 e3bc 761a c03d
000002d0: b83e 80bd 0eb8 c63d bc52 a93d e4cf d4bd
000002e0: 2277 813d 2829 193d 4080 5ebd d852 553d
000002f0: c8b7 d2bc 0ae4 ef3d b0b5 683c aca0 fdbd
00000300: e84a c9bc 38f1 e43d c094 3d3b 98f6 c8bc
00000310: c018 e53c f487 23bd e014 00bd 5c77 e8bd
00000320: 62e8 a63d 40c5 74bc 20e2 41bc 84f4 253d
00000330: 8055 fa3a 84f1 e9bd 2a47 a0bd f4cb ac3d
00000340: 1821 9a3c 14d6 df3d d82f a6bc 10b2 423d
00000350: bc37 8dbd a485 20bd b286 ae3d f098 473d
00000360: 4895 14bd fae3 c13d f4f5 d03d 808b 4fbb
00000370: ac0c a6bd 06c7 b43d 1af9 a43d 7a46 99bd
00000380: 34e2 813d 9085 e83c d2ed d7bd 8016 ee3c
00000390: c0d5 92bd 6c27 37bd 4c83 5cbd 68a2 e8bd
000003a0: 3e8d 983d 2e92 e0bd 985b 3c3d 3842 e3bc
000003b0: 1cd1 c53d c0d2 a2bd 6004 113d 50a8 3ebc
000003c0: 848a 77bd d844 3cbd 7c03 323d acfa c03d
000003d0: 30fe 48bc d095 e93c 009e 6ebd a079 c8bb
000003e0: 1c53 763d b890 d2bc c262 b33d 1017 34bc
000003f0: 4080 49bd d07a b63c 5028 e1bc 9a53 e6bd
0.055016607 -0.048457682 -0.112765595 0.014690265 0.10507122 -0.071941644 0.055388957 0.011189818
0.081080124 0.019310668 -0.06316514 -0.10084228 -0.11286223 0.053583965 0.10891558 -0.08784208
0.062449276 -0.09908062 -0.024241671 0.09113011 0.04293561 0.0366244 -0.05687195 -0.006276265
-0.043012396 -0.03207606 -0.09361562 -0.0737918 -0.117773846 -0.039215863 0.05449304 0.040457696
0.066930115 0.09618476 0.089606926 0.06632531 0.048582703 0.10834122 0.05550313 -0.036221698
-0.0120074 -0.078084424 0.02378656 -0.10786399 0.040130943 0.034488603 0.087510794 -0.052721426
-0.0066242665 0.116437614 0.050664112 -0.107904345 -0.0869111 -0.035982415 -0.014128029 0.11623001
-0.016241029 -0.034869477 -0.10741547 0.07656014 -0.039353237 -0.078477696 0.03851384 -0.09836911
-0.039282247 0.07591806 -0.08583523 0.019097567 0.051369965 0.0069196075 -0.10038675 -0.04772213
-0.042241484 0.093865916 -0.119324 -0.0315499 -0.115278706 -0.017269075 -0.10517159 -0.004097685
0.046526164 -0.10399276 -0.06250939 -0.087564945 -0.067474246 0.07529725 -0.011001065 -0.11777882
0.113141015 0.021558419 -0.078905985 0.07166217 -0.059541598 0.05272691 0.077148885 0.028799951
0.01444903 0.1146265 0.073769405 -0.031805784 0.05984755 -0.11587885 -0.013449252 -0.029134542
-0.08344355 0.10347471 0.07877472 -0.024422318 0.04665348 0.03480625 0.10662055 -0.065380394
0.09319873 -0.094366774 -0.106614366 0.028587505 -0.1246137 -0.05519402 -0.11638683 0.078531936
-0.010501727 0.03663513 0.02325353 -0.091498524 0.11454801 -0.106256425 0.040161952 -0.037839726
0.026711091 -0.053664953 0.10554542 -0.09986502 0.075374916 -0.06336659 0.026826665 0.025053889
-0.041522443 -0.1001448 -0.040075973 -0.06096515 0.061007693 -0.10928488 -0.084619924 -0.04277794
-0.10655475 -0.00859189 -0.08352664 0.0732723 0.015234023 0.0660985 0.093226686 -0.06400426
-0.11672968 0.04104978 -0.037119105 -0.085579395 -0.062331975 0.055391446 0.10262571 0.044916198
-0.005865976 -0.066550314 -0.0017523319 -0.052844375 0.09176594 -0.07464716 0.121245205 0.033062294
0.09540558 -0.0047808886 0.035339072 0.083691955 -0.09619132 -0.06122972 -0.025017768 -0.03663309
-0.030285582 -0.08064057 -0.027775109 0.09380047 -0.06261963 0.097030744 0.082677335 -0.103912145
0.06321551 0.037392765 -0.054321527 0.05208096 -0.0257224 0.11713417 0.014203474 -0.12384161
-0.02457185 0.11178821 0.0028927773 -0.024531648 0.027965903 -0.039924577 -0.031269908 -0.11350891
0.08149792 -0.014939606 -0.011833698 0.04051639 0.0019098967 -0.114230186 -0.078260735 0.084373385
0.018814608 0.10929504 -0.020286486 0.047533095 -0.06895396 -0.03918995 0.08521785 0.048729837
-0.03627518 0.09467311 0.10203162 -0.0031668842 -0.08107886 0.08827023 0.08055325 -0.074841455
0.06341973 0.028384 -0.105434075 0.029063463 -0.07169676 -0.04471533 -0.053836152 -0.113591015
0.07448815 -0.109653816 0.045985788 -0.027741536 0.09659025 -0.079503536 0.035404563 -0.0116368085
-0.060434833 -0.045964092 0.043460354 0.09422812 -0.012267634 0.028513819 -0.05825615 -0.0061180145
0.060137853 -0.025703773 0.08759071 -0.010991827 -0.049194574 0.022275358 -0.027485043 -0.112464145

convs.1.convs.<subject___has_region___region>.lin_rel.bias f4 [64]
00000000: 102c 53bc 78ee ccbc 7411 9bbd 0cc2 0dbd
00000010: 720f 803d d064 26bc e04f 82bd 089f 8fbc
00000020: cc3f 57bd 78f2 383d b0d6 d13c b2ca b6bd
00000030: 7e5d 8ebd 3613 e6bd f6a6 823d e0c6 ce3c
00000040: 3c26 45bd 80a9 383c 40c0 1fbd 804d 753d
00000050: c0e0 a7bb 58d9 e73c b8c4 57bd f829 a0bc
00000060: 0c20 e83d 80ef f33b d474 103d b08c 223c
00000070: c059 133b f049 22bc 8420 b63d 38a1 f53d
00000080: 9049 1cbd d03f 8abc bc29 bcbd 820f 803d
00000090: 609d 803d 368e 843d 5246 f03d ac1e 5cbd
000000a0: 1801 83bc f08d 733d 168c d5bd b0dd 71bc
000000b0: 9004 62bd c802 b23c d8b4 a73c 2ce2 eabd
000000c0: 8244 dabd 1a0f 923d f87d d4bc 302c f8bd
000000d0: 867c a23d d0b3 ce3c 46ea 99bd 208c acbb
000000e0: c4ed 4a3d 4061 183c f06e 13bc f495 f33d
000000f0: b689 a43d 3a0f c2bd c82f 6fbd 544e 61bd
-0.012888923 -0.025016055 -0.07571688 -0.034608886 0.06252946 -0.0101558715 -0.06362891 -0.017531887
-0.052551076 0.04515311 0.025615066 -0.0892538 -0.06951426 -0.11234133 0.063795015 0.025241315
-0.048132166 0.011270881 -0.039001703 0.059888363 -0.005123228 0.02830188 -0.05267784 -0.019551262
0.113342375 0.007444322 0.035267666 0.009921238 0.0022483915 -0.009905323 0.088929206 0.11993641
-0.038156092 -0.016876131 -0.09187648 0.06252958 0.06280017 0.06472437 0.117321625 -0.05374019
-0.015991732 0.059461534 -0.1042711 -0.014762327 -0.055180132 0.021729842 0.020471975 -0.1146892
-0.10657598 0.07131787 -0.025938973 -0.12117803 0.07933907 0.025232226 -0.07515387 -0.0052657276
0.049543157 0.00930053 -0.0089986175 0.11893836 0.08034079 -0.094755605 -0.058395177 -0.05500634
