src/model_fold_2.pth (torch, 201910 bytes, 36 tensors)

convs.0.convs.<subject___has_region___region>.lin_rel.weight f4 [64, 64]
0.07460898 -0.02298025 0.06422205 0.027515037 -0.01553387 0.01859123 -0.090753056 -0.11013912
-0.113649994 -0.0049650087 -0.07253105 0.095038906 0.08896437 0.036270767 -0.078045525 0.008582758
-0.029361462 0.02984896 0.08526752 -0.03649925 -0.0071789515 0.014648554 -0.07164706 -0.10007107
-0.05682823 -0.060947813 0.02542991 0.10672875 -0.02088903 0.012110099 0.013250967 -0.11468135
0.01974292 0.029828425 -0.00039054814 0.010169621 0.06993362 -0.009924714 0.034037907 0.034288447
0.087223604 -0.024792165 0.10286008 -0.009500293 0.008851419 0.00897357 -0.012697526 -0.030278781
-0.081839725 -0.0914695 -0.08021535 -0.016302474 -0.06517143 -0.07837005 -0.020243496 -0.07475472
0.03571772 -0.09263554 -0.1007325 0.05658469 -0.016639017 0.09380814 -0.07701575 0.009244224
0.05826872 -0.0627492 0.059949942 0.09816334 0.017143887 0.079022445 0.08156349 -0.060890365
-0.14318411 0.023623308 0.07908319 -0.022132933 0.025380962 0.10978093 -0.0731916 -0.028841266
-0.057761446 -0.14835076 -0.027061904 0.09821347 -0.109650984 0.06302465 -0.0994142 -0.09380694
-0.060197316 0.11087687 -0.1321213 0.024192875 -0.014587711 -0.041132517 0.061310876 0.04512832
0.11655318 0.038262773 -0.04652185 0.09028654 -0.12716033 0.047804415 -0.09330979 0.12044695
-0.11185736 0.06331681 -0.017572723 0.00740015 -0.052803658 0.12555973 -0.119475126 0.12623289
0.0899767 -0.06550506 -0.018104423 -0.059724648 0.079873234 0.0025778725 -0.072777495 -0.037646186
0.011986604 0.04408894 0.016894814 0.12065714 -0.07708885 -0.04453063 -0.032722987 -0.13687798
0.036948487 -0.11638677 -0.04393404 -0.05839017 -0.08716138 -0.009079794 0.0011350205 -0.06390911
0.0124344975 0.074569866 0.041078713 0.07399924 -0.054030605 -0.042410653 0.018937651 0.07303276
-0.07317513 0.11482341 -0.024398966 -0.060458377 -0.039824076 0.1140758 -0.11484222 0.11242105
-0.06762868 -0.08315192 -0.111866675 -0.08473377 0.0165754 0.07776009 -0.08738321 -0.10707348
0.09568969 -0.10450717 0.1172806 -0.009147858 0.08376772 -0.026717287 -0.008318722 -0.06926379
-0.09946557 0.01664101 -0.09758544 -0.056716118 -0.114544794 -0.07689762 -0.045452632 -0.09456
-0.03742486 -0.08233351 0.11886096 0.043323167 0.048948653 0.039558746 0.10284763 -0.074200876
-0.008828666 -0.11737933 0.038394473 -0.021242606 -0.036990523 0.035004597 0.07264679 0.043900043
-0.027317438 -0.1010159 0.05820048 -0.13700438 0.1587708 -0.14577717 -0.04467461 0.08025985
-0.06120195 0.0834207 0.043155868 -0.105584614 0.0028541395 0.01907483 0.025061322 0.122608535
0.040342104 0.011396147 0.15496531 -0.1245627 0.042956453 0.07937852 -0.059960164 0.07406076
-0.027405865 -0.008597486 -0.06656628 -0.06753586 0.035011794 -0.12918344 0.0057200394 0.08183628
-0.10596139 -0.113559395 0.059343968 -0.07417498 0.09735322 -0.050411012 0.08882147 -0.09336695
0.13354968 0.06487432 0.1252859 0.13677117 0.0097543355 -0.115028985 0.13304916 0.06733716
0.06348243 -0.035570566 0.12162224 -0.0012602727 -0.051048648 0.13486934 -0.06251019 0.103631705
0.10141792 0.12088592 -0.074822806 0.0006119306 -0.061684817 0.11896539 -0.018430714 0.07563545
00000000: 98cc 983d 1441 bcbc da86 833d 3767 e13c
00000010: c681 7ebc a34c 983c bddc b9bd 9e90 e1bd
00000020: 54c1 e8bd 83b1 a2bb 298b 94bd c2a3 c23d
00000030: f432 b63d a890 143d 55d6 9fbd b29e 0c3c
00000040: 7387 f0bc ce85 f43c bda0 ae3d 3d80 15bd
00000050: 693d ebbb 7d00 703c b2bb 92bd 10f2 ccbd
00000060: b8c4 68bd 6aa4 79bd 6352 d03c 9a94 da3d
00000070: 791f abbc 7069 463c 951a 593c 0ede eabd
00000080: e7bb a13c be5a f43c 7cc2 ccb9 7b9e 263c
00000090: 5c39 8f3d 459b 22bc 556b 0b3d 0b72 0c3d
000000a0: 4aa2 b23d f018 cbbc 4ea8 d23d 1ea7 1bbc
000000b0: 8b05 113c e105 133c 4909 50bc 350b f8bc
000000c0: 969b a7bd 5c54 bbbd f247 a4bd c48c 85bc
000000d0: 9978 85bd 7a80 a0bd b0d5 a5bc 0119 99bd
000000e0: be4c 123d b4b7 bdbd d74c cebd 59c5 673d
000000f0: 8c4e 88bc 7b1e c03d 6fba 9dbd 1675 173c
00000100: 2eab 6e3d a782 80bd 128e 753d dc09 c93d
00000110: 5671 8c3c 85d6 a13d c20a a73d 2d68 79bd
00000120: db9e 12be ab85 c13c 5ef6 a13d 2050 b5bc
00000130: bceb cf3c d3d4 e03d 7ae5 95bd 8544 ecbc
00000140: 4497 6cbd 43e9 17be edb0 ddbc 2524 c93d
00000150: b290 e0bd 1113 813d ac99 cbbd da1d c0bd
00000160: 7691 76bd 6a13 e33d ce4a 07be 2330 c63c
00000170: 4b01 6fbc 927a 28bd 1d21 7b3d 79d8 383d
00000180: 6fb3 ee3d 6db9 1c3d b28d 3ebd 26e8 b83d
00000190: 5136 02be 90ce 433d 3419 bfbd e4ac f63d
000001a0: 7915 e5bd 3eac 813d acf4 8fbc f57c f23b
000001b0: a648 58bd bb92 003e 60af f4bd 3243 013e
000001c0: b445 b83d 8427 86bd ba4f 94bc d5a1 74bd
000001d0: 9494 a33d 86f1 283b 5e0c 95bd e332 1abd
000001e0: 7663 443c 9b96 343d fe66 8a3c 171b f73d
000001f0: c2e0 9dbd c065 36bd 8a08 06bd be29 0cbe
00000200: 4c57 173d 305c eebd 2ef4 33bd 882a 6fbd
00000210: aa81 b2bd 6bc3 14bc f8c4 943a c8e2 82bd
00000220: 10ba 4b3c 16b8 983d 2742 283d ea8c 973d
00000230: 324f 5dbd cbb6 2dbd 2223 9b3c 3392 953d
00000240: d8dc 95bd 8928 eb3d 57e0 c7bc 34a3 77bd
00000250: 921e 23bd 93a0 e93d 6632 ebbd 023d e63d
00000260: e880 8abd 8e4b aabd 5b1a e5bd e688 adbd
00000270: 22c9 873c af40 9f3d f8f5 b2bd 5749 dbbd
00000280: f5f8 c33d db07 d6bd d030 f03d e6e0 15bc
00000290: 698e ab3d 36de dabc 404b 08bc 2dda 8dbd
000002a0: 9bb4 cbbd ba52 883c e0da c7bd 294f 68bd
000002b0: 7696 eabd 807c 9dbd 8a2c 3abd aca8 c1bd
000002c0: cf4a 19bd 799e a8bd 606d f33d a273 313d
000002d0: 627e 483d 5a08 223d c7a1 d23d a1f6 97bd
000002e0: 1ca6 10bc 9364 f0bd 8643 1d3d f904 aebc
000002f0: 6083 17bd fb60 0f3d d7c7 943d 88d0 333d
00000300: d2c8 dfbc 6de1 cebd a063 6e3d e04a 0cbe
00000310: d094 223e 9c46 15be b9fc 36bd 475f a43d
00000320: e5ae 7abd 79d8 aa3d 35c4 303d bf3c d8bd
00000330: 840c 3b3b d142 9c3c 674d cd3c 2f1a fb3d
00000340: c33d 253d e8b6 3a3c 3aaf 1e3e bb1a ffbd
00000350: 1bf3 2f3d 3591 a23d ca98 75bd 2bad 973d
00000360: 4482 e0bc 78dc 0cbc e753 88bd 3e50 8abd
00000370: 8768 0f3d aa48 04be 2b6f bb3b c899 a73d
00000380: 4902 d9bd d491 e8bd a912 733d 0de9 97bd
00000390: 2061 c73d c77b 4ebd 08e8 b53d 2c37 bfbd
000003a0: 3fc1 083e d4dc 843d f24a 003e be0d 0c3e
000003b0: a6d0 1f3c 5194 ebbd 0a3e 083e 11e8 893d
000003c0: 1403 823d 71b2 11bd 1515 f93d bc2f a5ba
000003d0: 6318 51bd 301b 0a3e 5805 80bd dc3c d43d
000003e0: 33b4 cf3d 0a93 f73d b33c 99bd f869 203a
000003f0: 38a9 7cbd 20a4 f33d 02fc 96bc c2e6 9a3d

convs.0.convs.<subject___has_region___region>.lin_rel.bias f4 [64]
0.00050153676 -0.07323717 -0.000581488 0.0003845743 0.058527164 0.026485275 -0.0010622945 -0.026072549
-0.017420562 0.016983226 -0.012872615 -0.024257524 0.031598963 0.027571488 0.0099966135 -0.008566509
0.053936474 -0.0063213417 0.011662655 0.00084484275 0.026604982 0.034090165 -0.0036908798 0.021398194
-0.05212552 0.0044258935 -0.03805627 -0.014293557 0.04927244 0.05571064 0.012188389 0.023457905
0.03308481 0.014477693 -0.011590429 -0.010655975 0.059146523 -0.04071487 -0.06727907 -0.062123396
0.015841806 0.005372447 -0.0077034393 -0.0023004683 -0.033672586 0.0039021093 -0.010778827 0.013637308
0.0012058138 -0.03253908 -0.02083345 -0.04832626 -0.009541669 -0.027341235 0.012935064 0.003887045
0.03521399 0.037447333 0.012251627 -0.042408507 -0.02049492 -0.0603887 -0.004688102 -0.042865172
00000000: 9079 033a 5ffd 95bd 006f 18ba b0a0 c939
00000010: 2eba 6f3d a6f7 d83c b03c 8bba 1996 d5bc
00000020: 91b5 8ebc 6820 8b3c a9e7 52bc b7b7 c6bc
00000030: ea6d 013d 9add e13c d6c8 233c 8b5a 0cbc
00000040: 7eec 5c3d 4223 cfbb b814 3f3c 7078 5d3a
00000050: b1f2 d93c 21a2 0b3d b0e2 71bb 444b af3c
00000060: 9281 55bd 1607 913b e4e0 1bbd 862f 6abc
00000070: e6d1 493d d730 643d cfb1 473c cb2a c03c
00000080: f083 073d d833 6d3c c8e5 3dbc 6696 2ebc
00000090: a043 723d a3c4 26bd 9cc9 89bd 1a75 7ebd
000000a0: adc6 813c 5a0b b03b 226d fcbb 74c3 16bb
000000b0: 44ec 09bd 88ba 7f3b ad99 30bc 046f 5f3c
000000c0: 660c 9e3a b347 05bd e9aa aabc c2f1 45bd
000000d0: a954 1cbc bafa dfbc 97ed 533c cbbd 7e3b
000000e0: 8b3c 103d 6062 193d 0cbb 483c 8bb4 2dbd
000000f0: f6e4 a7bc 245a 77bd a69e 99bb 6493 2fbd

convs.0.convs.<subject___has_region___region>.lin_root.weight f4 [64, 64]
0.073066585 0.11391306 -0.013967527 0.0715142 -0.032167383 -0.07767314 -0.11961716 0.008687034
0.06348512 -0.022062086 0.06366239 0.019426325 0.028450942 -0.07338302 0.029985467 0.06716324
0.004090325 -0.006806868 -0.09451057 0.06592468 -0.043215375 0.032022603 -0.07932 -0.042165015
0.031594396 -0.005726104 0.04938727 -0.004940769 -0.10262983 0.045383938 -0.019861959 0.07531476
-0.04037675 -0.06363245 -0.041735206 -0.07758144 -0.04041743 -0.010446035 0.027744016 -0.046742897
0.015350965 -0.03339362 -0.0487298 0.021499986 -0.10382323 -0.037745245 0.0008310559 -0.01060249
-0.025178805 0.0106467325 0.06979347 0.0032064058 0.0206465 0.0763707 0.061840437 0.035582807
0.11655029 0.036835693 -0.018689716 0.03806146 0.08365476 -0.09986175 0.004614751 0.010426166
0.11765394 -0.022084124 0.049435463 0.00405593 -0.019312412 0.08400551 0.0870909 0.03528584
0.0045810277 -0.038293574 0.055370003 -0.06044372 0.04898986 0.017285455 -0.051570915 0.042454172
-0.028612683 0.06622885 0.010957343 0.038678672 0.054557666 -0.07583064 -0.075931445 -0.061538607
-0.014794954 -0.059199914 -0.07722399 0.0711538 -0.02753387 -0.07719307 -0.04037988 -0.018627547
-0.003850115 -0.09364727 0.08312451 0.07036704 0.0026515755 0.015429812 0.1173317 0.10179822
0.04169813 -0.049935415 0.07805981 -0.029486135 -0.035715703 -0.010957496 9.55225e-05 0.0007004584
0.013087492 0.086174935 0.10052627 0.032620944 0.0070865867 -0.0427492 0.07120383 0.02117053
-0.008677307 -0.113677986 0.13522568 -0.07112012 -0.015783265 0.02289431 0.105088085 -0.09477422
0.088377625 0.060919482 0.084932275 -0.049291357 0.0700013 -0.015504224 -0.07544975 -0.016670322
0.04251541 0.059338547 0.038645573 0.07489051 -0.011946977 -0.047630563 0.06510147 0.059606496
0.018556561 -0.034815863 0.035164047 0.04712911 0.07579983 -0.038171653 0.027489513 0.046406057
0.027554654 0.108860955 0.010922205 -0.059224695 0.04260865 0.05033464 -0.03280998 0.0702085
0.09469381 0.10210646 0.07884026 0.05609538 -0.053437855 0.058702584 0.07558934 -0.07218727
0.06999507 0.023543995 0.07330677 0.10114132 0.011980638 0.056130998 -0.035024837 -0.011426546
0.038393904 0.055194058 -0.009718167 0.06731443 -0.06279267 0.02722286 0.0352645 -0.077930234
-0.019671835 0.08309444 0.018032297 0.0449003 0.06848152 -0.051837023 0.041118022 0.034435194
-0.052958217 -0.07296558 -0.06489749 -0.040064666 0.031350654 -0.009715535 -0.011358006 0.026258217
0.10426725 0.043424074 -0.0023092586 -0.0119789075 0.0068517267 -0.07488237 -0.043980308 -0.03397157
-0.08727488 -0.061822638 -0.081277385 -0.0016653722 -0.012436293 0.026584996 -0.07506739 0.043758288
-0.0061298814 -0.13297935 0.093375266 -0.08202216 0.07300222 -0.02929046 0.032713797 0.09051772
-0.05248392 0.09694359 0.10228121 -0.074254245 -0.020814298 0.015743166 0.08778466 -0.0019796472
0.01895732 -0.0284553 -0.13070545 0.087709375 -0.041148614 -0.08547893 -0.08159023 0.12578708
0.02689404 -0.06615102 0.08360249 0.08766491 -0.06495212 -0.024016058 -0.063195564 0.028674275
-0.010417851 0.009707319 -0.06519597 0.04729159 -0.05784813 0.0785178 -0.093984485 -0.043466646
00000000: efa3 953d 404b e93d 0ed8 64bc 0976 923d
00000010: f2c1 03bd 1813 9fbd d7f9 f4bd 1054 0e3c
00000020: 7d04 823d 8cbb b4bc 6d61 823d f523 9f3c
00000030: f311 e93c d649 96bd 15a4 f53c e18c 893d
00000040: 2208 863b 260c dfbb c28e c1bd 8503 873d
00000050: 9b02 31bd 222a 033d 8672 a2bd 39b5 2cbd
00000060: 2069 013d 0ba2 bbbb 4e4a 4a3d 2de6 a1bb
00000070: 972f d2bd 82e4 393d 8cb5 a2bc a03e 9a3d
00000080: 1762 25bd bb51 82bd 89f2 2abd 05e3 9ebd
00000090: bf8c 25bd d925 2bbc 6b47 e33c 7b75 3fbd
000000a0: 9d82 7b3c c0c7 08bd e698 47bd bd20 b03c
000000b0: 46a1 d4bd c29a 1abd 38db 593a 11b6 2dbc
000000c0: c843 cebc a26f 2e3c e1ef 8e3d 9022 523b
000000d0: d922 a93c 3e68 9c3d 664c 7d3d 47bf 113d
000000e0: ebb1 ee3d 06e1 163d 2d1b 99bc 55e6 1b3d
000000f0: 3053 ab3d 5184 ccbd 5637 973b 82d2 2a3c
00000100: 8df4 f03d c4e9 b4bc d77c 4a3d 9be7 843b
00000110: 1035 9ebc 150b ac3d b75c b23d e387 103d
00000120: 721c 963b b9d9 1cbd a8cb 623d d693 77bd
00000130: 97a9 483d 3a9a 8d3c 063c 53bd 6de4 2d3d
00000140: 2565 eabc fea2 873d 6d86 333c 876d 1e3d
00000150: dc77 5f3d 184d 9bbd f281 9bbd e80f 7cbd
00000160: 8966 72bc 9c7b 72bd 9c27 9ebd 15b9 913d
00000170: b68e e1bc 6617 9ebd 6065 25bd cc98 98bc
00000180: 3652 7cbb 24ca bfbd 2f3d aa3d 981c 903d
00000190: 0ec6 2d3b 52cd 7c3c 9a4b f03d 967b d03d
000001a0: a9cb 2a3d 1489 4cbd d2dd 9f3d e88c f1bc
000001b0: a14a 12bd 1287 33bc 4053 c838 f89e 373a
000001c0: ec6c 563c 7c7c b03d b8e0 cd3d 8a9d 053d
000001d0: 9936 e83b c919 2fbd 50d3 913d d26d ad3c
000001e0: 432b 0ebc 01d0 e8bd 9a78 0a3e 6da7 91bd
000001f0: e84b 81bc d98c bb3c 6c38 d73d fc18 c2bd
00000200: 54ff b43d b586 793d f9f0 ad3d bce5 49bd
00000210: d75c 8f3d 6e05 7ebc 6685 9abd 3390 88bc
00000220: a324 2e3d fa0c 733d d24a 1e3d 3260 993d
00000230: 41bd 43bc 4418 43bd eb53 853d f125 743d
00000240: ee03 983c 149b 0ebd 2d08 103d 740a 413d
00000250: f13c 9b3d e159 1cbd b031 e13c 4714 3e3d
00000260: 4cba e13c 7ef2 de3d 0cf3 323c 9895 72bd
00000270: 6886 2e3d b22b 4e3d c263 06bd 79c9 8f3d
00000280: d4ee c13d 311d d13d 0177 a13d 45c4 653d
00000290: a7e1 5abd 1f72 703d 95ce 9a3d ebd6 93bd
000002a0: 9359 8f3d 56df c03c dc21 963d 2e23 cf3d
000002b0: 704a 443c 9ee9 653d 3476 0fbd 6836 3bbc
000002c0: ed42 1d3d 2a13 623d f238 1fbc 26dc 893d
000002d0: 7299 80bd 7a02 df3c 8271 103d e399 9fbd
000002e0: d426 a1bc 6b2d aa3d 78b8 933c 61e9 373d
000002f0: 0a40 8c3d 0f53 54bd 5f6b 283d eb0b 0d3d
00000300: b7ea 58bd fa6e 95bd fae8 84bd d91a 24bd
00000310: 8b69 003d e82d 1fbc ee16 3abc 791b d73c
00000320: 118a d53d 71dd 313d ee56 17bb 2e43 44bc
00000330: 7384 e03b ee5b 99bd b224 34bd c625 0bbd
00000340: 2cbd b2bd bc39 7dbd c274 a6bd 9e48 daba
00000350: 98c1 4bbc c7c8 d93c efbc 99bd e43b 333d
00000360: 2cdd c8bb bd2b 08be 883b bf3d 3cfb a7bd
00000370: 3082 953d 8cf2 efbc e7fe 053d 5b61 b93d
00000380: 61f9 56bd 5c8a c63d d078 d13d 9c12 98bd
00000390: bf82 aabc d0f7 803c 72c8 b33d f8bc 01bb
000003a0: 624c 9b3c 171b e9bc a6d7 05be f9a0 b33d
000003b0: 738b 28bd 940f afbd c718 a7bd 54ce 003e
000003c0: e450 dc3c 307a 87bd c837 ab3d a989 b33d
000003d0: 9e05 85bd 53bd c4bc ad6c 81bd 50e6 ea3c
000003e0: a2af 2abc 720b 1f3c 7785 85bd d4b4 413d
000003f0: 29f2 6cbd f1cd a03d f07a c0bd 150a 32bd

convs.0.convs.<region___rev_has_region___subject>.lin_rel.weight f4 [64, 64]
-0.0009553982 0.0025245706 -0.007955845 -0.05611971 -0.069907725 -0.009899614 -0.019825825 -0.0745924
0.020620506 -0.06576865 0.024920285 0.0573061 -0.0028642642 -0.03030041 -0.027535465 0.0121378405
0.0013416759 -0.07340351 0.006614627 -0.017706884 0.00714786 0.0049101203 -0.009121956 -0.0067524286
-0.0072548483 0.01734748 -0.007635046 0.014625079 -0.0010877787 0.03801291 0.0009875912 -0.008938938
0.02065887 -0.021932613 -0.027267793 0.036526363 -5.242508e-05 0.04539664 0.03957956 -0.00535631
-0.0358837 0.0024334048 -0.010533824 0.07483974 -0.003603328 0.027709756 -0.064073645 0.003646927
-0.04373827 0.011134863 -0.0079697305 -0.07461053 0.014294234 -0.008103102 0.00794985 0.004847863
-0.07193204 0.001975342 -0.0329626 0.005550335 -0.0065702684 0.0007719039 0.010541996 -0.026229344
0.007580499 0.01333576 -0.017508615 -0.04713115 -0.00093502924 -0.022086848 -0.0522603 -0.06923738
0.03542979 0.04420439 0.0013109196 -0.021390947 0.055547044 -0.07619562 0.048216578 -0.005237379
-0.020707168 -0.0075134044 0.052708127 -0.0058467793 0.031938955 0.0119193755 -0.009908564 0.049159326
-0.042296574 0.007592503 0.042860482 -0.02328295 0.050079785 0.002420933 0.052507326 -0.0539497
-0.02071711 0.08672546 -0.050020307 -0.023202129 -0.008218987 -0.07738795 -0.0030490286 0.07277633
0.010146439 0.024859278 0.009820024 -0.03462822 -0.0694543 0.046075027 0.026684709 0.0038973456
0.017097916 -0.05754886 -0.0089619355 -0.023681585 0.028198266 0.019144494 -0.0052059623 0.0016763792
0.002124987 0.071725816 0.015200413 0.008393567 -0.011699131 -0.0072677275 0.030062374 -0.022638258
0.049208976 -0.0032171072 0.008922558 -0.047868237 0.03141631 -0.018998815 -0.066882655 -0.07377097
-0.0595875 -0.0005502468 -0.046727218 -0.0023186875 0.0024880688 0.02034932 -0.012535309 -0.00709079
0.040180467 -0.016706176 0.0053068874 -0.050858915 -0.042962026 0.07787157 0.0034077882 -0.062565535
0.00020485185 -0.04285392 0.06373293 -0.011855848 -0.0738864 -0.01050855 0.03337177 -0.05865322
0.0707227 -0.011532563 0.067455396 -0.0067179576 0.0028329007 -0.016364688 0.0015925267 0.0033121156
0.0064018294 -0.042343784 -0.015646204 -0.038498368 -0.077451706 -0.000496455 0.0047737677 -0.012258216
-0.014942609 -0.00013680861 -0.054559253 0.03453423 0.0015565515 0.016778845 -0.028325431 -0.051672306
0.07648001 -0.030774884 0.025785312 -0.06363471 0.035912693 0.0063201813 -0.03762088 -0.08082509
-0.010926112 -0.0044953795 0.0072110333 0.0052029677 -0.011757393 -0.04782439 0.027455498 -0.032233775
-0.067193456 0.014556297 0.07323701 0.029757522 0.033725336 0.0021785004 -0.073537186 0.0020565127
0.01232145 -0.007918211 0.0048638578 0.056468662 0.003926899 0.016099641 0.023744162 -0.026029918
-0.016006555 0.037693534 -0.0336157 0.0040051835 -0.018434929 -0.018758364 -0.00038029882 0.06567662
0.010499095 0.00425665 0.0019988958 -0.036215432 0.019008031 -0.069017746 -0.0052605346 -0.0033059139
0.007938887 0.0068538697 0.0055971146 -0.014624979 -0.013222975 -0.07334433 -0.0016222801 0.023311477
0.019899571 -0.007471863 0.05613982 -0.06971227 -0.0058980454 0.035729006 -0.048403937 -0.04654616
0.0035653405 0.029232323 0.01105913 0.047735374 -0.015529317 -0.02549652 0.019924983 -0.027924076
00000000: b073 7aba 4473 253b 3c59 02bc c8dd 65bd
00000010: c82b 8fbd fe31 22bc c569 a2bc e6c3 98bd
00000020: 56ec a83c b7b1 86bd a025 cc3c cdb9 6a3d
00000030: 61b6 3bbb 9138 f8bc 0e92 e1bc cbdd 463c
00000040: 2cdb af3a 9454 96bd 83bf d83b 070e 91bc
00000050: 9838 ea3b 13e5 a03b 4274 15bc 7a43 ddbb
00000060: 14ba edbb 4d1c 8e3c 682f fabb 079e 6f3c
00000070: cc93 8eba 6db3 1b3d 1072 813a a074 12bc
00000080: ca3c a93c 06ac b3bc b560 dfbc ab9c 153d
00000090: 00e3 5bb8 d4f1 393d 2d1e 223d fc83 afbb
000000a0: c9fa 12bd c279 1f3b 0f96 2cbc 9445 993d
000000b0: d025 6cbb 92ff e23c 0b39 83bd 4801 6f3b
000000c0: e626 33bd 006f 363c 7993 02bc 68cd 98bd
000000d0: 5d32 6a3c e0c2 04bc 1640 023c d3da 9e3b
000000e0: 1b51 93bd bd74 013b cb03 07bd 96df b53b
000000f0: 684b d7bb 9859 4a3a 56b8 2c3c ecde d6bc
00000100: d665 f83b 3b7e 5a3c 3a6e 8fbc 980c 41bd
00000110: c01c 75ba 7aef b4bc e50e 56bd 54cc 8dbd
00000120: d41e 113d aa0f 353d 2ad3 ab3a 113c afbc
00000130: 4c85 633d 730c 9cbd bf7e 453d 529e abbb
00000140: 14a2 a9bc 0133 f6bb 7ae4 573d 5796 bfbb
00000150: 6cd2 023d 7c49 433c 8857 22bc 4a5b 493d
00000160: 2c3f 2dbd 88ca f83b 798e 2f3d e3bb bebc
00000170: 7620 4d3d 84a8 1e3b ec11 573d 5cfa 5cbd
00000180: eeb6 a9bc 1e9d b13d 18e2 4cbd 6412 bebc
00000190: eea8 06bc 937d 9ebd 36d2 47bb c20b 953d
000001a0: 403d 263c afa5 cb3c 2ae4 203c 52d6 0dbd
000001b0: 0e3e 8ebd 2bb9 3c3d e499 da3c 9c6a 7f3b
000001c0: ee10 8c3c 5ab8 6bbd 15d5 12bc e2ff c1bc
000001d0: 0d00 e73c ead4 9c3c c796 aabb f4b9 db3a
000001e0: 5e43 0b3b fce4 923d 270b 793c 2c85 093c
000001f0: b6ad 3fbc 1e26 eebb 5e45 f63c de73 b9bc
00000200: 5a8f 493d 1ad6 52bb ec2f 123c 7c11 44bd
00000210: 64ae 003d 67a3 9bbc c6f9 88bd 3c15 97bd
00000220: 0612 74bd 703e 10ba 0a65 3fbd 1ff5 17bb
00000230: de0e 233b 9eb3 a63c e660 4dbc dc59 e8bb
00000240: 4694 243d 64db 88bc 66e5 ad3b 7051 50bd
00000250: f3f8 2fbd 217b 9f3d 3355 5f3b 5c22 80bd
00000260: 80cd 5639 9887 2fbd 6986 823d 083f 42bc
00000270: c151 97bd 0e2c 2cbc d6b0 083d 5c3e 70bd
00000280: 10d7 903d 13f3 3cbc 0e26 8a3d 5022 dcbb
00000290: 30a8 393b 3d0f 86bc 54bc d03a 1410 593b
000002a0: 70c6 d13b ad70 2dbd 782c 80bc 77b0 1dbd
000002b0: 009f 9ebd 8824 02ba 446d 9c3b afd6 48bc
000002c0: d8d1 74bc 4874 0fb9 8679 5fbd c473 0d3d
000002d0: 3405 cc3a ca73 893c bc0a e8bc 57a6 53bd
000002e0: 8da1 9c3d 9c1b fcbc b83b d33c ea52 82bd
000002f0: 3019 133d 8619 cf3b 5a18 1abd a087 a5bd
00000300: 6f03 33bc fa4d 93bb 884a ec3b a87d aa3b
00000310: 15a2 40bc 82e3 43bd 5aea e03c 9007 04bd
00000320: b99c 89bd 897d 6e3c 49fd 953d 0cc6 f33c
00000330: 9423 0a3d 2cc5 0e3b aa9a 96bd 8fc6 063b
00000340: e8df 493c 62bb 01bc ff60 9f3b af4b 673d
00000350: 37ad 803b 65e3 833c 1e83 c23c b23c d5bc
00000360: 2e20 83bc 8964 1a3d 9eb0 09bd ea3d 833b
00000370: d904 97bc 24ab 99bc d862 c7b9 7781 863d
00000380: 6504 2c3c 5e7b 8b3b e8ff 023b a256 14bd
00000390: bbb6 9b3c 2d59 8dbd 9060 acbb 08a8 58bb
000003a0: 1b12 023c 6d96 e03b 0068 b73b 9c9d 6fbc
000003b0: 2da5 58bc 8d35 96bd b0a2 d4ba b6f7 be3c
000003c0: 6d04 a33c 88d6 f4bb def2 653d 4ec5 8ebd
000003d0: 6444 c1bb 9458 123d 3543 46bd 30a7 3ebd
000003e0: 7da8 693b a078 ef3c 5a31 353c 2b86 433d
000003f0: ad6e 7ebc 14de d0bc b839 a33c 08c1 e4bc

convs.0.convs.<region___rev_has_region___subject>.lin_rel.bias f4 [64]
-0.0034879642 -0.020697448 -0.0109311165 -0.055225648 -0.06394739 -0.050414115 0.005477902 0.07517489
-0.0032853764 -0.038086463 -0.021348208 0.012137742 0.008351177 -0.061377943 -0.06177202 -0.058357336
-0.04267876 -0.04797572 -0.0045162 0.0016964679 -0.0017356109 -0.0052289534 0.06895582 0.0662475
-0.06575856 0.011617787 0.029117484 -0.014383285 0.024442166 -0.0038699368 -0.015450506 -0.010866861
0.060666006 -0.009742289 0.008116886 -0.0015895077 -0.005268442 -0.006443815 0.060672462 -0.015487314
7.798243e-05 0.03852956 -0.037555426 0.038597196 0.013313644 0.0050783586 -0.015482149 0.0018308667
-0.07194928 -0.0045743203 -0.05890771 0.018761516 -0.021921348 -0.05679539 -0.069668934 0.01080548
0.0021075911 -0.01062309 -0.075814925 -0.027358398 -0.0016366923 -0.0070683155 0.022296801 -0.009592967
00000000: 5496 64bb b28d a9bc 6d18 33bc 4a34 62bd
00000010: d9f6 82bd 087f 4ebd f97f b33b 4bf5 993d
00000020: 784f 57bb 8d00 1cbd 70e2 aebc 61dd 463c
00000030: 60d3 083c 7067 7bbd a804 7dbd 1a08 6fbd
00000040: eccf 2ebd 3082 44bd a2fc 93bb 045c de3a
00000050: 707d e3ba a457 abbb b538 8d3d c5ac 873d
00000060: 6dac 86bd 8858 3e3c ca87 ee3c dfa7 6bbc
00000070: f03a c83c c49e 7dbb 1e24 7dbc eb0a 32bc
00000080: eb7c 783d 1f9e 1fbc b0fc 043c 0757 d0ba
00000090: e5a2 acbb a326 d3bb b083 783d 81be 7dbc
000000a0: 808a a338 2cd1 1d3d b8d3 19bd 1818 1e3d
000000b0: 7821 5a3c 5c68 a63b d7a8 7dbc b1f9 ef3a
000000c0: 255a 93bd 2ee4 95bb 3649 71bd c0b1 993c
000000d0: 6694 b3bc 48a2 68bd 96ae 8ebd 7809 313c
000000e0: 831f 0a3b 780c 2ebc db44 9bbd b81e e0bc
000000f0: 4886 d6ba 549d e7bb c8a7 b63c d22b 1dbc

convs.0.convs.<region___rev_has_region___subject>.lin_root.weight f4 [64, 64]
0.05629555 0.070635 0.08577429 -0.10315061 0.08895796 0.051561836 0.028963372 -0.008544419
0.05725117 0.14082235 0.15161528 0.015838914 0.10237635 -0.07352034 0.034614757 -0.009278654
-0.0442622 0.06885986 0.14247833 0.038225345 0.10958552 0.0723996 0.027221514 0.035844274
0.060432594 -0.033762127 -0.05204709 -0.08093788 -0.07226512 -0.13059245 0.05052297 0.07845546
-0.0007245632 -0.00037000072 0.067484744 0.08499626 -0.105805546 0.09039894 0.07999293 0.008057095
-0.082987726 -0.12146188 0.0050259903 0.0030221846 0.027100699 -0.116751656 0.11498755 0.05975864
-0.08024603 -0.12978743 0.02646158 -0.023148658 0.093301006 0.042516865 0.08448245 -0.0131642725
0.051134177 0.08499598 0.07898922 0.14093596 -0.051828943 -0.09292135 -0.0758847 0.087874934
-0.019031173 -0.019672759 0.0105088 -0.025882373 -0.06795949 0.08147405 -0.055789072 -0.08691465
-0.09348528 -0.04422753 -0.049560547 0.05880615 -0.063684694 0.068372115 -0.011315536 -0.13260943
0.029110845 -0.017170113 -0.028768428 -0.012939932 0.0873205 -0.066367395 -0.09690648 -0.005554774
0.11370409 -0.025545724 -0.10302245 -0.05739178 -0.04874061 -0.05446098 -0.07137706 0.070302755
-0.010462517 0.10026153 0.0024943275 -0.086600594 0.119028956 -0.040255547 0.0035206736 -0.033951152
0.0025087055 -0.08084377 0.024307251 -0.05457487 0.089396246 0.102186926 0.033814408 -0.12286823
0.09365441 -0.009588074 0.048243947 0.061594363 0.12770535 -0.0009338013 0.15534295 -0.0028799411
0.12580782 -0.025233869 -0.14417829 0.09715384 0.13335145 -0.020997029 0.14351812 -0.078254156
0.12657659 -0.051876858 0.05714488 -0.012693378 -0.048003353 0.060950495 0.053609826 -0.007039106
0.050449725 -0.09360996 0.045973435 -0.091501206 -0.04053872 -0.060566045 0.024592746 0.022666872
0.12904477 0.014946446 0.055645294 0.1195613 -0.13830683 -0.059158906 -0.11701439 -0.04685615
-0.122480854 0.048033684 -0.04151372 0.0912836 0.12537415 -0.109425396 0.02608827 -0.031226832
0.024319297 -0.07794257 -0.07141666 0.05842458 0.0061404663 -0.026932724 -0.09281718 -0.08269082
0.07990154 0.007497357 -0.15673618 0.039172046 -0.023686206 -0.061689533 0.014369963 0.073847815
-0.058024876 -0.07901743 -0.043153945 -0.088587075 -0.061674047 -0.08106558 0.15386502 -0.14000413
0.05655277 0.05003739 0.05630763 0.1369765 0.10514256 0.120093204 -0.071666114 -0.13962775
-0.10971462 0.065775186 0.05409456 0.041740965 -0.0065354435 -0.031071773 0.13740031 -0.08359808
0.06452332 0.063575536 0.0048187003 0.05982554 0.011448063 -0.07544755 -0.00421522 0.10948769
0.04726241 0.029554453 0.10096513 -0.05277061 0.022078983 0.0023694867 -0.054257758 0.03145795
-0.025079409 -0.123618044 -0.03976146 -0.0042810673 -0.035025224 0.02686211 -0.11143998 -0.061111033
-0.042031262 0.12530755 0.07623552 -0.046287686 0.016187746 -0.07204218 0.07041814 -0.021396834
-0.039537456 -0.11186791 0.014169543 0.08226818 0.032435454 -0.06419295 -0.103940755 0.05464482
-0.09406458 -0.01639362 -0.13212037 0.12195807 0.09692366 -0.12857644 0.10969499 -0.009898268
0.015392866 -0.032037452 0.07559838 -0.118253395 0.09031432 0.082701884 0.048759572 -0.08258589
00000000: 2a96 663d 15a9 903d 6eaa af3d a140 d3bd
00000010: 972f b63d 8132 533d 9844 ed3c e4fd 0bbc
00000020: 3480 6a3d bc33 103e 0941 1b3e 9cc0 813c
00000030: b1aa d13d d591 96bd 34c8 0d3d 7f05 18bc
00000040: 484c 35bd 6606 8d3d d7e5 113e 2e92 1c3d
00000050: 606e e03d 3e46 943d a7ff de3c 72d1 123d
00000060: 2b88 773d 284a 0abd 542f 55bd c2c2 a5bd
00000070: bcff 93bd 07ba 05be 2cf1 4e3d 42ad a03d
00000080: 9df0 3dba a8fc c1b9 7135 8a3d 8512 ae3d
00000090: 94b0 d8bd 1423 b93d 55d3 a33d e801 043c
000000a0: 78f5 a9bd 02c1 f8bd 10b1 a43b d80f 463b
000000b0: 4902 de3c 7e1b efbd 987e eb3d 7ac5 743d
000000c0: 0858 a4bd ffe6 04be f5c5 d83c 41a2 bdbc
000000d0: 9914 bf3d 2a26 2e3d 2205 ad3d f6ae 57bc
000000e0: 1272 513d 5f12 ae3d 1ac5 a13d 8451 103e
000000f0: 964a 54bd 8c4d bebd 7069 9bbd c6f7 b33d
00000100: 43e7 9bbc c428 a1bc 1a2d 2c3c 4507 d4bc
00000110: 582e 8bbd dedb a63d 1583 64bd 4f00 b2bd
00000120: 3675 bfbd ed27 35bd 0000 4bbd b8de 703d
00000130: 1f6d 82bd ae06 8c3d cc64 39bc c4ca 07be
00000140: de79 ee3c 56a8 8cbc c4ab ebbc 0202 54bc
00000150: 17d5 b23d a1eb 87bd e876 c6bd d204 b6bb
00000160: b1dd e83d 4445 d1bc 6ffd d2bd a513 6bbd
00000170: 3ca4 47bd 7a12 5fbd 232e 92bd e4fa 8f3d
00000180: fa6a 2bbc eb55 cd3d df77 233b a75b b1bd
00000190: 74c5 f33d 00e3 24bd 1abb 663b 5d10 0bbd
000001a0: 1869 243b 6b91 a5bd 0020 c73c e689 5fbd
000001b0: 6115 b73d 6147 d13d fa80 0a3d 57a2 fbbd
000001c0: e2cd bf3d 4c17 1dbc 729b 453d 5f4a 7c3d
000001d0: 31c5 023e 58ca 74ba 3912 1f3e 65bd 3cbb
000001e0: c4d3 003e 42b7 cebc 79a3 13be 98f8 c63d
000001f0: 488d 083e f601 acbc 6af6 123e b743 a0bd
00000200: 4b9d 013e d47c 54bd c010 6a3d e3f7 4fbc
00000210: 2a9f 44bd 3aa7 793d fa95 5b3d 4da8 e6bb
00000220: 5fa4 4e3d 94b6 bfbd a44e 3c3d fc64 bbbd
00000230: ee0b 26bd 1a14 78bd ba76 c93c e0af b93c
00000240: 5024 043e f0e1 743c 52ec 633d 8edc f43d
00000250: 4ea0 0dbe 9c50 72bd 3ea5 efbd 3cec 3fbd
00000260: 3ed7 fabd f8be 443d 4a0a 2abd e5f2 ba3d
00000270: 1562 003e 6c1a e0bd 11b7 d53c 6acf ffbc
00000280: 4339 c73c 5ba0 9fbd e642 92bd 9d4e 6f3d
00000290: f735 c93b 04a2 dcbc ef16 bebd ce59 a9bd
000002a0: 6ba3 a33d 64ac f53b 737f 20be de72 203d
000002b0: 9309 c2bc 2aae 7cbd fe6f 6b3c 863d 973d
000002c0: 7eab 6dbd e4d3 a1bd 31c2 30bd 246d b5bd
000002d0: ed9d 7cbd b605 a6bd cb8e 1d3e 3e5d 0fbe
000002e0: e1a3 673d 02f4 4c3d d4a2 663d 9143 0c3e
000002f0: fc54 d73d 6df3 f53d afc5 92bd 94fa 0ebe
00000300: 0fb2 e0bd 24b5 863d 4292 5d3d 93f8 2a3d
00000310: 4627 d6bb 3b8a febc abb2 0c3e 7835 abbd
00000320: cd24 843d e433 823d 30e6 9d3b a00b 753d
00000330: a890 3b3c 3f84 9abd d41f 8abb 153b e03d
00000340: 3b96 413d 2e1c f23c cec6 ce3d ff25 58bd
00000350: fcde b43c 6449 1b3b 623d 5ebd 0dda 003d
00000360: 5573 cdbc 752b fdbd eadc 22bd 3248 8cbb
00000370: 9c76 0fbd ed0d dc3c a53a e4bd 904f 7abd
00000380: f928 2cbd 9f50 003e 5e21 9c3d 2898 3dbd
00000390: 2a9c 843c da8a 93bd 6337 903d 6a48 afbc
000003a0: 07f2 21bd 011b e5bd 5f27 683c 387c a83d
000003b0: 0adb 043d 9877 83bd e4de d4bd 3fd3 5f3d
000003c0: eea4 c0bd ea4b 86bc 904a 07be 27c5 f93d
000003d0: e97f c63d 8ba9 03be c4a7 e03d 582c 22bc
000003e0: 5c32 7c3c b439 03bd 53d3 9a3d d62e f2bd
000003f0: b7f6 b83d 9b5f a93d 1eb8 473d cb22 a9bd

convs.0.convs.<region___is_functionally_connected___region>.att_src f4 [1, 1, 64]
0.13005249 0.098151065 -0.117543645 -0.08803847 -0.020305878 0.09425174 -0.055616513 -0.050455295
0.19271779 -0.07563165 0.25099126 -0.07069221 0.02546214 -0.18139641 -0.15191673 -0.059040785
0.22073674 -0.055654045 0.032941338 -0.009483333 -0.04717038 -0.13907975 0.23005287 -0.102636784
-0.023443744 0.1640257 0.21136823 0.030383142 0.25529134 -0.18536848 0.13591217 0.119217895
0.055777334 0.15775499 -0.10270524 -0.041773014 -0.040814493 -0.13025051 0.058461506 0.15003443
-0.17061855 -0.007503618 -0.21340992 0.109082304 -0.007943895 0.14587668 0.107975766 0.0140938265
0.09812981 0.1981562 -0.063309476 -0.17676912 -0.05634732 -0.23721422 0.055962965 0.23023526
-0.10252304 -0.23709463 -0.18478987 0.042477652 0.077050425 0.18662673 -0.00075582275 -0.08710335
00000000: 7b2c 053e 6d03 c93d b9ba f0bd 834d b4bd
00000010: 8358 a6bc 0e07 c13d 24ce 63bd 36aa 4ebd
00000020: d057 453e c4e4 9abd ed81 803e 14c7 90bd
00000030: fa95 d03c fbbf 39be 0f90 1bbe c0d4 71bd
00000040: d008 623e 7ff5 63bd 7fed 063d fb5f 1bbc
00000050: ba35 41bd ec6a 0ebe fb92 6b3e 3c33 d2bd
00000060: 180d c0bc 5af6 273e ea70 583e 11e6 f83c
00000070: 8cb5 823e 3cd1 3dbe 8f2c 0b3e 8328 f43d
00000080: c676 643d 868a 213e 2057 d2bd 2e1a 2bbd
00000090: 192d 27bd 6460 05be 5575 6f3d a0a2 193e
000000a0: a1b6 2ebe e9e0 f5bb 2188 5abe 8b66 df3d
000000b0: 1c27 02bc b260 153e 6622 dd3d cbe9 663c
000000c0: 48f8 c83d 75e9 4a3e 66a8 81bd f702 35be
000000d0: 73cc 66bd 49e8 72be 6c39 653d cbc2 6b3e
000000e0: 99f7 d1bd efc8 72be 8e39 3dbe 0cfd 2d3d
000000f0: 9dcc 9d3d 141b 3f3e 6822 46ba 3e63 b2bd

convs.0.convs.<region___is_functionally_connected___region>.att_dst f4 [1, 1, 64]
0.08138599 0.04204306 -0.2546782 -0.074058235 0.100017816 -0.1662496 -0.1629741 -0.048395418
0.11698806 -0.21031691 -0.11425925 -0.24352138 0.022886049 -0.014963362 0.015622048 -0.023029227
-0.05650564 -0.0333664 0.046645556 0.22417745 -0.04305833 -0.11724247 0.13282126 0.22654285
0.064055875 -0.13777247 0.040748373 -0.061356388 -0.19742745 -0.06879079 0.013690834 -0.10674517
-0.22667655 0.116213635 -0.22839348 0.0993876 0.1447251 0.044766255 0.20482023 0.008344167
-0.017872626 0.012733769 -0.20146328 0.04856009 0.024449574 -0.18827622 -0.1692316 0.018016053
-0.17693749 0.18162686 -0.002611292 -0.08671881 -0.13575915 -0.015603136 -0.22823438 0.23112154
0.25453943 -0.10267016 0.11952052 -0.11902555 -0.15209028 -0.20196933 0.060033996 -0.025337752
00000000: b3ad a63d 5835 2c3d 2e65 82be d8ab 97bd
00000010: 24d6 cc3d 563d 2abe afe2 26be 463a 46bd
00000020: 7097 ef3d 515d 57be c100 eabd ab5d 79be
00000030: 867b bb3c e428 75bc 9ef3 7f3c caa7 bcbc
00000040: 7572 67bd 35ab 08bd 690f 3f3d c68e 653e
00000050: ee5d 30bd d21c f0bd 4c02 083e d9fa 673e
00000060: ba2f 833d 3a14 0dbe c4e7 263d d650 7bbd
00000070: 6c2a 4abe 30e2 8cbd 854f 603c 369d dabd
00000080: e61d 68be 6a01 ee3d fbdf 69be ba8b cb3d
00000090: d132 143e d25c 373d 65bc 513e f9b5 083c
000000a0: 9d69 92bc 4ca1 503c 644c 4ebe f2e6 463d
000000b0: 794a c83c 7bcb 40be 0c4b 2dbe 6796 933c
000000c0: 1a2f 35be 64fc 393e 3622 2bbb a299 b1bd
000000d0: 7204 0bbe 4ca4 7fbc 46b6 69be 20ab 6c3e
000000e0: fe52 823e bc44 d2bd 2dc7 f43d abc3 f3bd
000000f0: 8ebd 1bbe 0cd1 4ebe 35e6 753d 1e91 cfbc

convs.0.convs.<region___is_functionally_connected___region>.bias f4 [64]
-0.0035761248 -0.001491128 -0.007912105 -0.0053398535 0.0010102484 0.0028599645 0.0015429594 0.0054077674
0.006925275 0.0026024508 -0.00084014575 -0.0064471536 -0.006427254 0.0022550223 -0.00634454 0.0012094921
-0.000865896 0.0008072289 -0.00087188545 0.009339128 0.0035918062 0.009431668 -0.0069639073 0.0033754576
0.0012704346 0.002041247 0.004705441 -0.006691878 -0.00096981064 0.002032795 -0.0039888313 -0.000647885
-0.004793697 0.00651611 0.00043107662 -0.0047606975 0.0012093855 0.0024613293 0.002045914 -0.004293374
-0.006723961 -0.0012642946 0.0047708973 -0.0071549104 -0.0024951817 -0.0018963367 0.0014323595 0.009486952
-0.0007688206 -0.005084223 -0.0002713981 0.00033927895 -0.006741809 -0.0050123977 0.0038002322 0.0057339314
0.00025517168 0.0016289946 0.0008365824 0.0015863371 0.00039525004 0.0007443349 -0.0010103685 0.0031131117
00000000: 6b5d 6abb f471 c3ba c6a1 01bc f0f9 aebb
00000010: 506a 843a 3e6e 3b3b 203d ca3a a433 b13b
00000020: 6bed e23b e18d 2a3b 3a3d 5cba a542 d3bb
00000030: b79b d2bb ffc8 133b dce5 cfbb d287 9e3a
00000040: 4cfd 62ba 379c 533a 3e8f 64ba 2403 193c
00000050: 8264 6b3b 4887 1a3c 7d31 e4bb c836 5d3b
00000060: b684 a63a 71c6 053b 1a30 9a3b 8b47 dbbb
00000070: e43a 7eba a438 053b beb4 82bb d4d6 29ba
00000080: 7214 9dbb 1885 d53b 2002 e239 a0ff 9bbb
00000090: 3e84 9e3a 414e 213b be14 063b 6eaf 8cbb
000000a0: ac54 dcbb b0b6 a5ba 3055 9c3b bd73 eabb
000000b0: 3486 23bb 808e f8ba 02be bb3a 296f 1b3c
000000c0: ad8a 49ba 8e99 a6bb 704a 8eb9 40e1 b139
000000d0: 65ea dcbb 0a3f a4bb 510d 793b b4e3 bb3b
000000e0: 90c8 8539 fd83 d53a 184e 5b3a a4ec cf3a
000000f0: 9039 cf39 781f 433a 576e 84ba 5905 4c3b

convs.0.convs.<region___is_functionally_connected___region>.lin.weight f4 [64, 64]
0.0041669533 0.14663243 0.105573215 -0.012599823 0.0049924576 0.12315665 0.15560329 0.0071516316
0.12219386 0.03452581 0.096051924 0.051707625 -0.16213427 -0.006597181 -0.13130905 -0.0029981078
0.010848732 0.004033948 -0.05755385 0.13149634 0.071785994 0.1455957 -0.118128896 -0.013844572
-0.11491116 -0.0008671372 -0.017375808 0.0056031267 0.14172548 -0.10126166 -0.031325955 -0.011249174
0.094399735 0.12612547 -0.007914607 -0.021297432 -0.027464349 0.019004658 -0.0024333163 -0.007965539
-0.12724839 -0.13720338 -0.086907126 -0.06731813 -0.028680563 -0.111145005 -0.026405115 -0.007935729
0.07155156 0.1447826 0.15838042 0.05464149 0.13699637 0.07915886 -0.034156058 0.04688051
0.11379037 -0.013807522 0.044290837 0.12095862 0.0019454951 0.1274593 -0.007962055 0.07217963
-0.1620643 0.000438774 -0.05691588 0.038915552 0.1545569 -0.0059349677 -0.05304917 0.017032309
-0.01535021 -0.12674133 0.0017947494 -0.0595247 0.16016889 0.0010198988 0.012218948 0.035318106
-0.011429734 0.043421566 0.065508455 -0.029063754 0.0027332413 -0.005282961 -0.09547178 0.1654387
-0.07209351 -0.009029174 -0.096213974 0.0019755322 0.07801297 0.13782373 -0.024336502 -0.15442716
-0.03713882 0.010183816 -0.07233666 -0.1191094 -0.08124003 -0.08374086 0.12563586 -0.0034751575
0.09226087 0.026353601 -0.10731185 0.14289422 0.013813072 -0.08189639 -0.006171488 0.09837512
0.052110523 -0.09598283 0.15644494 0.05652499 0.12424285 -0.00783558 0.027323164 -0.106042996
-0.07113576 0.0032477933 0.109466285 0.08288317 0.019984197 0.13094756 -0.021851867 0.07267213
-0.034314375 0.13644183 0.15492932 0.15179303 -0.004326525 -0.06902016 -0.13279434 -0.16420905
-0.15366517 0.13494997 -0.06179386 0.10337434 -0.10340522 0.0042394856 -0.16308434 0.04160769
0.041865695 0.049329575 -0.11059851 0.027045604 0.11988941 -0.05970061 -0.009201543 0.01726725
0.01742222 0.009512875 -0.037093803 -0.010272584 -0.047133345 0.16459458 -0.11582994 0.14107478
-0.112682074 -0.05776693 0.13245238 0.14660184 0.006461223 0.04911339 0.06461952 -0.07989169
-0.13842963 0.12694833 0.12371153 -0.08417856 0.16190845 -0.020002313 0.010400504 0.017013825
-0.0137777645 -0.11533164 -0.092626594 0.12197771 0.110776946 0.059468664 -0.027430315 0.083743855
-0.106969565 -0.040633783 0.07943083 -0.075736396 0.10205962 -0.14757447 0.15543674 -0.07034501
0.0014802506 0.062266327 -0.12845483 0.005024638 -0.0264072 0.08049359 0.08344562 -0.09421072
0.019404348 0.016531726 0.06572785 -0.14157817 0.100384936 0.11438282 -0.062284987 0.055077143
-0.010300586 -0.005142756 0.14368983 -0.14227512 -0.006281689 0.005149007 -0.004982598 -0.064428665
0.01646916 -0.1455946 0.12596223 -0.0236036 -0.097794205 0.10865373 -0.09222251 0.13885783
-0.01201742 0.14256184 0.088160224 0.105062686 -0.11563132 0.006064946 0.11476927 0.16494124
0.097069174 -0.004027033 0.008768627 -0.0041236505 -0.0068547125 -0.1589717 0.011338615 0.00666113
0.05524351 -0.008136164 -0.019202814 -0.12538049 0.15925294 0.0031858003 0.0041250326 -0.048096128
0.15051293 0.00092901196 0.073432624 -0.0632887 -0.020794753 -0.057971958 -0.014935354 -3.4988392e-05
00000000: f08a 883b d026 163e c536 d83d 7d6f 4ebc
00000010: c597 a33b 8e39 fc3d 7856 1f3e 3c58 ea3b
00000020: c640 fa3d f06a 0d3d dfb6 c43d 60cb 533d
00000030: 8706 26be 2a2d d8bb e175 06be e77b 44bb
00000040: e1be 313c 352f 843b 96bd 6bbd faa6 063e
00000050: 8904 933d 0a17 153e 90ed f1bd 58d4 62bc
00000060: 8b56 ebbd 9850 63ba b657 8ebc 6f9a b73b
00000070: 7c20 113e 4662 cfbd a54f 00bd 754e 38bc
00000080: a654 c13d 0927 013e 45ac 01bc f477 aebc
00000090: eafc e0bc a8af 9b3c 4678 1fbb e481 02bc
000000a0: 674d 02be 0b7f 0cbe 5dfc b1bd 16de 89bd
000000b0: 80f3 eabc fe9f e3bd 8a4f d8bc dc04 02bc
000000c0: a089 923d e441 143e 7a2e 223e c1cf 5f3d
000000d0: c748 0c3e 0a1e a23d 39e7 0bbd c705 403d
000000e0: ed0a e93d f238 62bc 4f6a 353d 27b9 f73d
000000f0: fcff fe3a b184 023e 4773 02bc ead2 933d
00000100: 2ff4 25be 400b e639 a020 69bd ea65 1f3d
00000110: 2a44 1e3e 1e7a c2bb 164a 59bd 5787 8b3c
00000120: 727f 7bbc 7bc8 01be cc3d eb3a 2cd0 73bd
00000130: 5003 243e 20ae 853a fc31 483c b8a9 103d
00000140: c743 3bbc d0da 313d 4c29 863d 1c17 eebc
00000150: 2e20 333b b01c adbb b586 c3bd c368 293e
00000160: c3a5 93bd 1aef 13bc d50b c5bd ee77 013b
00000170: 44c5 9f3d aa21 0d3e 585d c7bc 2722 1ebe
00000180: e01e 18bd 05da 263c 3e25 94bd a1ef f3bd
00000190: 2c61 a6bd 5480 abbd b0a6 003e 78bf 63bb
000001a0: 44f3 bc3d 82e3 d73c 51c6 dbbd dd52 123e
000001b0: 3950 623c 4bb9 a7bd 323a cabb e578 c93d
000001c0: d871 553d a592 c4bd 1a33 203e bf86 673d
000001d0: 0973 fe3d ce60 00bc d4d4 df3c 122d d9bd
000001e0: a0af 91bd eed8 543b dc2f e03d a7be a93d
000001f0: e6b5 a33c 1e17 063e b002 b3bc 20d5 943d
00000200: 3b8d 0cbd 68b7 0b3e cba5 1e3e a26f 1b3e
00000210: 86c5 8dbb 715a 8dbd 3dfb 07be 6b26 28be
00000220: 675a 1dbe 5330 0a3e 8f1b 7dbd edb5 d33d
00000230: 1ec6 d3bd 62eb 8a3b 95ff 26be d36c 2a3d
00000240: 5d7b 2b3d cf0d 4a3d 7981 e2bd be8e dd3c
00000250: 9488 f53d a088 74bd 12c2 16bc 0c74 8d3c
00000260: 0bb9 8e3c e4db 1b3c acef 17bd 574e 28bc
00000270: e50e 41bd 7b8b 283e 3f38 edbd e875 103e
00000280: dcc5 e6bd 049d 6cbd 99a1 073e cb1e 163e
00000290: abb8 d33b 1f2b 493d 3d57 843d 419e a3bd
000002a0: 7fc0 0dbe befe 013e 785c fd3d cf65 acbd
000002b0: 54cb 253e e4db a3bc e066 2a3c 9460 8b3c
000002c0: 22bc 61bc ff32 ecbd 03b3 bdbd 73cf f93d
000002d0: 06df e23d 6a95 733d 8ab5 e0bc e681 ab3d
000002e0: dc12 dbbd 9c6f 26bd a2ac a23d af1b 9bbd
000002f0: a204 d13d c31d 17be cf2a 1f3e 0b11 90bd
00000300: f804 c23a fa0a 7f3d aa89 03be b8a5 a43b
00000310: ea53 d8bc d3d9 a43d 8ae5 aa3d 8df1 c0bd
00000320: def5 9e3c 8b6d 873c 539c 863d def9 10be
00000330: 9e96 cd3d 8a41 ea3d 8b1e 7fbd 9298 613d
00000340: cac3 28bc 9084 a8bb 6d23 133e 92b0 11be
00000350: a0d6 cdbb 00b9 a83b 1045 a3bb 2df3 83bd
00000360: 55ea 863c c016 15be 3efc 003e 565c c1bc
00000370: 5448 c8bd d985 de3d 28df bcbd bf30 0e3e
00000380: b6e4 44bc bbfb 113e 598d b43d 1b2b d73d
00000390: 1dd0 ecbd 74bc c63b 270c eb3d 5be6 283e
000003a0: 34cc c63d 34f5 83bb 4aaa 0f3c b01f 87bb
000003b0: 7f9d e0bb 7ac9 22be 99c5 393c 9c45 da3b
000003c0: 0547 623d 8c4d 05bc 384f 9dbc be63 00be
000003d0: 3413 233e dcc8 503b 482b 873b 7200 45bd
000003e0: 1020 1a3e f088 733a d863 963d 829d 81bd
000003f0: c259 aabc 0174 6dbd 6ab3 74bc 80c0 12b8

convs.1.convs.<subject___has_region___region>.lin_rel.weight f4 [64, 64]
-0.010988325 -0.12459727 -0.038405582 0.124272406 0.10912183 -0.07272577 -0.09431811 0.017540738
-0.0021532476 -0.09402783 0.077208385 0.09957011 -0.08663653 -0.08353765 0.06633043 0.112832636
-0.03811443 0.0895163 0.06957187 0.10639167 -0.055740803 -0.086925864 0.013962328 0.07667297
-0.028138593 0.06660707 0.08993535 -0.08559245 -0.059449792 -0.111100316 0.022368222 0.052741587
0.118285164 0.060457885 -0.06261471 0.0805009 0.056115165 0.12405953 -0.022838593 -0.10639632
-0.038785473 -0.037765667 0.12099293 -0.013092861 -0.06493206 0.046501487 0.086426735 0.06619725
-0.015213311 -0.090189636 0.11655399 0.008739054 0.119720146 -0.10928713 0.09127243 0.110850245
0.039448828 -0.11463237 -0.023976058 -0.114997655 -0.029426202 0.09194663 -0.063399106 0.10060841
0.06016408 -0.07053906 -0.048015013 -0.06631917 0.050074026 0.09206034 -0.02590479 -0.02542007
0.086545154 0.08845881 0.06401755 -0.12489638 0.06938684 0.11704238 0.053926572 -0.031228542
0.103860945 0.018306449 0.1111408 0.072515935 -0.11410864 0.020580187 -0.10024111 -0.063348085
-0.06857045 -0.0687723 0.064739734 0.013518423 0.08780354 0.026904032 0.031955376 0.058068305
0.044404566 -0.033524826 -0.012450039 -0.0909719 -0.01624228 0.045280248 0.0500523 0.0010189116
-0.023051023 0.114056036 0.07640004 0.039259017 0.12337223 0.037101254 -0.10496071 0.071960986
0.040531263 -0.02617903 -0.017545715 -0.107498765 0.015346125 0.023029879 0.00038853288 -0.09674761
0.12330398 0.116575256 -0.118309006 0.08749452 -0.009183034 0.07749289 0.011253193 0.048937023
0.05008635 -0.08134498 -0.032602355 0.090269625 -0.08739357 -0.07371475 -0.07540287 -0.044041112
-0.12234728 0.020297408 0.01745008 -0.060301483 0.036633983 0.07136515 0.098248065 0.021347865
0.086762056 0.0068285763 0.0062951148 0.019551143 0.05524017 -0.02747403 -0.10636555 -0.00010219216
-0.037397727 -0.09312324 -0.07066648 -0.06473914 0.09142545 -0.073316604 0.028195724 -0.028951332
-0.07277843 0.049765527 -0.05304201 0.05977404 0.08181074 -0.014630452 -0.038808107 0.09964694
-0.11043085 0.057103634 -0.063035294 -0.086408615 0.11705974 0.112947255 0.009619921 -0.016303062
0.033851728 0.009894863 -0.061119407 -0.107975215 0.048158094 -0.09293288 0.09052093 0.07567452
-0.043171674 0.04928136 -0.0044335276 0.123899445 -0.046083644 -0.12187864 0.055753693 -0.10972336
0.012289479 0.11175947 -0.015574127 0.11976476 0.04558824 -0.005766973 -0.012849599 0.11934194
0.067947045 0.021538347 0.021251455 -0.019278377 -0.045144126 0.077580735 0.036522537 0.026381329
0.03349091 0.015996486 -0.12186368 -0.009023637 0.010766923 -0.10184422 -0.12322356 -0.056054145
0.05422333 -0.08187398 0.07809383 -0.11970504 0.0007623136 0.12486228 0.029292151 -0.074182644
0.027527884 0.025526166 0.082403004 -0.031203657 0.10696678 -0.11785586 0.06982161 0.08234997
-0.0028493553 -0.08733897 0.0042580515 0.030761957 0.03152305 0.04000032 -0.08945407 -0.12451607
-0.10804744 -0.048380002 0.016646668 0.0708309 -0.031518906 -0.031014785 -0.115923434 -0.10991286
0.03967297 0.013664618 0.0819878 0.115111664 0.06086701 -0.08024646 0.07569638 0.0015624762
00000000: 6008 34bc da2c ffbd 2c4f 1dbd 8882 fe3d
00000010: 447b df3d 40f1 94bd da29 c1bd 98b1 8f3c
00000020: 801d 0dbb aa91 c0bd 6e1f 9e3d 6aeb cb3d
00000030: 7e6e b1bd ca15 abbd 40d8 873d cc14 e73d
00000040: e01d 1cbd 5254 b73d b27b 8e3d e0e3 d93d
00000050: 7850 64bd 3006 b2bd 40c2 643c b806 9d3d
00000060: e882 e6bc 4a69 883d 0630 b83d 184b afbd
00000070: a081 73bd 9088 e3bd 903d b73c 9007 583d
00000080: 7e3f f23d b0a2 773d 243c 80bd a8dd a43d
00000090: 04d9 653d ec12 fe3d 0018 bbbc 50e6 d9bd
000000a0: 84dd 1ebd 2cb0 1abd 24cb f73d 7083 56bc
000000b0: 1afb 84bd 5878 3e3d 8000 b13d 6c92 873d
000000c0: 4041 79bc 58b5 b8bd dcb3 ee3d 402e 0f3c
000000d0: d62f f53d eed1 dfbd 0aed ba3d 7405 e33d
000000e0: 1895 213d 60c4 eabd 7069 c4bc e483 ebbd
000000f0: 380f f1bc 844e bc3d 64d7 81bd c80b ce3d
00000100: 9c6e 763d c876 90bd 64ab 44bd 58d2 87bd
00000110: 6c1a 4d3d 228a bc3d 4836 d4bc c03d d0bc
00000120: 963e b13d e429 b53d a21b 833d acc9 ffbd
00000130: b01a 8e3d eab3 ef3d 1ce2 5c3d 00d3 ffbc
00000140: 0cb5 d43d 68f7 953c ca9d e33d 3c83 943d
00000150: cab1 e9bd c897 a83c 364b cdbd a4bc 81bd
00000160: aa6e 8cbd 7ed8 8cbd 4496 843d 607c 5d3c
00000170: 58d2 b33d d865 dc3c a4e3 023d 08d9 6d3d
00000180: 90e1 353d 5451 09bd 40fb 4bbc 7a4f babd
00000190: 880e 85bc c877 393d a403 4d3d 008d 853a
000001a0: 80d5 bcbc 3696 e93d a077 9c3d 10ce 203d
000001b0: 94aa fc3d 7cf7 173d a4f5 d6bd 4860 933d
000001c0: 1c04 263d 6875 d6bc 08bc 8fbc 5028 dcbd
000001d0: 506e 7b3c 28a9 bc3c 00b4 cb39 9c23 c6bd
000001e0: cc86 fc3d 02bf ee3d fe4b f2bd 5430 b33d
000001f0: 7074 16bc 98b4 9e3d 505f 383c 3072 483d
00000200: 5827 4d3d 3298 a6bd 0c8a 05bd 48df b83d
00000210: 66fb b2bd c2f7 96bd d26c 9abd 7464 34bd
00000220: 3691 fabd c046 a63c 78f3 8e3c b0fe 76bd
00000230: 840d 163d e427 923d 4836 c93d b8e1 ae3c
00000240: 4eb0 b13d 40c2 df3b 4047 ce3b b829 a03c
00000250: 8443 623d 3811 e1bc 2ed6 d9bd 0050 d6b8
00000260: 5c2e 19bd 66b7 bebd 96b9 90bd f495 84bd
00000270: 443d bb3d 0427 96bd b8fa e63c 582b edbc
00000280: dc0c 95bd f0d6 4b3d 9442 59bd a0d5 743d
00000290: 648c a73d 90b4 6fbc 40f5 1ebd b213 cc3d
000002a0: 9229 e2bd 80e5 693d a618 81bd 00f7 b0bd
000002b0: 04bd ef3d e450 e73d e09c 1d3c 008e 85bc
000002c0: 1ca8 0a3d 101e 223c 5858 7abd 1c22 ddbd
000002d0: 6c41 453d 9853 bebd 0a63 b93d 3efb 9a3d
000002e0: c8d4 30bd 40db 493d 2047 91bb febe fd3d
000002f0: 34c2 3cbd 829b f9bd fc5d 643d a4b6 e0bd
00000300: d059 493c 26e2 e43d a02a 7fbc 3a47 f53d
00000310: bcba 3a3d e0f8 bcbb 2087 52bc 8c69 f43d
00000320: d227 8b3d 3071 b03c 8817 ae3c b0ed 9dbc
00000330: 0ce9 38bd a6e2 9e3d a898 153d a81d d83c
00000340: c42d 093d 100b 833c aa93 f9bd e0d7 13bc
00000350: c067 303c b493 d0bd a25c fcbd 0899 65bd
00000360: 4819 5e3d 8cad a7bd a8ef 9f3d ea27 f5bd
00000370: 00d6 473a ccb7 ff3d 18f6 ef3c 12ed 97bd
00000380: 2882 e13c 401c d13c e8c2 a83d d09e ffbc
00000390: 6611 db3d 6a5e f1bd a2fe 8e3d 1aa7 a83d
000003a0: 40bc 3abb c6de b2bd 2087 8b3b 8000 fc3c
000003b0: 501e 013d 60d7 233d b233 b7bd 4802 ffbd
000003c0: fa47 ddbd 1c2a 46bd 985e 883c ca0f 913d
000003d0: f819 01bd b812 febc 4469 edbd fe19 e1bd
000003e0: 2080 223d 90e1 5f3c 38e9 a73d aabf eb3d
000003f0: b04f 793d 4258 a4bd b406 9b3d 00cc cc3a

convs.1.convs.<subject___has_region___region>.lin_rel.bias f4 [64]
0.12003866 -0.044819757 -0.100965634 0.0518426 -0.06455977 -0.012297988 -0.09701197 0.0020850152
-0.008925527 0.047001556 0.08464189 -0.07406981 0.11834332 0.117503956 0.050453857 -0.03891541
0.007375151 0.104377955 0.11565654 0.043693185 0.019252792 -0.05282183 0.04704748 0.08592415
0.033909127 -0.061795935 0.00824441 -0.035132542 0.09473097 0.11786616 0.07208674 -0.122922406
-0.01733917 0.08721185 -0.08150782 0.0961138 0.020638913 0.062324658 -0.08689757 -0.06939429
0.05620858 0.02632922 0.023258865 0.09739414 0.09471583 -0.038925037 0.009757593 0.0395153
0.030611306 0.024898201 -0.048405513 0.008526206 -0.11610745 0.11835471 -0.0742982 -0.03293261
0.018880963 -0.009620592 -0.05759485 0.08581889 0.05015698 0.054953396 -0.09811267 0.04769732
00000000: d4d6 f53d ec94 37bd 12c7 cebd e858 543d
00000010: ea37 84bd 807d 49bc 36ae c6bd c0a4 083b
00000020: 603c 12bc b484 403d ba58 ad3d eab1 97bd
00000030: fc5d f23d eaa5 f03d b4a8 4e3d c465 1fbd
00000040: 40ab f13b 1cc4 d53d 56dd ec3d a0f7 323d
00000050: 08b8 9d3c b45b 58bd dcb4 403d 00f9 af3d
00000060: 4ce4 0a3d bc1d 7dbd 9013 073c 24e7 0fbd
00000070: 5002 c23d d063 f13d 36a2 933d bebe fbbd
00000080: e00a 8ebc 209c b23d 92ed a6bd 50d7 c43d
00000090: f012 a93c 2448 7f3d 5af7 b1bd 981e 8ebd
000000a0: f83a 663d 60b0 d73c 6089 be3c 9476 c73d
000000b0: 60fa c13d dc6f 1fbd 50de 1f3c ccda 213d
000000c0: 90c4 fa3c 50f7 cb3c dc44 46bd 80b1 0b3c
000000d0: bec9 edbd f463 f23d a829 98bd 58e4 06bd
000000e0: 40ac 9a3c b09f 1dbc 94e8 6bbd d0c1 af3d
000000f0: 6871 4d3d d016 613d 4cef c8bd 445e 433d
