src/model_fold_5.pth (torch, 201910 bytes, 36 tensors)

convs.0.convs.<subject___has_region___region>.lin_rel.weight f4 [64, 64]
000000 6e 18 b4 3c 00 5c ff bc 10 37 67 bd 4e 75 cf 3d
       0.021984305 -0.031171799 -0.056448996 0.10129796
000010 eb 79 8b bd 3e 83 01 bd 1e 0c b5 3d 76 00 9b 3c
       -0.068103634 -0.031619303 0.08840202 0.018921118
000020 5f 00 c7 3d 3c 94 59 3d 4e 9f a1 bd ed 05 a4 bd
       0.09716868 0.053119883 -0.07891713 -0.08008943
000030 7c fb cb bd fe 36 40 bd a7 4a e8 bd 6b bd e3 3c
       -0.09960076 -0.046927445 -0.11342364 0.027800282
000040 34 ee 66 bd fd 08 39 bd c8 41 31 bd fc 01 b3 bd
       -0.056379512 -0.045174588 -0.043275625 -0.08740613
000050 22 a8 b5 3d 9e eb ad bd e3 d2 86 bc 89 6b 6e bd
       0.088699594 -0.08492206 -0.01645798 -0.058208022
000060 28 f9 a9 ba 0a d7 70 bc be 7a 78 3c 22 f6 8d bd
       -0.0012967931 -0.014699707 0.015165983 -0.06931712
000070 70 83 98 bb 3b 58 9c bd b2 7f d8 bc 80 7e b9 bc
       -0.0046543404 -0.07634016 -0.026428077 -0.022643328
000080 92 8a a2 bd d2 e9 9c 3d c3 2f cb 3d 5c d7 31 3b
       -0.079365864 0.07661785 0.09921219 0.002713642
000090 fa 5d cc bb 9e d3 0d 3c 64 98 05 3d cd 00 80 bb
       -0.006236789 0.0086564105 0.032616034 -0.0039063455
0000a0 5b fd 60 bd 2d 93 3e 3d c4 51 c9 bd 29 40 50 3d
       -0.05492912 0.046527077 -0.09830049 0.050842438
0000b0 70 42 4a 3c e3 4f 29 3d 62 9e fb bc ea c8 67 3d
       0.0123449415 0.04133595 -0.030715171 0.05658809
0000c0 18 60 b1 3d a8 63 bc 3d 65 64 b2 3d 7d 07 b5 bd
       0.086609066 0.091986954 0.08710555 -0.08839319
0000d0 72 60 e3 3d fa 55 66 3c 01 0c a6 3d a5 3d 94 3d
       0.1110238 0.014058584 0.08107758 0.0723832
0000e0 94 c0 a4 bd 0e 2d 8e 3d 1b b8 e1 bc 39 dc 54 3d
       -0.08044544 0.06942187 -0.027553609 0.051967833
0000f0 eb 15 a0 bd c5 9e 71 3d f2 c9 fc bc db 0b 8a 3d
       -0.078166805 0.058989305 -0.030858014 0.067405425
000100 60 02 a4 3c ee a1 9c bd d0 90 9f bc 4c 2e 95 3c
       0.020020664 -0.07648073 -0.019478232 0.018210553
000110 ee b3 5a 3d a0 64 b1 bd df 7a c9 bd cc d3 ac 3b
       0.05339425 -0.08661771 -0.09837889 0.0052742716
000120 06 cd bc bd 76 02 b1 bd a5 3c 1c 3d 50 9d d0 3d
       -0.092187926 -0.086430475 0.038143773 0.10186255
000130 b9 31 ba bd c5 81 c3 bd a2 b5 84 bd 7f 84 55 bd
       -0.09091515 -0.09546236 -0.06479956 -0.05212831
000140 58 c6 61 bd 6b ae b8 bd 29 0f eb 3c 7d 86 a0 bd
       -0.055120796 -0.090176426 0.028693752 -0.078381516
000150 c4 04 a2 3d 5b 8d e3 3d 4c fc 81 bd 6c 20 64 3d
       0.07911065 0.11110946 -0.0634695 0.055694982
000160 23 c4 24 bd 1e 6f 18 3d d4 b9 ed 3c e9 ad ad bc
       -0.040226113 0.037215345 0.029019274 -0.02120109
000170 f9 ba c1 bd 60 c3 5f 3d 27 95 61 3d 70 2b d5 bd
       -0.0945949 0.054629683 0.055073883 -0.10408676
000180 f6 5e 5f 3d a2 6c d6 3d f3 8d 6a bd 1b a6 e0 bd
       0.05453392 0.10469939 -0.05726428 -0.10969182
000190 e3 6c c6 3d 34 d5 aa 3c 4c e1 eb 3d 28 de 31 bd
       0.09688737 0.020853616 0.11517581 -0.043424755
0001a0 bc 3d b0 bd c0 65 53 3c 05 8c cc bd 8b 01 1b 3c
       -0.08605525 0.012902677 -0.09987644 0.009460817
0001b0 6a 1d 74 bb b8 74 33 bd 67 3e 8b bd fa 98 7b bd
       -0.0037248977 -0.043812484 -0.06799012 -0.061425187
0001c0 e8 14 a5 bd e9 55 a4 bc ac 94 f8 3a 2a d1 9a bd
       -0.08060628 -0.020060496 0.0018965206 -0.07559426
0001d0 83 5f f0 bd 36 15 aa 3d ee c6 9b bb 44 12 ef 3d
       -0.117369674 0.08304827 -0.004753939 0.11673406
0001e0 d7 b0 7b 3d fc c7 93 3d 33 4e a9 3d 5d 65 f4 bd
       0.061447944 0.07215878 0.082668684 -0.11933396
0001f0 13 05 c2 bd 4d 6c cf bd 59 95 a2 bc ca 7b 6c 3d
       -0.09473624 -0.101280786 -0.019846605 0.057735242
000200 bf e0 83 bd 41 1d 50 3d 58 6c b1 3d 92 f9 10 be
       -0.06439351 0.05080915 0.08663243 -0.14157704
000210 5c 3e 23 bd 04 bd 85 3d 6c 5b 6a 3d d9 6d 79 bc
       -0.039854392 0.065301925 0.057216093 -0.015223944
000220 ba 80 80 bb 9d 92 a9 bd 22 6e bf 3d be 9e 9b bd
       -0.0039215954 -0.082799174 0.09347178 -0.07598637
000230 13 b3 7b 3d e7 75 13 bd f0 eb 8d 3d b0 18 79 bc
       0.061450075 -0.036001112 0.06929767 -0.01520364
000240 0c c1 cd 3c 74 e8 0b 3b 2b 38 02 3d ad 77 01 3d
       0.025116466 0.002134827 0.031791847 0.031608272
000250 b3 43 be 3d e0 35 7c 3d 7a cf 54 3d 16 dd 29 bd
       0.09290256 0.061574817 0.051955678 -0.04147061
000260 5c 7d fd bd b7 97 59 bd fe d8 27 3d 21 72 87 3d
       -0.12377426 -0.053123202 0.040978424 0.06613565
000270 d1 0f ef bd bd 03 38 3c bf f9 91 3d 94 ce 54 bd
       -0.116729386 0.01123136 0.071277134 -0.05195482
000280 01 22 eb 3d 15 df 85 3d 7d 42 8d 3d b9 57 7b 3c
       0.11481095 0.0653669 0.06897447 0.015340739
000290 56 0f b2 3d 8e 38 40 bd 21 aa 15 3d f8 51 72 bd
       0.08694331 -0.046928935 0.0365392 -0.059160203
0002a0 c0 0f 63 bc fc 87 b0 bd 4a 8a 4b 3d 93 5d 53 3d
       -0.013858736 -0.08619687 0.04969243 0.05160291
0002b0 69 43 bf bd 79 23 59 3d c2 7e a7 3d fc a6 11 bd
       -0.09339029 0.053012345 0.08178474 -0.03555964
0002c0 06 60 ff bb d4 8f c7 3b b4 52 06 3d 4d 2a 6e bd
       -0.0077934293 0.0060901437 0.032793716 -0.05814581
0002d0 21 42 c6 3d ec 82 93 bd 45 fa e1 3c 2b 17 80 bc
       0.09680582 -0.07202706 0.027585158 -0.015636047
0002e0 d8 60 66 3d ea d8 68 bd 9d 8c 97 bd c4 6f a0 bd
       0.0562447 -0.05684749 -0.07399867 -0.078338176
0002f0 23 bc 93 3c 79 bd 5a 3d 2a 44 d0 bb 40 e8 ed 3d
       0.018034047 0.05340335 -0.006355782 0.11616564
000300 34 22 31 bb 0a c3 3b bd 60 71 bd 3a d4 8e 70 3d
       -0.0027028443 -0.0458403 0.0014453344 0.05872996
000310 02 8e 24 3b 9f 52 21 bc eb 8a 3b bd f6 f2 b6 bd
       0.0025109057 -0.009846359 -0.04578678 -0.0893306
000320 bc 2c 2f bb fc 79 82 bd a2 dd e2 3c 60 69 d2 bb
       -0.0026729545 -0.06370923 0.027693573 -0.006421253
000330 1b 65 f3 bc 14 9e 3f 3b c0 52 fa bb 21 d6 b3 bd
       -0.029711297 0.002923851 -0.007639259 -0.08781076
000340 56 5a ad 3d 94 34 62 3d 3e 5e 98 bd bd fa ef 3c
       0.08464496 0.055225924 -0.0743985 0.029294366
000350 bf 33 3e bc f8 2a 83 3d ce ff 5e 3c 9f 61 b6 bd
       -0.011609017 0.0640468 0.013610793 -0.089053385
000360 fa 4a b4 3d 40 e2 5e 3d a7 83 7d bd 30 89 cf bb
       0.08803363 0.054414988 -0.06189313 -0.0063334927
000370 f2 4e 8c 3d f4 51 53 bc 9d 88 e3 3c c0 39 63 3d
       0.06850995 -0.012897957 0.027775103 0.055474997
000380 bc 9c b1 3d d2 32 eb 3c 87 1a 50 3d e6 cc 9c bc
       0.08672473 0.028710756 0.05080655 -0.019140672
000390 54 3e be 3d 35 ba 86 3d 7e dc 3f 3d 20 90 5f bc
       0.09289232 0.06578485 0.046841137 -0.013645202
0003a0 28 2d e0 bc e9 ec 41 bd 23 cd 04 bd d3 a1 81 3c
       -0.027365282 -0.047345076 -0.032422196 0.015824234
0003b0 7c 2c c0 bd 10 b1 8f bd c6 e8 db 3b d9 d6 0d 3d
       -0.09383485 -0.07016194 0.0067110984 0.034628723
0003c0 6f 1b 95 bd 4e d8 6b 3c 39 a5 3a bd e6 fe 75 3b
       -0.07280623 0.014394833 -0.045567725 0.0037535965
0003d0 ec fd 4d bb 8e 33 3f 3d eb d9 80 3b 44 49 ec 3c
       -0.0031431867 0.046680026 0.003932228 0.02884353
0003e0 ba 53 b0 bd d0 ec 70 3d 62 20 e2 3c 81 34 01 bd
       -0.086097196 0.058819592 0.027603332 -0.031544212
0003f0 1f 70 66 3d 80 28 af bc 94 fe ad ba d5 e3 9b 3c
       0.05625927 -0.021381617 -0.0013274723 0.019029537

convs.0.convs.<subject___has_region___region>.lin_rel.bias f4 [64]
000000 e8 c0 2e bd 75 9e c2 3d 84 a9 2a 3d e4 84 f5 3b
       -0.04266444 0.095028795 0.04166557 0.0074926484
000010 db c2 a0 3d 15 6d b7 3b 46 1f a6 3c 34 98 ca bb
       0.07849666 0.0055977204 0.020278584 -0.006182695
000020 f9 b7 4a 3d 98 9a 7a 3d c7 de 8a 3d cd cb c7 bc
       0.049491856 0.06118259 0.06780773 -0.024389172
000030 ae ae c6 bc 02 db 53 3a f9 07 31 3d 27 80 7a bc
       -0.024253216 0.0008081646 0.043220494 -0.015289343
000040 10 5a cd 3a 7e 66 2a bd 1e 28 93 3d 14 75 a4 bb
       0.00156671 -0.04160165 0.07185386 -0.0050188396
000050 4a a2 6c bd f5 da a8 3d 78 e0 db 3c 44 e1 02 bc
       -0.05777196 0.08244888 0.026840433 -0.007988278
000060 62 50 88 bb b1 43 09 bb 14 dc 8a bd 1f 47 0e bd
       -0.004159973 -0.0020944888 -0.06780258 -0.034735795
000070 06 67 83 bc 4e 65 c1 3b f8 00 83 bc de f7 69 3d
       -0.016040336 0.005901969 -0.015991673 0.05712115
000080 f6 82 37 3d 3e fd 7b bc 72 4e 68 3d ca fe 93 bd
       0.04480263 -0.015380202 0.056715436 -0.072263315
000090 ee 53 10 bd 23 5e 86 3d 3b ae ab bd f0 35 aa bd
       -0.03523629 0.06560924 -0.08382841 -0.08311069
0000a0 46 39 c0 3b 01 c1 25 3d 85 7f eb 3c ea 4e 9b bd
       0.0058662025 0.040467266 0.02874733 -0.07583411
0000b0 52 e8 2b 3d 8d 69 76 3b 44 5a 0d 3d 55 af 5b bd
       0.041969605 0.0037599534 0.034509912 -0.053634007
0000c0 ab a6 9e 3d 1e 05 c7 bb 52 25 99 3d f4 a5 b8 3d
       0.07746633 -0.006073608 0.074778214 0.09016028
0000d0 88 60 99 b9 aa d8 af 3d fb aa 34 3d 64 5a 72 bd
       -0.00029254355 0.08586247 0.044108372 -0.059168234
0000e0 66 04 b3 bd 72 bd b2 3d b3 1d a6 3d d8 78 f1 bb
       -0.08741073 0.0872754 0.081111334 -0.007369142
0000f0 ab e5 4a 3c 08 80 91 bd 2a 94 38 3d 82 dd c0 3d
       0.012383859 -0.07104498 0.045063175 0.09417249

convs.0.convs.<subject___has_region___region>.lin_root.weight f4 [64, 64]
000000 f6 1c 55 bd 1c a0 12 3d 52 bb 4a 3d d9 90 79 bd
       -0.052029572 0.035797223 0.04949505 -0.060929153
000010 e9 3a 35 3c 25 9c e8 bc f0 b4 9d 3d b5 f4 9d 3d
       0.011061409 -0.028394768 0.07700527 0.0771269
000020 4c bd 7e bb c5 ea 94 bd 9c b4 43 bd 04 be 31 3c
       -0.0038870154 -0.07271341 -0.047779664 0.010848526
000030 16 75 0f bd f7 d0 5d ba 44 02 d4 3a c0 c1 3e 3c
       -0.03502377 -0.0008461619 0.0016174992 0.011642873
000040 67 2d f1 3c eb cd 53 3d 08 90 ce 3a a7 e2 ac 3c
       0.029440595 0.05171005 0.0015759477 0.02110417
000050 8b b7 59 3d 0c 18 e0 bc dc 3f 80 bd 82 d0 64 bd
       0.053153556 -0.027355216 -0.0626218 -0.05586291
000060 23 e8 e6 bc 6c 47 be bd 7e ff 90 3d 79 35 ab 3d
       -0.028186863 -0.092909664 0.07079981 0.083598085
000070 54 42 8e 3c bd 20 ca bd 5a 12 f8 3c e3 24 86 bd
       0.017365612 -0.098695256 0.030282188 -0.06550004
000080 1e c8 e4 3c f5 48 f8 3b be ae 5b 3d 5c ae 61 3d
       0.027927455 0.0075770565 0.053633444 0.055097923
000090 9e 4d 0a 3d f5 bf 45 bc c3 e6 5d bd 81 32 35 3d
       0.033765428 -0.012069692 -0.05417515 0.044237617
0000a0 81 a9 cb 3c 60 0d 80 bc b5 07 27 bd bf eb fe 3c
       0.0248611 -0.015631378 -0.040778834 0.031118272
0000b0 6a 2a d8 3d 55 05 10 3d a4 84 74 3d e6 81 03 bc
       0.10554965 0.035161335 0.05969681 -0.008026576
0000c0 7c 28 87 bd 48 80 b1 bd 14 44 cd 3c 17 c7 9f bd
       -0.06599519 -0.08667046 0.025056876 -0.07801645
0000d0 75 11 1a bd ce 79 9c 3d 50 65 28 bd 2b 28 a9 3d
       -0.037614305 0.0764042 -0.041112244 0.082596146
0000e0 3a 5b f6 bd bb e1 91 3d 6e b4 be bc 05 35 e0 3b
       -0.12029119 0.07123133 -0.023279395 0.006842258
0000f0 d4 95 85 bd 01 28 3c bd 83 5a b0 bd f1 96 6f bd
       -0.06522718 -0.04593659 -0.08611014 -0.05849356
000100 7b 58 14 bc 12 38 20 3d 56 f2 97 bc de 5a ab bb
       -0.0090542985 0.039115973 -0.018548172 -0.005229338
000110 8e 84 1d 3d 55 78 68 3d 70 8b f0 3c 25 ca a6 bd
       0.038456492 0.056755383 0.029363364 -0.08144025
000120 ab 6a cf 3c 4f 9c c7 3d b6 45 46 3c 46 c8 64 bd
       0.025319418 0.097466104 0.012101581 -0.055855058
000130 da 4e 4e 3c d8 38 dc bc ce 66 6e bd a7 19 d4 bd
       0.012592042 -0.026882574 -0.05820351 -0.10356455
000140 ea f8 b3 bd 7b f0 1c bd f7 ae 4d 3d 26 3b 8e bd
       -0.08787711 -0.038315278 0.050215688 -0.069448754
000150 03 53 64 3c 80 67 ab bd 96 f4 92 3d 53 bc e0 bd
       0.013935807 -0.083693504 0.07175557 -0.1097342
000160 8d af 66 bc 6a c8 48 3d 8e 55 83 bd 40 14 37 b9
       -0.0140799405 0.049019255 -0.06412803 -0.00017459784
000170 e3 22 cc bd cc ae 78 3d 7f 93 17 3d 8c 00 33 3d
       -0.099675916 0.060713574 0.037005898 0.043701693
000180 78 b1 30 bd 9e 16 46 bc 72 05 d0 3b 02 5b 78 3c
       -0.043137997 -0.012090353 0.0063483054 0.015158417
000190 32 24 b8 3d ae c8 d1 3d ad 13 d5 bc 62 f4 ca bc
       0.08991279 0.10243355 -0.026010359 -0.024774734
0001a0 3b d9 cb 3d 2b 3d 72 bc 50 72 85 3d 0a da c5 3c
       0.09953543 -0.014785091 0.06515944 0.02415182
0001b0 cb 62 96 bd 66 75 8d bd b5 f1 ff bc d6 a2 c4 bd
       -0.07343062 -0.069071576 -0.031243185 -0.09601371
0001c0 c6 12 ad bd 04 44 a3 bd 0e 0f 96 3c 04 3a d4 bd
       -0.084508464 -0.07971957 0.018317726 -0.10362628
0001d0 f2 8a 62 bc 6c bb 87 bc 26 29 4e bd 84 ea b2 3d
       -0.013827072 -0.016568862 -0.05033221 0.087361366
0001e0 3e 8a 85 3d 19 fc 92 bc f7 34 a4 3d d9 18 ab bd
       0.06520508 -0.017942475 0.08017915 -0.08354349
0001f0 e2 c7 fd 3c a2 66 ad bd 71 ba 8f 3d b8 f7 0b 3d
       0.0309791 -0.08466841 0.07017983 0.03417179
000200 d1 d5 51 bd 44 df 74 bd fd f1 dd bd f0 03 ae bd
       -0.0512293 -0.059783235 -0.10837171 -0.08496845
000210 72 a9 69 bd 70 89 8a bd f2 10 2f bc 4b 9c b6 bc
       -0.05704636 -0.067644954 -0.010685192 -0.022291323
000220 7a 8d d7 3d f7 c7 6d bd f8 3d c7 3d ca 11 54 3d
       0.105250314 -0.05805203 0.097286165 0.051774777
000230 1d a9 90 3c 07 a5 4e bd 82 7f a8 bc ec f8 82 3d
       0.017658764 -0.05045035 -0.020568613 0.06395134
000240 f2 4d ed bc e7 aa 5c bc 17 29 df bd a2 62 a7 bd
       -0.028967831 -0.013468481 -0.10896509 -0.081731096
000250 20 0f fb 3d d4 01 21 3d 5d 23 95 3c c7 b4 eb 3c
       0.12258744 0.039308384 0.01820534 0.028772725
000260 7e 99 85 bb ca 9f 18 3d 99 78 8f 3d 78 5f cb bd
       -0.0040771356 0.03726176 0.07005424 -0.099303186
000270 77 d4 aa 3d bb 55 81 bd 10 81 a8 bc 64 ac 47 bd
       0.08341306 -0.0631518 -0.020569354 -0.04874839
000280 c2 7b b2 bd f8 0f 5c bd 96 1a da bb 09 8f 73 3d
       -0.08715011 -0.053726166 -0.0066560013 0.05946258
000290 fd 1a c2 bc f2 cd ab 3d bf 79 4d bc 13 41 3f bd
       -0.02369451 0.0838889 -0.012541234 -0.04669292
0002a0 a8 fe 8b bb cc d4 db bd 8c eb e5 bc 3d c8 63 3d
       -0.0042723008 -0.10733947 -0.028066419 0.055610884
0002b0 10 aa bd 3d b2 36 1a 3d ab 07 b7 bd 71 e6 bf bd
       0.092609525 0.037649818 -0.089370094 -0.09370125
0002c0 00 9b 73 bc 37 44 5a 3d 82 c2 e1 3d 44 f7 53 bd
       -0.014868498 0.05328771 0.110234275 -0.051749483
0002d0 ba 52 10 bd 5e 40 61 3b 7e 7a f6 bc 36 a4 79 3c
       -0.035235144 0.0034370641 -0.030087706 0.015236905
0002e0 e8 68 00 3d 6f dc dd 3b 05 c6 bf bd c4 03 41 3c
       0.031350046 0.0067706625 -0.09363941 0.011780683
0002f0 0a ed c7 bd 14 1c 43 bd 4f c6 e5 3c dd dc 9c 3d
       -0.097620085 -0.0476342 0.028048662 0.07659314
000300 02 f2 58 3d 81 97 29 3c a7 bc 80 3d 8f 9b f2 3d
       0.05296517 0.010351063 0.062859826 0.11846077
000310 cf c8 99 3c 81 24 0f 3d 5e 3f f0 bb 20 67 0d 3c
       0.01877251 0.034946922 -0.0073317727 0.008630544
000320 11 bb c4 bc 09 87 e4 3c 43 23 7e bc 6b 39 10 bd
       -0.024014981 0.027896421 -0.015511337 -0.035211008
000330 7a c9 dd 3c c0 07 ad 3d 5e b8 1a bd 9d 73 50 bd
       0.02707361 0.08448744 -0.037773483 -0.050891507
000340 28 b3 80 bc 08 89 73 bb c2 82 95 3d b2 08 77 3d
       -0.015710428 -0.0037160534 0.07300331 0.060311027
000350 ed 2a c2 bc 33 c1 97 3d 0d 4a ed 3d e4 ec 28 bd
       -0.02370211 0.07409897 0.1158639 -0.04124154
000360 9d 97 65 3d ea 98 c0 bd bd bc 54 bd 34 1f a9 bc
       0.056052793 -0.09404166 -0.051937807 -0.020644762
000370 60 48 a2 3d 50 4b bf 3d fb e4 c5 bd fc fd 03 3b
       0.07923961 0.093405366 -0.09662815 0.00201404
000380 39 c8 b4 3d ee 9b 87 3d ac d6 89 bd 32 d1 aa 3d
       0.08827252 0.06621538 -0.067303985 0.08340682
000390 a7 00 47 bd 8c 21 70 3c ed ce 85 3d e7 8f 0a bd
       -0.048584606 0.014656436 0.065336086 -0.033828642
0003a0 0e 0f 88 bb 71 fe 1d 3d 05 b9 82 3d cc 92 c1 bc
       -0.0041521853 0.038572732 0.06382946 -0.023629569
0003b0 00 e1 fc 3b d9 c8 b6 3d b8 1f 9c bc 1c 42 36 bd
       0.007717252 0.089250274 -0.019058093 -0.04449664
0003c0 fe 40 b0 bd 05 72 94 bd 7b 18 b7 3b 76 13 6d bd
       -0.08606146 -0.0724831 0.005587635 -0.057879888
0003d0 45 d9 c4 3d fd ca 7e bd 20 31 40 bc 1e 20 a2 3d
       0.096117534 -0.062205303 -0.011730462 0.07916282
0003e0 35 58 b9 bd 3a 96 91 3c 38 7f cf 3d 04 aa 46 3d
       -0.09050027 0.017771829 0.10131687 0.048501983
0003f0 ec f1 63 3d 96 4b 1a 3d 4a de 3f bd 9c a4 c1 bd
       0.055650637 0.03766974 -0.04684285 -0.09455225

convs.0.convs.<region___rev_has_region___subject>.lin_rel.weight f4 [64, 64]
000000 11 e0 21 3c 60 fd 03 bd 4a 2f ac bd 5d db 77 bd
       0.009880082 -0.03222406 -0.08407457 -0.060511936
000010 24 81 69 bd c5 59 b1 bd 24 ce 81 3d 49 1c 8f 3d
       -0.057007924 -0.086597 0.06338146 0.06987817
000020 22 2e 80 3d be e7 7c 3d f0 fa 37 3a 71 66 fb bc
       0.06258799 0.061744444 0.00070182886 -0.030688496
000030 43 69 d3 bc 98 52 11 bc 48 88 6a 3d a4 c6 34 bd
       -0.025807029 -0.00886979 0.057258874 -0.04413475
000040 de 5e 33 3d f2 31 72 bd 17 c2 4a bd 00 3e 63 38
       0.043791644 -0.059129663 -0.049501505 5.417876e-05
000050 14 3d a7 bc f4 a6 6f bc ed 9b d2 3c df dd b4 3c
       -0.020414867 -0.014627207 0.025709117 0.022078453
000060 be 60 85 3c d4 c1 e5 bb 39 1a 9d 3d 04 56 af bd
       0.016281482 -0.0070116315 0.07671017 -0.08561328
000070 2a f6 b4 bd 36 75 03 bc 5e b2 bb bd c5 f0 b6 3b
       -0.088360146 -0.008023551 -0.0916488 0.005582901
000080 6f 82 2a bd ac 9e b3 bb 1e 4d a4 3d 0a 83 d9 3b
       -0.041628297 -0.0054815616 0.080225214 0.0066379355
000090 1e 5f c2 bd 43 e6 46 3d 13 78 51 3d 4c 1a e0 3a
       -0.094907984 0.04855944 0.051139902 0.0017097681
0000a0 2e d8 87 bb c3 96 9c bd 0c d4 44 bb de 58 8e bc
       -0.0041456437 -0.07645943 -0.0030033616 -0.01737636
0000b0 de a9 b4 bd b7 48 5f 3d 91 55 59 bd c0 c5 0e bd
       -0.08821462 0.054512706 -0.053060118 -0.034856558
0000c0 1d d8 89 3d 3a a0 fb 3c 59 95 91 3d 66 fd 92 ba
       0.067306735 0.03071605 0.07108564 -0.0011214435
0000d0 fb 11 d0 3b 60 20 af ba b6 98 f9 bc 48 b9 03 bc
       0.0063497997 -0.0013361089 -0.030468326 -0.00803978
0000e0 33 50 b6 bd 1c 61 e2 bc 85 20 b3 bd 34 90 5c bd
       -0.089020155 -0.027634196 -0.08746437 -0.05384846
0000f0 11 80 f3 bb c3 f4 ff bc c9 74 21 3d ec 77 fb 3c
       -0.007431038 -0.031244641 0.039418016 0.030696832
000100 ea e4 b0 3b a4 79 b9 bd c9 aa fc 3b 64 b6 94 3d
       0.0053983824 -0.09056404 0.007710789 0.07261351
000110 a1 4e 41 3d e8 8f fc ba 69 84 a6 bd 44 7f 30 bb
       0.047194127 -0.0019268962 -0.08130724 -0.0026931325
000120 fc 77 9d 3d 5a 7d 68 bd 6f dd a8 bd 39 bc 2b 3d
       0.07688901 -0.05676017 -0.0824536 0.04192755
000130 90 13 6e bb 7f 98 bc 3d f7 53 fc bc 65 25 62 bc
       -0.0036327578 0.09208774 -0.030801756 -0.013802861
000140 02 5b 3a 3b fa 91 7a bb 80 47 55 3c 9a dd 8c bd
       0.0028435593 -0.0038233981 0.013017535 -0.06878205
000150 71 c6 3d bc cb 3b 07 3d 90 05 4b bd 58 4b 21 ba
       -0.011582957 0.033016007 -0.04956585 -0.00061528897
000160 79 e4 02 bc a6 22 40 3d 72 11 6a bd 08 fb e3 3b
       -0.007989042 0.046908043 -0.057145543 0.0069574155
000170 56 1e be bb e9 4d bc 3d 2a b2 a8 bc 80 4a 4d 3c
       -0.005801956 0.09194548 -0.020592768 0.012529969
000180 b5 02 91 3d 84 01 f0 3c 76 a1 65 bd f4 d9 00 bc
       0.070805945 0.029297598 -0.056062184 -0.007864464
000190 a8 fe a1 bc 8f 64 68 3c 72 4d 9a 3b d9 a7 c8 3b
       -0.01977475 0.014184131 0.004708939 0.0061235246
0001a0 ef fe 58 bd 3e 36 6a 3d 32 7d 4d 3d ac c0 d9 bc
       -0.0529775 0.057180636 0.050168224 -0.02658113
0001b0 52 76 da 3b f6 4a fb 3b 44 a1 95 3d 28 43 a5 3d
       0.006666937 0.007668848 0.073061496 0.0806945
0001c0 e9 9a b6 3d d3 04 ac bd 2c 1f 74 bb 07 81 14 bd
       0.089162655 -0.08399358 -0.0037250025 -0.036255863
0001d0 07 c4 04 3d 08 7e 72 bd 21 c2 b6 bd 6a 62 84 3d
       0.03241351 -0.059202224 -0.08923746 0.064640835
0001e0 1a 80 3f 3c cb 50 f6 3b f9 8f db 3b 75 5d c0 bd
       0.011688257 0.0075169555 0.0067005125 -0.093928255
0001f0 cc c7 ed bc 16 fe 3a 3d a5 ab 8a bd f0 2c 16 bb
       -0.029025935 0.04565247 -0.0677102 -0.0022914968
000200 c6 e6 94 3d ab ea 8e bd 1f 09 f5 3c 50 ac 41 3d
       0.07270579 -0.06978353 0.029911576 0.04728347
000210 80 aa dd ba c6 69 a7 bd 70 59 6e 3d 62 d2 4e 3d
       -0.0016911775 -0.081744716 0.058190763 0.050493605
000220 b6 0f 13 bd d4 57 ec 3b 7c b5 92 bd 42 38 97 bd
       -0.035903655 0.0072126184 -0.07163522 -0.07383777
000230 ef ec b4 3d e0 08 53 3d 50 98 7b bd d0 9c f5 bd
       0.08834254 0.051522136 -0.061424553 -0.119928
000240 06 df 99 3d a7 fc 2e bd fc e8 c2 3c 1c 4c f9 bc
       0.075132415 -0.042721417 0.023792736 -0.0304318
000250 80 11 e7 bd c0 f6 97 bd 76 2b e6 3c 7a 3e 4e 3c
       -0.11282635 -0.07420111 0.028096896 0.012588138
000260 d3 55 3b 3d 88 c4 37 bb 23 6a b7 bd d3 9b 8f bd
       0.045736145 -0.0028040726 -0.08955791 -0.07012143
000270 45 d8 a3 bd 18 89 03 3c 47 ea 88 bd 6c f9 78 3d
       -0.080002345 0.008028291 -0.0668531 0.060784742
000280 88 ae a1 3d a7 c8 92 bd 15 b1 f1 3c e2 30 a9 bd
       0.07894617 -0.07167178 0.029503385 -0.08261277
000290 04 a8 4b bd da 0c 92 3d eb c3 eb bc 28 0c 8a bc
       -0.04972078 0.071313575 -0.028779944 -0.0168515
0002a0 f6 7e 46 bb d8 5b 94 bd 77 d4 a9 3d 33 12 a3 3d
       -0.0030288077 -0.0724408 0.082924776 0.079624556
0002b0 4d b5 66 3d 64 42 46 bd 50 a5 95 bd ba 70 86 3d
       0.056325246 -0.04840316 -0.073069215 0.0656447
0002c0 dd 92 e1 bd 3a a8 b7 bd 40 de 9b 38 3b 71 b7 bd
       -0.1101434 -0.089676335 7.432373e-05 -0.08957144
0002d0 9f 1a 0e 3d 6d af 2e 3d 88 c9 ac bc e9 27 95 3d
       0.034693357 0.042647768 -0.021092191 0.07283003
0002e0 50 5a ee 3d b1 75 3a bd 7c ef 91 bd 53 62 b4 bd
       0.116383195 -0.045522396 -0.07125756 -0.08807816
0002f0 b0 2e 25 bb fe da 30 3b ff af a8 bd 34 f1 20 3c
       -0.002520483 0.0026985998 -0.082366936 0.009823132
000300 6d 82 a4 3d 22 cf 80 3d fe be 67 3c 0a 7b a7 3d
       0.08032689 0.062895074 0.014144657 0.08177765
000310 dc aa 23 3c b9 aa 0e 3c c0 69 5d 3d e6 6b 8d 3c
       0.0099894665 0.008707696 0.05405593 0.017263364
000320 2c a6 9d 3d 43 72 8f bd fc 94 52 bd 80 23 7c bc
       0.076977104 -0.070042156 -0.051411614 -0.015389323
000330 9e 28 0e 3d ae 2e bf bb fb 1a a7 3d 81 5f 3d 3d
       0.034706704 -0.005834422 0.08159443 0.046233658
000340 f8 af 51 bc 63 3d 86 bd b8 fd ed bb 4c 50 9c 3d
       -0.012798302 -0.06554677 -0.0072629116 0.07632503
000350 de e6 bf 3d 4e 5b 5f bc c3 78 4f 3c 3a 81 94 bd
       0.09370206 -0.013632609 0.012663069 -0.072512105
000360 f7 1b ab 3d 06 7f b8 3b 64 e8 d9 3c 64 a4 a8 3d
       0.08354943 0.0056303767 0.02660007 0.0823448
000370 59 f2 06 bd be a7 a9 3d 4f 88 31 3d 90 16 8e bd
       -0.032945964 0.082839474 0.043342885 -0.06937897
000380 c5 09 e5 3c ee de 3d 3d f2 56 04 3d 59 53 39 3c
       0.02795876 0.04635518 0.03230948 0.011311376
000390 39 69 95 3d b0 a4 2e bd ae 0c 0f bd c8 97 77 3d
       0.0729546 -0.042637527 -0.0349242 0.060447484
0003a0 38 21 4b 3d 30 46 a9 bd cb b4 57 bc 35 82 f2 bc
       0.049592227 -0.0826534 -0.013165663 -0.029603103
0003b0 49 3e 47 bd 48 a1 71 3d 8c a6 4b bc f7 30 9e bd
       -0.048643384 0.0589917 -0.012429845 -0.07724183
0003c0 d6 b8 c3 3d 54 4f b5 bd 2d 97 7f bd 7a 1e bd bd
       0.09556739 -0.08853021 -0.06240003 -0.092343286
0003d0 cc f7 33 bd ff 4d 17 bc d4 60 87 3d da 6a 3f 3d
       -0.04393749 -0.009234904 0.066102654 0.04673276
0003e0 1f 64 c4 3d d8 cb 5e bd 6b 29 9d bd de 32 7f bd
       0.09589409 -0.05439362 -0.076739155 -0.06230437
0003f0 35 1f 82 bd e8 6e be 3d 35 eb 2c 3d bb 46 8c 3d
       -0.063536085 0.092984974 0.0422165 0.06849428

convs.0.convs.<region___rev_has_region___subject>.lin_rel.bias f4 [64]
000000 aa 11 01 bd 35 ea 9f bd 57 31 93 3d 5b 04 43 3d
       -0.031510986 -0.07808343 0.07187145 0.047611576
000010 d0 e3 14 3d 9e 12 67 3d 3d e8 86 3b 78 93 70 3a
       0.03635007 0.05641424 0.0041170404 0.0009177248
000020 f8 3f 0d bb a5 fd 8a 3d 75 f4 92 bc 00 65 0c 39
       -0.002155302 0.0678666 -0.017938832 0.00013389066
000030 e9 57 97 bc 44 00 b3 bd f0 b8 1e bb b0 6d 3f bd
       -0.018474536 -0.08740285 -0.0024219118 -0.046735466
000040 f0 65 a5 bd 50 89 65 3c 82 0f 88 bd 8d 13 f0 3b
       -0.08076084 0.014009789 -0.06643583 0.0073265494
000050 ee 41 eb ba aa 7b 83 3d 37 57 83 bb a8 b9 3e ba
       -0.0017948726 0.064200714 -0.0040081996 -0.000727559
000060 b0 da ca 3c 8d 17 9f bd a5 07 fa 3b 7e c2 71 bb
       0.024762481 -0.07768164 0.007630306 -0.0036889608
000070 d1 f2 44 bc c5 14 ad 3d 6a cc 46 3d 70 96 7f 3c
       -0.012020783 0.08451227 0.04853479 0.015599832
000080 24 1e 91 bd 16 6d 16 3d f0 85 b3 3b 2c 05 3f 3d
       -0.07085827 0.036725126 0.005478613 0.04663579
000090 eb 78 3a bd f1 96 ea 3c c0 1f 1e 39 d0 63 24 3d
       -0.045525473 0.028636428 0.00015079882 0.04013425
0000a0 66 e4 a3 3c 6a 9b 7c 3b 09 85 ba bd 8e 2e a1 3d
       0.02000637 0.0038544782 -0.09107406 0.07870208
0000b0 74 85 bd 3d 72 08 0a 3d 8b d7 80 bc d3 fd 98 bc
       0.0925397 0.03369946 -0.015727779 -0.01867572
0000c0 40 b6 c1 3d 04 16 a6 bb 46 45 6f bd a8 38 93 3d
       0.094585896 -0.0050685424 -0.058415674 0.07188541
0000d0 94 87 48 bb ce 90 6e bd b0 ce 93 3c 48 38 2b 3d
       -0.003059839 -0.058243565 0.018042892 0.04180172
0000e0 91 6c 49 3b 74 ee 98 3d 02 5f 64 3c 99 e1 a7 3c
       0.0030734877 0.07467356 0.013938667 0.020493316
0000f0 e0 39 99 bb f5 38 a4 bd 05 79 a8 3d 07 14 ab bd
       -0.0046760887 -0.08018676 0.08226208 -0.08353429

convs.0.convs.<region___rev_has_region___subject>.lin_root.weight f4 [64, 64]
000000 e4 1a ca 3d e1 1f c4 bd de c9 58 3c cb d4 db bc
       0.0986841 -0.09576393 0.013231723 -0.026834866
000010 4e 42 2c bd 36 95 56 bd 37 6b d3 3c 27 26 ee 3b
       -0.04205542 -0.052388392 0.02580796 0.0072677317
000020 34 22 71 bd fb c4 99 3d 90 92 b8 3b 85 d9 87 bd
       -0.05887051 0.07508274 0.005632706 -0.066332854
000030 ad b4 f1 3d 14 59 a2 bd 87 77 b3 3d 62 22 b2 bd
       0.11802039 -0.079271466 0.087630324 -0.08697964
000040 36 b7 57 3d ae c7 5c 3d 84 08 ce 3d 24 55 9a bd
       0.052664958 0.053901367 0.10060218 -0.075357705
000050 b0 a2 62 bb 4c 06 a0 3c bb 21 14 bd 97 70 ba bd
       -0.0034581833 0.019534253 -0.03616498 -0.09103506
000060 3a 21 cf 3c 61 df 15 3e 42 ba d9 bc 80 75 e6 3a
       0.025284398 0.14635994 -0.026578072 0.0017582625
000070 50 9a 7c bd 77 b8 26 bd f4 38 60 bd 88 41 9d 3d
       -0.0616706 -0.040703263 -0.054741815 0.07678515
000080 9b 99 b9 3c a4 27 2d 3c 41 5f 8f 3c 70 f8 51 bd
       0.022656253 0.010568533 0.017501475 -0.05126232
000090 2c c6 a9 bc 45 91 ea 3c ea 7a 0f 3c 46 8b cb bc
       -0.020724379 0.028633723 0.008757332 -0.024846684
0000a0 8b 42 75 3d 54 30 d8 bb 78 e7 1e bd 76 b9 24 bd
       0.059877913 -0.006597558 -0.038794965 -0.04021593
0000b0 1c a1 bd 3c 5e 3a 73 bc 0b ae 83 bd c0 d8 c3 3d
       0.023148112 -0.014845459 -0.064296804 0.09562826
0000c0 f9 2b 9f bd b8 3e 09 3d c2 32 db bd 2e 65 c2 bd
       -0.07772059 0.03350708 -0.10703041 -0.09491955
0000d0 df 95 e9 3c b1 0c f5 bd 44 31 c6 3d ed 08 e4 bd
       0.028513847 -0.11965311 0.096773654 -0.11134515
0000e0 4e 8c a5 bd 59 03 e8 3b d4 64 65 3d fc 02 16 bd
       -0.080834016 0.007080477 0.05600436 -0.03662394
0000f0 fd 79 14 be 25 71 01 bd 0f 91 50 3d ee 4d 8f 3c
       -0.1449966 -0.031602044 0.05091959 0.017493214
000100 c4 94 f7 bb 4c ca f1 3d 1f 0e 33 3d 48 21 09 be
       -0.007555576 0.11806163 0.04371464 -0.13391602
000110 a4 e2 b7 3c 19 3b 0c bd 0c 64 08 be bc 51 c2 3b
       0.022446938 -0.034236047 -0.13319415 0.0059301537
000120 bc 59 ca 3d bd 95 a8 bd 1e 30 1a 3e d6 ab 29 bd
       0.09880397 -0.08231685 0.15057418 -0.04142364
000130 08 10 02 bd 89 3b dc bd f2 70 a7 bc af ca bd bc
       -0.03175357 -0.10753543 -0.020439599 -0.023167936
000140 d9 c6 9e bc d2 34 39 3b 25 46 e4 3d 9e 98 c4 3d
       -0.019381927 0.0028260243 0.111461915 0.09599422
000150 ff 39 ca bc e7 a9 a7 3d 14 bd 5d bd fb 68 bc bd
       -0.024685858 0.08186703 -0.054135397 -0.09199711
000160 de 5d a9 bc 90 88 6b bd aa aa a3 3d 25 c3 ab 3d
       -0.020674642 -0.057503283 0.07991536 0.0838683
000170 78 36 88 bd 20 48 52 ba ad 78 18 3e e0 f3 2d bd
       -0.06651014 -0.0008021612 0.14889784 -0.042468905
000180 52 a7 38 bd 71 67 98 bd 7c a3 e3 bc cf a4 91 bd
       -0.045081444 -0.07441605 -0.027787916 -0.07111513
000190 f4 40 a6 3d 51 66 dc bd 1a 36 f9 bd 12 97 88 bd
       0.081178576 -0.10761703 -0.12168522 -0.066694394
0001a0 92 35 a6 bc 9d 94 b4 3d b8 06 8d 3d 05 28 db bd
       -0.020289216 0.08817408 0.06886047 -0.107009925
0001b0 23 63 2b 3d ac d3 7d 3d 4b f3 09 bd 65 84 a5 bd
       0.04184259 0.061969444 -0.033679288 -0.08081893
0001c0 50 4c e3 3d d1 60 f9 3d 6e 75 49 3d b2 11 c5 bd
       0.1109854 0.121766694 0.049184255 -0.09622516
0001d0 40 b0 f2 3d 56 ab b2 bd a6 ac 8d bc 68 5b 17 bd
       0.11850023 -0.08724086 -0.01729424 -0.036952406
0001e0 58 40 c0 bd 82 30 5e 3d 17 19 cd 3d 60 1f 30 3d
       -0.093872726 0.05424548 0.10014551 0.04299867
0001f0 1c c3 a4 bd bf 02 23 bd 34 d0 71 bd 20 5f 15 3d
       -0.08045027 -0.03979754 -0.05903645 0.03646767
000200 a6 29 bd 3d cd ff da 3d 70 20 2f 3c a9 82 85 3d
       0.092364594 0.106933214 0.010688886 0.06519062
000210 86 82 0a 3c c4 0a fd 3d 2a a9 be 3d 95 ab c0 3d
       0.008453971 0.12355569 0.09309609 0.09407727
000220 bc 89 d6 bc be 5c ea bd 8f 87 a7 3d 32 27 96 bd
       -0.026188724 -0.114434704 0.081801526 -0.07331695
000230 ba ed 35 3d a7 78 c6 3d 71 f1 18 be bf ee 84 bd
       0.044416167 0.09690981 -0.14935853 -0.0649085
000240 9c 16 e5 bd c5 0f 67 bd 5c 80 a2 3c 22 80 21 3d
       -0.11185953 -0.056411523 0.019836597 0.039428838
000250 2d 14 6f 3d d0 4d 96 3d 0e 55 7c bd e1 02 9b 3d
       0.05836885 0.0733906 -0.061604552 0.075689085
000260 d8 f1 9c bd 8b 4b b1 3d 58 58 a0 bd 1e dc e9 ba
       -0.076633155 0.08656987 -0.0782935 -0.0017842089
000270 2c 73 c1 3d 23 cf 9a 3d d4 21 04 3d 00 5e ef 3d
       0.094457954 0.075590394 0.032258824 0.11687851
000280 e1 eb 91 3d 80 b2 1d bd 25 3f a9 3d a2 3c 48 bb
       0.071250685 -0.03850031 0.08263997 -0.0030553718
000290 60 ca da 3d ae de 15 be 67 85 e3 bd 17 bd f0 bd
       0.10683131 -0.14635727 -0.11109429 -0.11754816
0002a0 3c 6c 82 3c c7 67 d3 3d 82 e3 83 3c d7 b6 12 be
       0.01592075 0.10322528 0.016099695 -0.1432756
0002b0 93 9b 1b bd 97 c0 dc 3d dc 23 03 3e e7 0e 17 be
       -0.037990164 0.10778921 0.12806648 -0.14751779
0002c0 4e 2f f8 3d 1e 2d 9a bd 32 b0 c7 bd b3 c3 f0 bb
       0.12118398 -0.07528137 -0.097504035 -0.007347548
0002d0 aa 9b ef 3d 18 40 08 be 03 be b0 3d 6a c0 06 bd
       0.116996124 -0.133057 0.08629992 -0.032898344
0002e0 04 b9 83 3d 99 60 c9 bd 86 18 96 3d 3c d0 bc bd
       0.06431773 -0.09832878 0.07328896 -0.09219405
0002f0 5e ee 0c 3e 30 0b ef 3d 86 d0 b9 3c a7 2f cc 3d
       0.13762805 0.11672056 0.02268244 0.099700265
000300 de aa 96 bd 99 1b 8c bd 36 d9 97 3d 8d 05 f2 3d
       -0.07356809 -0.06841201 0.074144766 0.11817465
000310 f8 b4 03 3e 5c de 36 3b 27 42 2b bd 2d c0 d8 3d
       0.12862003 0.0027903533 -0.041811135 0.105835296
000320 3b 3b bd bd 00 88 5d bd e3 c5 e0 bd 0a 05 14 bc
       -0.09239813 -0.054084778 -0.10975244 -0.0090344045
000330 bd e2 e9 3c 0f a7 bb bd fa 06 cc 3d e9 24 82 3d
       0.0285505 -0.09162723 0.09962268 0.06354696
000340 c6 7c 97 3d 5b 20 fd bd 8b 20 ed 3c 44 49 f9 bd
       0.073968455 -0.12359687 0.028946182 -0.121721774
000350 8b 6b cc 3c 06 66 0d 3c 7c 44 d4 bd d0 69 cc 3b
       0.024953624 0.008630281 -0.10364625 0.0062382
000360 c8 4a 95 bd 52 61 fd 3d c4 f0 5d bc d7 f9 87 bb
       -0.07289654 0.12372078 -0.0135461725 -0.0041496563
000370 7c 79 3f 3d 0b 45 10 bc a6 3e b7 3d 10 dc 2f 3d
       0.046746716 -0.008805524 0.08947496 0.042934477
000380 12 10 4c bd 93 db 00 be 69 96 3c bd 78 1e a4 bd
       -0.049820013 -0.12583761 -0.04604188 -0.08013624
000390 b1 27 9d 3d d6 f7 65 bd c6 2b b4 bd a0 94 20 bd
       0.07673586 -0.056144558 -0.087974116 -0.03920424
0003a0 77 3f b9 bc 4c 91 b2 3c 37 b5 11 bd 37 93 70 3d
       -0.02261327 0.021797799 -0.03557321 0.058734145
0003b0 98 19 4f bc 0a f0 64 3d 61 e6 54 3d c0 1f 53 bd
       -0.012640379 0.05589298 0.05197752 -0.05154395
0003c0 fa 12 24 bc 4a 2c cf bd 2a b4 f6 3d ac 08 4b ba
       -0.01001429 -0.10115869 0.12046082 -0.00077451277
0003d0 e6 83 9c bd 53 a8 63 bd 65 88 c6 bc a5 6c f3 bd
       -0.07642345 -0.05558045 -0.02423496 -0.11885957
0003e0 3f 24 b1 bd 4a ea c1 3d b6 9b 12 be 9b 30 cd bd
       -0.086494915 0.09468515 -0.14317212 -0.100190364
0003f0 2e 59 32 bb ed 5e c9 bd d2 1d 4a 3d ae fa ca bc
       -0.00272138 -0.09832559 0.049344845 -0.024777737

convs.0.convs.<region___is_functionally_connected___region>.att_src f4 [1, 1, 64]
000000 c6 4e 8a bc d9 64 15 3d d8 4c 5e be 2e 2a 29 bd
       -0.016883265 0.03647313 -0.21709001 -0.04129999
000010 32 e5 09 be 26 03 8c 3e 48 4d 04 3e 85 9d 88 3e
       -0.13466337 0.27346152 0.12920105 0.26682678
000020 fb 8a af bd 83 9e fb bd 3d cd 18 3e 6c 45 c9 3d
       -0.0857143 -0.12286093 0.14922042 0.09827694
000030 22 4a bd 3c 42 5a c8 3d be 3e 03 3e 77 62 29 be
       0.023106638 0.0978284 0.12816903 -0.16541468
000040 23 1c 83 be 9c 26 9c 3d 4e 3a c4 bd a0 db 08 bd
       -0.25607404 0.07624552 -0.09581433 -0.033412576
000050 a3 98 98 bc ca ac 59 be 08 0c 51 3e 07 0c b4 3c
       -0.01862747 -0.2125732 0.20414746 0.021978391
000060 17 1c 16 3e 33 40 9b 3d 44 06 1a bc f0 3a 65 be
       0.14659153 0.075806044 -0.009400908 -0.22385764
000070 2e 01 02 be e6 fe b5 bc 2f 46 7c be 1e e3 60 be
       -0.12695763 -0.022216272 -0.24636148 -0.21961638
000080 e1 7d 78 3e 50 67 ec bd 38 53 68 3d 66 45 89 bc
       0.24266769 -0.11543143 0.05671999 -0.016756725
000090 03 95 c0 3c c8 55 f7 bd 18 72 b9 3d db 6f da bd
       0.023508554 -0.12076908 0.09054965 -0.10665866
0000a0 ec 40 e3 bd 10 ba a5 39 5c 53 b7 bb 15 80 65 3e
       -0.11096367 0.0003160988 -0.005594654 0.2241214
0000b0 54 ba 7e be 19 d1 68 3e 05 c7 32 3e 8f ea 5e bc
       -0.24875766 0.22736014 0.17458732 -0.013605728
0000c0 99 4c f6 3d 28 fa 1e be 88 a7 85 be c8 44 06 3d
       0.120263286 -0.15525115 -0.2610438 0.03278044
0000d0 20 98 e7 bd cf 22 0d be 09 f1 47 3e 93 62 61 3e
       -0.113083124 -0.1378281 0.19525541 0.2201026
0000e0 72 8b a5 bc 7c 03 d6 bd 40 e2 c6 bc da 70 a9 3d
       -0.020208094 -0.10449883 -0.024277806 0.08273478
0000f0 db bb 2d be bc 26 69 be 60 33 76 3d 81 36 85 3e
       -0.16966192 -0.22768682 0.06010759 0.26018146

convs.0.convs.<region___is_functionally_connected___region>.att_dst f4 [1, 1, 64]
000000 6a ff 88 3e 77 5d 00 3e 0a bd 28 3d 9e 29 64 bd
       0.26757365 0.12535654 0.041195907 -0.05570375
000010 7b f5 1d be a5 ae 88 3e ad f8 1f 3e a0 49 86 3e
       -0.15425675 0.26695743 0.15622206 0.26228046
000020 f8 59 04 be 84 28 cd 3d 19 31 6f be 7d d6 92 bc
       -0.12924945 0.10017493 -0.23358573 -0.017924542
000030 66 6c 02 be 60 88 af bd cb 0f 07 3e e8 f1 4a bc
       -0.12736663 -0.08570933 0.13189618 -0.0123867765
000040 66 65 1a bd dc 69 1f be c1 46 3e 3d de 75 87 3e
       -0.037694357 -0.15567726 0.046454195 0.26457113
000050 d9 cc 7b 3e e2 54 33 be b6 48 19 be 28 2b 9d 3b
       0.24589862 -0.17512849 -0.14969143 0.0047964044
000060 1b c2 f7 3d 55 fa a4 3d 34 34 0d 3e 0e 3d f0 3d
       0.120975696 0.080555595 0.13789445 0.11730395
000070 72 96 74 3e 92 d5 40 3e 60 80 87 3d 68 29 9a 3c
       0.23885515 0.1883147 0.066162825 0.018818572
000080 5d 3b 3a be 47 73 61 be f6 e0 36 be 10 65 25 bd
       -0.18186708 -0.22016631 -0.17859253 -0.040379584
000090 b2 d0 ea bc 20 b3 ba bd 82 55 e0 3d f0 db 07 be
       -0.028663967 -0.09116197 0.10953809 -0.13267493
0000a0 9b 70 40 be 75 5f 2a 3e ac 81 79 3e 03 5a 46 3d
       -0.18792956 0.16637976 0.24365872 0.048425686
0000b0 39 32 31 3e 81 ea 4c 3e 29 19 88 be fb 57 87 bd
       0.17304315 0.20011331 -0.26581696 -0.06608578
0000c0 b4 8a 83 3d e6 4e 32 3d 4e 44 18 3e b5 24 20 3e
       0.0642294 0.043532275 0.14869806 0.15639003
0000d0 e1 ae fa bb 0b e5 1f 3e 25 63 c0 3d 23 52 90 3d
       -0.0076502417 0.15614717 0.0939391 0.07046916
0000e0 b7 c2 00 bd 13 48 28 be ac 3e 87 bd 2c 68 5c be
       -0.031435695 -0.16433744 -0.066037506 -0.21524113
0000f0 87 39 5f be 9d 86 c1 bd 79 5b 44 be 22 07 c6 3d
       -0.21799289 -0.094495036 -0.19175519 0.09669329

convs.0.convs.<region___is_functionally_connected___region>.bias f4 [64]
000000 42 28 b4 3a 11 f5 9f ba c8 13 31 bb 73 c3 02 39
       0.0013744908 -0.0012203773 -0.0027019847 0.00012470577
000010 b6 09 84 bb d8 35 6f ba da ce 4f ba 34 9d e0 3a
       -0.004029478 -0.000912515 -0.00079272466 0.0017136694
000020 3e de 06 ba 62 d3 73 3b e0 28 36 3b d3 36 87 3a
       -0.0005144811 0.0037204851 0.002779536 0.0010316022
000030 20 79 bf 39 cc f6 09 bc 00 93 61 3b 37 3f f7 3a
       0.00036520604 -0.008420657 0.0034419894 0.0018863444
000040 99 3b ac bb db 85 f7 3a a0 56 41 bb 62 4a 87 3b
       -0.005256128 0.0018884497 -0.0029501095 0.00412874
000050 a9 17 ef bb b3 7d 94 3a 30 c3 1e ba 2a 86 d3 ba
       -0.0072965217 0.0011328965 -0.0006056307 -0.0016138006
000060 3e e9 39 bb 98 b8 7c 39 2c 9a 23 3b f3 04 c3 3b
       -0.0028367783 0.0002410136 0.002496372 0.0059515177
000070 a5 95 84 3a 2a 11 98 bb 87 bb 2d bb 0c 00 19 3a
       0.0010115398 -0.004640718 -0.002650948 0.0005836494
000080 a0 aa b1 b9 1d 52 25 bc 4a 9c 16 3b fc 03 ea b9
       -0.00033887196 -0.010090378 0.002298134 -0.00044634927
000090 88 23 8b bb bf 01 83 3b e7 3d 4a 3b 6b 6b 7d bb
       -0.004246179 0.003998011 0.003085965 -0.0038668762
0000a0 f2 9f d6 3b 1e 8d 09 bb 67 8b 71 3b bc 86 22 bb
       0.0065498287 -0.0020988653 0.0036856772 -0.0024799546
0000b0 48 a9 f8 38 40 19 a2 b9 41 8a e9 3a 30 c1 27 ba
       0.000118570926 -0.0003091786 0.0017817692 -0.00063993316
0000c0 34 f7 f5 3b 73 8b a1 3b 70 56 8d 39 e8 eb 86 ba
       0.0075062755 0.0049299537 0.00026958017 -0.0010293694
0000d0 13 6a 64 ba aa 92 c3 ba 5c 40 f5 39 61 38 cf 3b
       -0.0008713316 -0.0014921029 0.00046777993 0.0063238596
0000e0 2c 9a 23 3b 92 6f 05 bb 0d f0 cc 3a a2 32 a2 ba
       0.002496372 -0.002036069 0.0015635506 -0.0012374709
0000f0 3f 54 9e 3a 23 d8 81 bb 38 f1 1a 3a 20 6a bd b6
       0.0012079551 -0.003962533 0.0005910578 -5.6449935e-06

convs.0.convs.<region___is_functionally_connected___region>.lin.weight f4 [64, 64]
000000 77 b8 04 3e c6 73 b9 bc cd 03 1f be d8 7f 04 bd
       0.12960993 -0.022638213 -0.15528794 -0.032348484
000010 68 85 08 be e4 b3 1c be 0c c8 8e bc ea 76 18 bd
       -0.1333214 -0.15302998 -0.017429374 -0.03722278
000020 3e 2f 9c 3d c3 32 2f 3d c8 e0 e3 3b 43 0b 16 3e
       0.07626198 0.04277302 0.0069542862 0.14652734
000030 c6 43 12 3e 53 6b f1 3d fc 02 05 3e f2 6a 2a 3e
       0.14283666 0.117880486 0.1298942 0.16642359
000040 7c 18 e0 3c 89 2e bd bd ab 4a 92 3c 4d b6 89 3d
       0.027355425 -0.092373915 0.01785787 0.06724224
000050 e2 de 15 bc c2 cb d1 bd 4d c1 d2 3d 9c 81 92 3b
       -0.009147378 -0.10243942 0.102907754 0.004471017
000060 14 be 4c bd 1a f2 a9 3d c2 9c b9 3c 06 f8 72 3b
       -0.04998596 0.0829813 0.022657756 0.0037074103
000070 df 88 03 3c cd 0c e7 bd 5b f4 14 be bf 0c d2 bd
       0.008028238 -0.112817384 -0.14546339 -0.102563374
000080 ab 34 6f bc c1 d5 c1 bd 2a 9c 29 bc 9e 23 a9 bd
       -0.014599959 -0.094645984 -0.010352174 -0.082587466
000090 6f 77 a8 3d c7 44 29 3e d8 36 39 3e b1 fa b6 3d
       0.08225905 0.16530143 0.18087327 0.08934534
0000a0 e1 53 b8 3c 4f 3e 25 be 1f a5 0b 3e 33 5c a9 bd
       0.022500934 -0.1613705 0.13637207 -0.08269539
0000b0 4d 69 01 be 1d 8d 87 3d c2 08 d7 3d 5e d1 8a 3d
       -0.12637825 0.06618712 0.10499717 0.06778215
0000c0 39 2e 9e bd 33 3e ca 3d 41 e6 a5 ba 4c dd 1f bc
       -0.0772366 0.09875145 -0.0012657122 -0.009757351
0000d0 73 51 27 be 41 a0 02 be bc eb 19 be fc c0 3f 3d
       -0.16339664 -0.12756445 -0.15031332 0.046814904
0000e0 90 c9 d9 3d 33 3d ca 3c 34 48 b0 3d 30 93 85 3d
       0.10634148 0.024687385 0.08607522 0.065222144
0000f0 7c a2 38 3e 60 e5 21 bc 53 78 d2 3d 80 19 7d 3d
       0.18030733 -0.009881347 0.10276856 0.061791897
000100 b9 4f ae bc 6e 2f 1a be 1e 25 89 3b 74 57 65 3d
       -0.02127825 -0.15057155 0.004185333 0.055991605
000110 36 32 93 bd a2 b6 f7 3d 75 b0 04 bc 47 ba 92 bd
       -0.07187311 0.12095381 -0.008098711 -0.07164436
000120 6a 73 82 bd cf 6a ca bd 7e e2 91 bb e6 8a ed bd
       -0.0636967 -0.09883653 -0.004452049 -0.115987584
000130 dd 21 90 3d 38 68 9f 3c 8c ec 91 bc a6 34 12 3e
       0.07037709 0.019458875 -0.01781299 0.14277896
000140 90 cd 5f 3a 94 81 a6 bd a0 07 26 ba e6 48 dc 3c
       0.0008537406 -0.08130184 -0.00063335337 0.02689023
000150 e6 9b e8 bd 13 fa 3a be 87 80 ab 3c ee e6 16 be
       -0.1135786 -0.18259458 0.02093531 -0.1473653
000160 e9 46 0e 3d fd 13 78 3c d8 47 bd 3c f3 aa b5 bd
       0.034735594 0.015141484 0.023105547 -0.088704966
000170 a3 b1 11 3d f8 dc 93 bd ae 81 fe bd a8 72 24 be
       0.0355698 -0.07219881 -0.12427078 -0.16059363
000180 06 37 0d 3e 2c a7 53 bd 9e f7 4c 3d 75 7b 74 bc
       0.13790521 -0.0516731 0.050040834 -0.014922013
000190 25 7d 0a 3e cb 46 13 bd 6c e2 93 3d a8 06 04 3a
       0.13524301 -0.035956185 0.07220921 0.0005036392
0001a0 c6 3d 44 bd d7 7b 23 3e e1 77 88 3d f1 4d 0c 3d
       -0.047910474 0.1596521 0.0666349 0.03425402
0001b0 47 3e f5 3d 60 9b 3b 3d 37 e4 7e bd 52 b7 2b 3e
       0.11974769 0.045802474 -0.06222936 0.1676915
0001c0 e9 b0 36 bd 38 6b f9 bc 37 1f c9 3d 29 b0 2d 3e
       -0.04460231 -0.030446634 0.09820407 0.16961731
0001d0 ca 30 e8 3c 8c 16 2f 3d e0 ba 0c be a4 0c b1 bd
       0.028343577 0.04274611 -0.13743162 -0.08644989
0001e0 cc ae 3c be 4e c6 0b bc 58 4e 0a bb 2c 81 cf 3b
       -0.18426055 -0.008531166 -0.0021103825 0.006332537
0001f0 43 ca f8 3b 56 19 ce 3d a8 92 82 ba 63 58 3c be
       0.007592471 0.10063426 -0.000996192 -0.18393092
000200 42 4d c4 3d 50 26 7a 3d cf fb 1f 3e 02 97 09 3d
       0.09585048 0.061071694 0.15623401 0.033591278
000210 5f 73 88 3b 90 86 26 bc a0 e9 3c be a6 e8 9a 3d
       0.004164144 -0.010163918 -0.18448496 0.075639054
000220 1f 51 5a bc 64 7c 19 3d 00 84 df 3b 63 1d 5f bd
       -0.013325005 0.037472144 0.0068211555 -0.054471385
000230 6b f9 ad 3d 58 61 0b 3e 66 a3 3a 3e e2 41 34 be
       0.08494838 0.13611352 0.18226394 -0.17603257
000240 ef 8f 84 bd 0c 95 36 3c 38 58 82 3a ed 73 d0 bb
       -0.06472766 0.011143934 0.0009944504 -0.0063614757
000250 03 e6 1d be 70 c2 0f 3a 4c a8 93 3d ba dd 35 bd
       -0.15419774 0.00054839905 0.072098345 -0.044400908
000260 d1 0d ef 3d af bf 4d bc 8c 0e 17 3e 70 6a 22 3e
       0.11672557 -0.012557908 0.14751643 0.15860915
000270 aa ef 26 be ce 07 0d 3e c2 92 da 3d 88 19 c2 3b
       -0.16302362 0.13772509 0.10672523 0.0059234537
000280 a6 23 02 be 39 fb 0a 3e cf 90 32 be 75 8d cb 3d
       -0.12708911 0.13572396 -0.17438053 0.0993909
000290 9a 2a c1 3d 42 af a5 bd 1c 9f 0f be 22 26 c9 3d
       0.09431954 -0.080900684 -0.14025539 0.098217264
0002a0 f9 d5 b0 bd 7c 59 d3 bc 46 78 84 3c e5 d3 e6 bd
       -0.08634562 -0.025799505 0.016170632 -0.112708844
0002b0 df 21 31 3e c9 a3 0d 3d c9 ef 2c 3e 11 87 14 3e
       0.17298077 0.034580026 0.16888346 0.14504649
0002c0 ec f6 ac 3b 55 20 03 3c 3f 2b 34 3e c8 da f4 bb
       0.005278459 0.008003314 0.17594622 -0.00747237
0002d0 a9 1d 0f 3d c9 1a 14 be 78 6b 2b 3e 69 48 39 bc
       0.034940396 -0.14463343 0.16740215 -0.011308768
0002e0 60 2a a4 b9 a8 1f 36 3e a7 53 b2 3d 53 d3 b4 3d
       -0.0003131209 0.17785513 0.08707362 0.088293694
0002f0 00 c4 b2 38 2c 0d 4e bd ab e2 cd 3d 58 7c 0a be
       8.524209e-05 -0.05030553 0.10052999 -0.13523996
000300 c8 f5 0f be 49 32 06 3e a0 40 3a 3d 77 28 dd bd
       -0.14058602 0.1310512 0.045471787 -0.10798734
000310 6d 82 bf 3d 49 4e 09 3c 52 6b c6 bd 92 35 13 be
       0.093510486 0.008380481 -0.096884385 -0.14375904
000320 3c 66 39 be 1b 09 17 3c 71 d9 0a be f6 33 fd bb
       -0.18105406 0.0092184795 -0.1355951 -0.0077271415
000330 b0 f1 e1 3d aa f7 ca bc d8 28 db 3d 9a d4 56 3d
       0.11032426 -0.024776299 0.1070115 0.052448846
000340 5a 53 8b bc 19 d5 6f 3c 21 65 80 bd ec 8d 01 bc
       -0.017007519 0.014638209 -0.06269289 -0.007907372
000350 94 7b 13 3e e5 70 28 be fd e9 b7 bd 97 41 34 3d
       0.1440261 -0.16449316 -0.089801766 0.044007864
000360 87 86 c6 bc 77 8b 81 3d 5c 55 3c be 2b 46 c6 3c
       -0.02423407 0.06325429 -0.18391937 0.02420338
000370 74 3c 62 3d c5 82 88 3d d8 0f bc bc 8e 08 9b 3d
       0.055233434 0.06665567 -0.022956774 0.07569991
000380 1d e3 b9 bd 70 03 22 3e 3d 33 ce 3d 9a 68 36 3e
       -0.090765215 0.15821624 0.10068367 0.1781334
000390 e0 7c 26 bd fb 28 71 3d af 41 93 3c 8f 96 19 be
       -0.040646434 0.058876973 0.017975656 -0.1499884
0003a0 49 76 a1 bd 12 3a f8 bd 7a bf 85 3d a6 e1 f3 bb
       -0.07883889 -0.12120451 0.06530662 -0.007442671
0003b0 6d a6 3d bd aa 17 8e 3b ee f8 8f bc 0b eb 2a 3e
       -0.046301294 0.004336317 -0.017574754 0.16691224
0003c0 cc 3a 0e be e4 e9 ed 3d ed 75 36 3e 3f 2e 2f 3e
       -0.13889617 0.11616877 0.17818423 0.17107485
0003d0 7b ef 26 3c 3f 29 06 3e ea 3b cd 3d 91 08 f2 3c
       0.0101889325 0.13101672 0.10021193 0.0295451
0003e0 4e 99 c0 3b 6a 6d 17 be 88 77 c5 bd d5 f6 43 bc
       0.0058776503 -0.14787832 -0.096419394 -0.011960705
0003f0 46 0b ae 3d 48 e4 ae 3d 72 f5 c2 3d d0 ac 32 3e
       0.08498244 0.08539635 0.09519471 0.17448735
