src/trained_heteroGNN_model.pth (torch, 248794 bytes, 20 tensors)

convs.0.convs.<subject___has_region___region>.lin_l.weight f4 [64, 3]
0	0x3d5ab2ef	0.0533933
1	0x3e782ab8	0.24235046
2	0x3e7ef860	0.24899435
3	0xbf3cb1c3	-0.7370874
4	0x3e5e19a8	0.21689475
5	0xbf216e9a	-0.6305939
6	0x3eb34b05	0.35018173
7	0x3debd3b0	0.115149856
8	0x3d9eb206	0.07748799
9	0xbe24212f	-0.16028284
10	0xbe8b64c5	-0.2722532
11	0x3e90abec	0.28256166
12	0x3e9f658c	0.31132162
13	0x3ccb5f72	0.024825785
14	0x3dd73540	0.105082035
15	0x3ec21194	0.37904036
16	0xbe46c2f1	-0.19410302
17	0x3f1fb647	0.6238751
18	0xbe8b5da2	-0.27219874
19	0xbed9354d	-0.42423478
20	0xbdd67689	-0.104718275
21	0x3d156ab5	0.036478717
22	0xbe1eea64	-0.155191
23	0xbdfc78c1	-0.123277195
24	0x3e368ba9	0.17826714
25	0x3d30b106	0.043137573
26	0xbe7e082e	-0.24807808
27	0xbebb5d51	-0.36594632
28	0xbd5c0f7f	-0.053725716
29	0xbe1ed888	-0.15512288
30	0x3d3114de	0.04323279
31	0xbbcba030	-0.006214164
32	0x3ef02236	0.469011
33	0xbeb1abd4	-0.34701407
34	0x3e8b49bf	0.272047
35	0xbdb3d696	-0.087811634
36	0xbd88fc08	-0.06688696
37	0xbef7c3f9	-0.48391703
38	0xbe9e9c64	-0.30978692
39	0xbdd2848e	-0.10279189
40	0xbe04df1c	-0.12975734
41	0xbe74ae2b	-0.23894565
42	0xbe86ea4c	-0.2635063
43	0xbbf39e9f	-0.0074346806
44	0xbe8601e8	-0.2617333
45	0x3eded271	0.4351993
46	0x3e445fe0	0.19177198
47	0xbe618681	-0.22023965
48	0xbe1a6adf	-0.1507983
49	0x3a1d547b	0.0006001663
50	0xbf14ff26	-0.58201826
51	0xbf0963f8	-0.53668165
52	0x3ed95256	0.4244563
53	0x3eaf1295	0.34193864
54	0xbe4731e1	-0.19452621
55	0xbe47a814	-0.1949771
56	0x3eeb76cd	0.45989075
57	0x3e183c07	0.14866649
58	0x3e5b7d46	0.21434507
59	0xbe23fbff	-0.16014098
60	0x3e8c771e	0.2743463
61	0xbe18494a	-0.14871708
62	0x3f378e9b	0.71701974
63	0x3c3f4f2c	0.011676591
64	0xbd73d396	-0.059527956
65	0x3e1d3fbe	0.15356347
66	0x3da14039	0.078735776
67	0x3bb48bee	0.005509845
68	0x3ec62638	0.38701034
69	0x3eafadbe	0.34312242
70	0xbae346f6	-0.0017339874
71	0xbdfa2f5b	-0.122160636
72	0x3f1ea7bb	0.61974686
73	0xbcf60e73	-0.030036187
74	0xbddc8d69	-0.10769159
75	0x3ea8ef36	0.32995003
76	0x3dafa4b1	0.08576334
77	0x3d7edbe4	0.062221423
78	0x3ef559fa	0.4792021
79	0xbd500670	-0.05078739
80	0x3f2305d3	0.6368076
81	0x3e926923	0.28595838
82	0xbefd6801	-0.4949341
83	0x3eb1eff9	0.34753397
84	0xbebe5e6f	-0.37181422
85	0x3bdea2e1	0.006794319
86	0x3f0c7b9b	0.54876107
87	0xbe1c6b79	-0.15275373
88	0x3aeda7b4	0.0018131644
89	0xbef3ccb9	-0.47617128
90	0x3bca8c50	0.0061812773
91	0xbe3933e5	-0.18086202
92	0x3ee5fb2e	0.44918197
93	0x3ee2ce91	0.44298223
94	0xbe75def5	-0.24010833
95	0x3e8df4a0	0.27725697
96	0xbec58111	-0.38575032
97	0xbb3f9967	-0.0029235722
98	0xbe75a15d	-0.23987336
99	0xbf1df73c	-0.61705375
100	0x3e55fad3	0.20896463
101	0xbe9a51ef	-0.30140635
102	0xbeffca2f	-0.4995894
103	0x3ea35132	0.31897885
104	0xbe73ea12	-0.2381976
105	0xbefad60c	-0.4899143
106	0x3e84ef07	0.25963613
107	0xbe0fae68	-0.14031374
108	0x3cd31215	0.025765458
109	0xbeca7d0a	-0.39548522
110	0x3e9d0a48	0.30671906
111	0xbe3d410f	-0.18481849
112	0x3cacb3b1	0.021081777
113	0x3eb08e22	0.3448344
114	0xbd2fb6fb	-0.042899113
115	0xbeb6c672	-0.35698277
116	0x3e2663b8	0.16248977
117	0xbf2a90be	-0.6662711
118	0x3e8b2b03	0.27181253
119	0xbf010862	-0.50403416
120	0xbe79803e	-0.24365327
121	0x3ec54e4b	0.38536295
122	0xbe986b8a	-0.29769546
123	0x3e3666d0	0.17812657
124	0xbc1f714b	-0.009731601
125	0x3e31f332	0.17377928
126	0xbf33c9f5	-0.70230037
127	0x3ea4f30f	0.3221669
128	0xbecce6c6	-0.40019816
129	0x3e21f8b2	0.15817526
130	0xbe14c304	-0.14527518
131	0x3d63760f	0.05553251
132	0xbcc82f82	-0.024436716
133	0xbb5f72e5	-0.0034095582
134	0x3e9a20b2	0.3010307
135	0xbe808f80	-0.25109482
136	0xbcae88f2	-0.021305535
137	0x3eb240b8	0.34815
138	0xbf13ce21	-0.577364
139	0x3e54c3eb	0.20777862
140	0xbd99fa46	-0.07518439
141	0xbe7f6309	-0.24940123
142	0xbb85507b	-0.004068432
143	0xbcf4c5c7	-0.029879464
144	0xbe3fd750	-0.18734479
145	0xbcd73157	-0.026268644
146	0xbf161b49	-0.58635384
147	0xbdbf72a7	-0.0934804
148	0x3c00e4ff	0.007867097
149	0xbef20aef	-0.47273967
150	0xbded7e80	-0.115963936
151	0xbe8f8258	-0.28029132
152	0xbd429bdd	-0.047511924
153	0x3ee324df	0.44364068
154	0xbcc85006	-0.02445222
155	0x3ef9ced3	0.48790607
156	0x3ec3bffb	0.38232407
157	0x3ea9cf0f	0.33165786
158	0xbf20afef	-0.62768453
159	0x3f1cf15b	0.6130578
160	0xbe95755b	-0.29191098
161	0x3ea04d8b	0.3130916
162	0x3e9989b8	0.29987884
163	0xbe93ce8f	-0.2886853
164	0xbe316f06	-0.17327508
165	0xbc301ed4	-0.0107495375
166	0xbdf4623b	-0.119327985
167	0x3cf06799	0.029346274
168	0x3f2c5554	0.673177
169	0x3be9e4ea	0.0071378844
170	0x3f0f9e64	0.5610106
171	0xbf06e8c4	-0.5269892
172	0x3ee65316	0.44985265
173	0xbe84b34a	-0.25918037
174	0xbe1d512f	-0.15363
175	0xbe9e428e	-0.30910152
176	0xbe14e1dc	-0.14539284
177	0xbe0fd188	-0.14044774
178	0x3eaffad2	0.34371048
179	0x3e9ebfd8	0.3100574
180	0xbf288f58	-0.65843725
181	0x3e9c2c45	0.30502525
182	0x3e4d9455	0.20076115
183	0x3e20b9bb	0.1569585
184	0xbdbb98cc	-0.09160003
185	0x3dc8605f	0.09784006
186	0x3d2c7512	0.042103834
187	0xbce2d888	-0.02769114
188	0xbf1ad6ba	-0.60483897
189	0x3e838ca7	0.25693247
190	0x3c5a728a	0.013332972
191	0x3e4a754b	0.19771306

convs.0.convs.<subject___has_region___region>.lin_l.bias f4 [64]
0	0xbe7d14b6	-0.24714932
1	0x3eb0e480	0.34549332
2	0x3e66ab51	0.2252629
3	0x3e4e91fe	0.20172879
4	0xbf046f3e	-0.5173224
5	0x3ea01a5c	0.3127011
6	0x3e389897	0.18026958
7	0xbd3e2102	-0.046418197
8	0xbf309b79	-0.6898723
9	0x3e7363b0	0.23768497
10	0xbf1e8f4b	-0.619374
11	0x3ecf6dc6	0.40513438
12	0xbb98e66d	-0.004666141
13	0xbec5b15d	-0.3861188
14	0x3d864f0b	0.06558045
15	0xbf1fbc43	-0.6239664
16	0xbe204ce1	-0.15654327
17	0x3d66ed5d	0.05637871
18	0x3f2a130d	0.6643532
19	0xbc942f08	-0.018088832
20	0x3e9c2f2a	0.30504733
21	0xbda16525	-0.0788062
22	0xbe048fa2	-0.12945417
23	0xbeccf1ae	-0.40028137
24	0x3f098a0a	0.53726256
25	0x3d333fc3	0.04376198
26	0xbe98f45b	-0.29873928
27	0xbeb0a8b1	-0.345037
28	0x3e8e1962	0.2775374
29	0xbd816b69	-0.06319315
30	0xbe236bcb	-0.15959089
31	0xbc8e3ee0	-0.017363966
32	0x3ca1a3a5	0.019731352
33	0xbe4d51d6	-0.20050749
34	0x3ec762e1	0.38942626
35	0xbd0c9295	-0.03431948
36	0x3c70dca8	0.014701046
37	0xbe743e84	-0.23851973
38	0x3f0ac9e6	0.5421432
39	0xbf203564	-0.6258147
40	0x3e894a64	0.26814568
41	0x3e6a6be2	0.22892717
42	0xbe053e22	-0.13011983
43	0x3f27472b	0.6534297
44	0xbeb919dc	-0.36152542
45	0xbec5e98b	-0.38654742
46	0x3d2ae53d	0.041722525
47	0x3e9c0d01	0.3047867
48	0x3ea53e0a	0.32273895
49	0x3d831307	0.064001136
50	0x3f13a078	0.5766673
51	0x3e1dadf2	0.15398386
52	0xbc75914c	-0.014988255
53	0x3e455a02	0.19272617
54	0x3f3221db	0.6958291
55	0xbeb4a13e	-0.35279268
56	0xbe8d697c	-0.2761954
57	0xbe2f6927	-0.17129956
58	0x3f1a907b	0.6037671
59	0xbf4721de	-0.7778605
60	0xbebb70ad	-0.36609402
61	0xbe28056b	-0.16408317
62	0xbeff4328	-0.49855924
63	0xbeba07a9	-0.3633397

convs.0.convs.<subject___has_region___region>.lin_r.weight f4 [64, 200]
0	0xbe777d1d	-0.2416882
1	0xbe5a4c2d	-0.21318121
2	0xbe9644a0	-0.29349232
3	0xbe826796	-0.25469655
4	0xbe8e3000	-0.27770996
5	0xbe93827c	-0.2881049
6	0xbe811022	-0.2520762
7	0xbe61d7da	-0.22054997
8	0xbe928ef0	-0.28624678
9	0xbe71b972	-0.23605898
10	0xbea1f9b4	-0.3163582
11	0xbe8f5c8a	-0.2800029
12	0xbe5ac1ad	-0.21362944
13	0xbe849466	-0.2589447
14	0xbe98b1b6	-0.29823083
15	0xbe8e44af	-0.27786776
16	0xbe6564b0	-0.2240169
17	0xbe72c06d	-0.23706217
18	0xbe662f56	-0.22478995
19	0xbe88dac1	-0.26729396
20	0xbe792b70	-0.24332976
21	0xbe95fd74	-0.29294932
22	0xbe396da2	-0.18108228
23	0xbe6eb78f	-0.2331221
24	0xbe409ca5	-0.18809755
25	0xbe996ce4	-0.2996589
26	0xbe828ede	-0.25499624
27	0xbe44b7ca	-0.19210735
28	0xbe562e58	-0.20916116
29	0xbe726025	-0.23669489
30	0xbe9eb972	-0.3100086
31	0xbe64ca1c	-0.22342724
32	0xbe997b00	-0.29976654
33	0xbe85123e	-0.2599048
34	0xbe700f13	-0.2344325
35	0xbe5edd53	-0.21764116
36	0xbe3979e1	-0.181129
37	0xbe9255fe	-0.28581232
38	0xbe64dfa6	-0.2235094
39	0xbe9deb1c	-0.30843437
40	0xbe88db75	-0.26729932
41	0xbe40b3ee	-0.18818638
42	0xbe86745e	-0.26260656
43	0xbe9d7518	-0.30753398
44	0xbe84a7ac	-0.25909173
45	0xbe826d3c	-0.25473964
46	0xbe3caece	-0.18426058
47	0xbe55777a	-0.20846358
48	0xbe9b9500	-0.30387115
49	0xbe443ab4	-0.19163018
50	0xbe8a5cc0	-0.27023888
51	0xbe412ebd	-0.18865485
52	0xbe459514	-0.1929515
53	0xbe9df602	-0.30851752
54	0xbe9e3a18	-0.30903697
55	0xbe8b8e0a	-0.27256805
56	0xbe8efb81	-0.27926257
57	0xbe52a452	-0.20570496
58	0xbe753128	-0.23944533
59	0xbe8e7e0b	-0.27830538
60	0xbe8f27df	-0.27960107
61	0xbe43d689	-0.19124807
62	0xbe94c346	-0.29055232
63	0xbe841b84	-0.25802243
64	0xbe4a9edd	-0.19787164
65	0xbe715596	-0.23567805
66	0xbe5ce2d4	-0.21570903
67	0xbe6cf5cd	-0.2314064
68	0xbe8900ff	-0.26758572
69	0xbe80e722	-0.2517634
70	0xbe920988	-0.28522897
71	0xbe9f2f1a	-0.31090623
72	0xbe3a25c9	-0.18178476
73	0xbe459c45	-0.19297893
74	0xbe72dc0a	-0.2371675
75	0xbe42572d	-0.18978567
76	0xbe3ee354	-0.18641406
77	0xbe82a946	-0.2551977
78	0xbe9520b8	-0.29126525
79	0xbe7e16fc	-0.24813455
80	0xbe5ee3de	-0.21766612
81	0xbe960f10	-0.29308367
82	0xbe89d110	-0.26917315
83	0xbe8fba3c	-0.28071773
84	0xbe91c4f8	-0.28470588
85	0xbe6d06dd	-0.2314715
86	0xbe9f494a	-0.31110603
87	0xbe98fc9e	-0.29880232
88	0xbe56fd00	-0.2099495
89	0xbe6b460d	-0.22975941
90	0xbe987780	-0.2977867
91	0xbe56bf16	-0.20971331
92	0xbe8f17ce	-0.2794785
93	0xbe87bbfe	-0.26510614
94	0xbe48a36d	-0.19593592
95	0xbe8772a4	-0.2645465
96	0xbe5c4a2c	-0.2151267
97	0xbe5e01d7	-0.2168039
98	0xbe593047	-0.21209823
99	0xbe6051cd	-0.21906205
100	0xbe9079fa	-0.2821806
101	0xbe560c45	-0.20903118
102	0xbe6e7d93	-0.2329009
103	0xbe3e88e2	-0.18606904
104	0xbe90a996	-0.28254384
105	0xbe71785c	-0.2358107
106	0xbe8bd8d4	-0.27313864
107	0xbe70d329	-0.23518051
108	0xbe3da653	-0.18520479
109	0xbe5c3554	-0.21504718
110	0xbe65d048	-0.22442734
111	0xbe8daf6e	-0.27672905
112	0xbe8e711a	-0.27820665
113	0xbe7cd643	-0.2469111
114	0xbe87ca97	-0.2652175
115	0xbe80d7ae	-0.2516455
116	0xbe9affb0	-0.302732
117	0xbe897f79	-0.26855066
118	0xbe389b2e	-0.18027946
119	0xbe951332	-0.29116207
120	0xbe9e665e	-0.30937475
121	0xbe5af809	-0.2138368
122	0xbe947f82	-0.2900353
123	0xbe8ac731	-0.27105096
124	0xbe42edb3	-0.19035988
125	0xbe802339	-0.25026873
126	0xbe650207	-0.22364055
127	0xbe99cc56	-0.30038708
128	0xbe9dda06	-0.308304
129	0xbe7d4bb8	-0.24735916
130	0xbe867ffe	-0.26269525
131	0xbe7402f5	-0.23829253
132	0xbe70d5c3	-0.23519044
133	0xbe7c5029	-0.24639954
134	0xbe4d33ca	-0.20039287
135	0xbe8618e6	-0.2619087
136	0xbe8063fe	-0.25076288
137	0xbe4a0c31	-0.19731213
138	0xbe464266	-0.19361266
139	0xbe8716ac	-0.26384485
140	0xbe4e018d	-0.20117779
141	0xbe9881e0	-0.29786587
142	0xbe8fd0e8	-0.2808907
143	0xbe3ace1a	-0.18242684
144	0xbe42a2d7	-0.19007431
145	0xbe8c85aa	-0.27445728
146	0xbe6ed7b1	-0.23324467
147	0xbe53d81b	-0.20687906
148	0xbe690b6c	-0.22758263
149	0xbe9677b4	-0.293882
150	0xbe85bde6	-0.26121444
151	0xbe7282ea	-0.23682752
152	0xbe4349c5	-0.1907111
153	0xbe4cc6f2	-0.19997767
154	0xbea1928a	-0.31557113
155	0xbe708969	-0.23489918
156	0xbe7a5aed	-0.24448748
157	0xbe60757a	-0.21919814
158	0xbe777cac	-0.24168652
159	0xbe4b1a1e	-0.19834182
160	0xbe9ff732	-0.31243283
161	0xbe7f2a74	-0.24918538
162	0xbe86b4da	-0.26309854
163	0xbe5584d9	-0.20851459
164	0xbe9bee48	-0.30455232
165	0xbe4e76b6	-0.20162472
166	0xbea100e6	-0.31445998
167	0xbe978824	-0.29596055
168	0xbe8a9ba4	-0.2707187
169	0xbe971a04	-0.29512036
170	0xbe84d8ff	-0.25946805
171	0xbe858200	-0.26075745
172	0xbea23af0	-0.3168559
173	0xbe5b8b48	-0.2143985
174	0xbe86cbce	-0.26327366
175	0xbe534f6f	-0.2063577
176	0xbe48e698	-0.19619215
177	0xbe734241	-0.23755743
178	0xbe84f409	-0.25967434
179	0xbe9ab51c	-0.302163
180	0xbe87160c	-0.26384008
181	0xbe422d14	-0.18962508
182	0xbe4407cb	-0.19143598
183	0xbe6a9524	-0.22908455
184	0xbe8264b3	-0.25467452
185	0xbe9b1eae	-0.30296844
186	0xbe53b371	-0.2067392
187	0xbe3c6433	-0.18397598
188	0xbe454789	-0.1926557
189	0xbe58faff	-0.21189497
190	0xbe8ce3ad	-0.27517453
191	0xbe5bbbb9	-0.2145833
192	0xbe724430	-0.23658824
193	0xbe96f4f0	-0.29483747
194	0xbea3c784	-0.31988156
195	0xbe7dfb7b	-0.24802963
196	0xbe491877	-0.19638239
197	0xbe5df145	-0.21674068
198	0xbea0a5c0	-0.31376457
199	0xbe92e6e8	-0.28691792
200	0xbe943292	-0.28944832
201	0xbe2634eb	-0.16231124
202	0xbe8634ea	-0.26212245
203	0xbe94a1ac	-0.29029596
204	0xbe45dd38	-0.1932267
205	0xbe6eecdb	-0.2333254
206	0xbe3f0be5	-0.18656881
207	0xbe89834a	-0.26857978
208	0xbe298765	-0.16555555
209	0xbe6a5dc2	-0.22887328
210	0xbe4efc10	-0.20213342
211	0xbe3b235d	-0.18275209
212	0xbe68bb8e	-0.22727796
213	0xbe815970	-0.25263548
214	0xbe5dae65	-0.21648557
215	0xbe2286a9	-0.15871681
216	0xbe25f30e	-0.16206
217	0xbe34d9e8	-0.1766125
218	0xbe8d1779	-0.2755697
219	0xbe730c81	-0.23735239
220	0xbe2b05a6	-0.16701373
221	0xbe5616b9	-0.20907106
222	0xbe7fa1ff	-0.2496414
223	0xbe6eb160	-0.2330985
224	0xbe2ac8b4	-0.16678125
225	0xbe2eaa0c	-0.17057055
226	0xbe5f7595	-0.21822198
227	0xbe6d749b	-0.23189013
228	0xbe514b9f	-0.20439003
229	0xbe32d89d	-0.17465444
230	0xbe95bad6	-0.29244107
231	0xbe802d1a	-0.2503441
232	0xbe5b7a8a	-0.21433464
233	0xbe7d09b9	-0.2471074
234	0xbe31a0e0	-0.17346525
235	0xbe8c8c73	-0.27450904
236	0xbe6368a4	-0.22207886
237	0xbe93ef21	-0.28893378
238	0xbe4be7bf	-0.19912623
239	0xbe91e00c	-0.28491247
240	0xbe540a13	-0.20706968
241	0xbe7541db	-0.23950903
242	0xbe3c270a	-0.18374267
243	0xbe898fc3	-0.26867494
244	0xbe88808b	-0.2666057
245	0xbe636806	-0.2220765
246	0xbe257d12	-0.16160992
247	0xbe515d46	-0.20445737
248	0xbe36076b	-0.17776267
249	0xbe855ed7	-0.2604892
250	0xbe56d859	-0.20980968
251	0xbe74fd94	-0.23924857
252	0xbe7a7b6c	-0.24461144
253	0xbe877866	-0.26459044
254	0xbe3d2e5c	-0.18474716
255	0xbe51ab89	-0.20475592

convs.0.convs.<region___rev_has_region___subject>.lin_l.weight f4 [64, 200]
0	0xbe49c7ea	-0.19705167
1	0xbe155dfb	-0.14586632
2	0xbe37d45a	-0.179521
3	0xbe650266	-0.22364196
4	0xbe447526	-0.19185314
5	0xbe4a94c6	-0.19783315
6	0xbe10a26c	-0.14124459
7	0xbe5dc37a	-0.216566
8	0xbe497dd6	-0.19676909
9	0xbe4ae0fe	-0.1981239
10	0xbe431988	-0.19052708
11	0xbde6d849	-0.11271722
12	0xbe2c3326	-0.16816387
13	0xbe5a8dfc	-0.21343225
14	0xbde98b68	-0.11403543
15	0xbe24667c	-0.1605472
16	0xbe5c6c6a	-0.21525732
17	0xbe5ee5dc	-0.21767372
18	0xbde8c7bb	-0.113662206
19	0xbe394830	-0.18093944
20	0xbdfac338	-0.12244266
21	0xbe116d96	-0.1420196
22	0xbe658ddc	-0.22417396
23	0xbe7eaf40	-0.2487154
24	0xbe3f4f78	-0.18682659
25	0xbe38f4ba	-0.18062106
26	0xbe24fd10	-0.1611216
27	0xbddf7687	-0.10911279
28	0xbe364e2c	-0.17803258
29	0xbe471ca8	-0.19444525
30	0xbe75470a	-0.2395288
31	0xbde8d7f0	-0.11369312
32	0xbe31fa84	-0.1738072
33	0xbe2bf122	-0.16791204
34	0xbe3a465c	-0.18190902
35	0xbe41b40e	-0.18916342
36	0xbe2a4305	-0.16627128
37	0xbe72b75e	-0.23702762
38	0xbe73b8cc	-0.23800963
39	0xbe119ff8	-0.1422118
40	0xbe7f6ab4	-0.24943048
41	0xbe6496d8	-0.22323167
42	0xbe06877b	-0.13137619
43	0xbe3c1ee4	-0.18371159
44	0xbe38bb9a	-0.18040314
45	0xbe2d5bed	-0.16929598
46	0xbe2639fd	-0.16233058
47	0xbe1040bd	-0.14087196
48	0xbe65b7b6	-0.22433361
49	0xbe0e845b	-0.13917677
50	0xbdfbe32d	-0.1229919
51	0xbe3b0de0	-0.18267012
52	0xbe7ee9c8	-0.24893868
53	0xbe3df758	-0.18551385
54	0xbe767846	-0.24069318
55	0xbe201d84	-0.1563626
56	0xbe214044	-0.15747172
57	0xbe336f83	-0.17523007
58	0xbe244639	-0.16042413
59	0xbe0bdb05	-0.13657768
60	0xbe13ee4b	-0.1444637
61	0xbdf96e7e	-0.12179278
62	0xbe3c63fe	-0.18397519
63	0xbe6573ec	-0.22407502
64	0xbe0d6848	-0.13809311
65	0xbe067543	-0.1313067
66	0xbe0bb3b5	-0.13642772
67	0xbe7de1b0	-0.24793124
68	0xbe7628f2	-0.24039057
69	0xbde88fd7	-0.1135556
70	0xbe4fbe58	-0.20287454
71	0xbe13815e	-0.14404818
72	0xbe21becb	-0.15795438
73	0xbe44fd90	-0.19237351
74	0xbe204ff4	-0.156555
75	0xbe0895ff	-0.13338469
76	0xbe63886e	-0.22220013
77	0xbe5f29ac	-0.2179324
78	0xbe4c1a74	-0.19931966
79	0xbe572b0a	-0.21012512
80	0xbe726cd0	-0.23674321
81	0xbe69f3a2	-0.22846845
82	0xbde40a7e	-0.11134814
83	0xbe12c2b3	-0.14332084
84	0xbe05a974	-0.13052922
85	0xbe4f2278	-0.20227993
86	0xbe29209d	-0.16516347
87	0xbe3615b4	-0.17781717
88	0xbde2d769	-0.110762425
89	0xbde16169	-0.11004908
90	0xbe3a6636	-0.18203053
91	0xbe6b2f88	-0.2296735
92	0xbe5d3980	-0.21603966
93	0xbe510a90	-0.20414186
94	0xbde6fe66	-0.112789914
95	0xbe0ad2a6	-0.13556919
96	0xbe1abe2d	-0.15111609
97	0xbdfad4ac	-0.12247595
98	0xbe098fc9	-0.13433756
99	0xbe1bc534	-0.15211946
100	0xbe1d3485	-0.15352066
101	0xbe6c349c	-0.23066944
102	0xbe3a22ec	-0.18177384
103	0xbe2f7033	-0.17132644
104	0xbdec95f2	-0.11552037
105	0xbdf942de	-0.12170957
106	0xbe5eccd8	-0.21757829
107	0xbe796f9a	-0.24358979
108	0xbe62507e	-0.22101018
109	0xbe49bfd8	-0.19702089
110	0xbe496d52	-0.19670609
111	0xbe5a2bf2	-0.21305826
112	0xbde636b7	-0.11240905
113	0xbe2fd8aa	-0.17172495
114	0xbe4efd5a	-0.20213833
115	0xbe7840d6	-0.24243483
116	0xbde31805	-0.11088566
117	0xbe200ba5	-0.15629442
118	0xbe7717f8	-0.24130237
119	0xbe71984e	-0.23593256
120	0xbde7cfb2	-0.113189116
121	0xbe38bac6	-0.18039998
122	0xbe751fe4	-0.23937947
123	0xbe774bb2	-0.24149969
124	0xbe5f0446	-0.21778974
125	0xbe1df057	-0.15423714
126	0xbe1a0d38	-0.15044105
127	0xbe446440	-0.19178867
128	0xbe393770	-0.18087554
129	0xbe3bb93e	-0.18332383
130	0xbe4ee88a	-0.20205894
131	0xbe6b0cd6	-0.22954115
132	0xbde6afa0	-0.112639666
133	0xbe44e4ac	-0.19227856
134	0xbde4ebc1	-0.11177779
135	0xbe1f518d	-0.15558453
136	0xbe7a7ff0	-0.24462867
137	0xbe146c26	-0.1449438
138	0xbe7d4354	-0.24732715
139	0xbe726fbe	-0.23675439
140	0xbe107411	-0.14106776
141	0xbde9510f	-0.11392414
142	0xbe54e35c	-0.20789856
143	0xbe4d455c	-0.2004599
144	0xbe49bd9e	-0.1970124
145	0xbe0f5721	-0.13998081
146	0xbe3325c9	-0.17494883
147	0xbde446e8	-0.11146337
148	0xbe200cc9	-0.15629877
149	0xbe044025	-0.12915094
150	0xbe5d3ec0	-0.21605968
151	0xbe66c8c0	-0.22537518
152	0xbe744800	-0.23855591
153	0xbe02c95b	-0.12772124
154	0xbe2dc9af	-0.16971467
155	0xbe50e9b2	-0.20401648
156	0xbe33937f	-0.17536734
157	0xbe0f0b56	-0.13969168
158	0xbe348f9c	-0.17632908
159	0xbe57b6a8	-0.21065772
160	0xbe4964a6	-0.196673
161	0xbdf742cf	-0.120732896
162	0xbe2e2912	-0.17007855
163	0xbe2ca0d9	-0.16858234
164	0xbde87f9c	-0.113524646
165	0xbe06935b	-0.13142149
166	0xbe3baabe	-0.18326852
167	0xbe3ed3ca	-0.18635479
168	0xbdf2db65	-0.118582524
169	0xbe56dc28	-0.2098242
170	0xbe67d8dc	-0.22641319
171	0xbe726766	-0.23672256
172	0xbe65bd46	-0.22435483
173	0xbe40232a	-0.18763414
174	0xbdf5ecbd	-0.12008045
175	0xbe50a3de	-0.2037501
176	0xbe3cad72	-0.18425539
177	0xbe3ca42e	-0.18422005
178	0xbe35efd2	-0.17767265
179	0xbe018b10	-0.12650704
180	0xbdf6e0e6	-0.12054615
181	0xbe5f44ec	-0.21803635
182	0xbe22bf1b	-0.15893213
183	0xbe247aa3	-0.16062407
184	0xbe2596f0	-0.1617086
185	0xbe0ec0c7	-0.13940726
186	0xbe4e2f98	-0.20135343
187	0xbdf2fc2d	-0.11864505
188	0xbe452ede	-0.1925616
189	0xbe5d96fa	-0.21639624
190	0xbe5f5292	-0.21808842
191	0xbe671800	-0.22567749
192	0xbe6f31b4	-0.23358804
193	0xbe69f3d8	-0.22846925
194	0xbe2ca63f	-0.16860293
195	0xbde987af	-0.11402833
196	0xbdf5d3ca	-0.12003286
197	0xbe74197c	-0.23837847
198	0xbdfe078b	-0.124037825
199	0xbdf30760	-0.11866641
200	0xbe0e9945	-0.13925655
201	0xbd6e0eff	-0.05811977
202	0xbe0374ef	-0.12837575
203	0xbd4b8aa5	-0.04969277
204	0xbd31ee53	-0.043440174
205	0xbe2e6e95	-0.17034371
206	0xbe383915	-0.17990525
207	0xbe1a27f7	-0.15054308
208	0xbd93f8e8	-0.072252095
209	0xbd4b9d1f	-0.04971039
210	0xbdeb9fe2	-0.115051046
211	0xbd6e93a9	-0.05824629
212	0xbe281dd5	-0.1641763
213	0xbd8b8aea	-0.06813605
214	0xbd8154cd	-0.063150026
215	0xbdbdd166	-0.09268455
216	0xbdd04510	-0.101694226
217	0xbdfd7f0a	-0.123777464
218	0xbd4a2b79	-0.049357865
219	0xbe0dbddf	-0.13841961
220	0xbe375cbd	-0.1790647
221	0xbe230a8b	-0.1592199
222	0xbd59edb7	-0.05320522
223	0xbdbb6e02	-0.09151842
224	0xbdea4954	-0.114397675
225	0xbe1c1c05	-0.15245064
226	0xbe05dbe8	-0.13072169
227	0xbd77698f	-0.060403403
228	0xbe1d4fbb	-0.15362446
229	0xbdc17b56	-0.094473526
230	0xbe2a48cb	-0.16629331
231	0xbd649a81	-0.05581141
232	0xbd503bf7	-0.050838437
233	0xbe052a40	-0.13004398
234	0xbd6e80a3	-0.058228146
235	0xbde9be96	-0.114133045
236	0xbdb7daf0	-0.08977306
237	0xbde12d9e	-0.10995029
238	0xbe0d326b	-0.13788764
239	0xbd953068	-0.072846234
240	0xbd516a29	-0.051126633
241	0xbd55b507	-0.052174594
242	0xbe3b7e23	-0.18309836
243	0xbd9ea37a	-0.077460244
244	0xbe2fd84b	-0.17172353
245	0xbdb3d00c	-0.08779916
246	0xbd9e9e1c	-0.07745001
247	0xbd84cdee	-0.064845905
248	0xbe2aeadf	-0.16691159
249	0xbe1f7c53	-0.1557477
250	0xbd7d9519	-0.06190977
251	0xbdbc9368	-0.09207803
252	0xbdc19526	-0.09452276
253	0xbdc19fd0	-0.0945431
254	0xbe15ca07	-0.14627849
255	0xbe1c47b5	-0.15261729

convs.0.convs.<region___rev_has_region___subject>.lin_l.bias f4 [64]
0	0xbde30450	-0.11084807
1	0xbe063314	-0.13105422
2	0x3e383158	0.17987573
3	0x3e30f958	0.17282617
4	0x3e80eaad	0.25179043
5	0xbdfc912b	-0.12332376
6	0xbced00aa	-0.02893098
7	0xbdab8f27	-0.083769135
8	0x3e0500bb	0.1298856
9	0x3e1d94df	0.15388821
10	0x3e4d0187	0.20020114
11	0x3db2bf0b	0.08727845
12	0xbe7c3e52	-0.24633148
13	0xbdf3cf64	-0.11904791
14	0x3e15c79a	0.14626923
15	0xbdccf293	-0.10007205
16	0x3e54b134	0.20770723
17	0xbdb4ba82	-0.08824636
18	0x3dd2193c	0.10258719
19	0xbe398304	-0.18116385
20	0xbe17951b	-0.14802973
21	0xbe307adf	-0.17234372
22	0x3e198793	0.14993124
23	0xbd9028a3	-0.07039001
24	0x3dc812c2	0.09769203
25	0x3df192ce	0.11795579
26	0xbe3299ce	-0.17441484
27	0xbdc861ba	-0.09784265
28	0x3db9dbde	0.090751395
29	0x3e0b7b74	0.13621312
30	0x3d1752e8	0.0369443
31	0xbd81d00d	-0.06338511
32	0x3dbf70d4	0.09347692
33	0x3d3ae1b1	0.045625392
34	0xbe24d6f2	-0.1609762
35	0x3e30c406	0.17262277
36	0xbe1f83fa	-0.15577689
37	0x3de9e3f3	0.11420431
38	0xbddf0362	-0.10889317
39	0xbd47c3e9	-0.04877082
40	0xbe1a799e	-0.15085456
41	0xbe3553d9	-0.17707767
42	0x3ea017e9	0.31268242
43	0xbd755c86	-0.05990269
44	0xbd69c16d	-0.05706923
45	0x3de16621	0.11005808
46	0x3db7669f	0.0895512
47	0xbd75ca85	-0.06000759
48	0x3d81dc30	0.063408256
49	0x3e0a00a3	0.13476805
50	0xbe3e8a43	-0.1860743
51	0x3e26a7f8	0.16275012
52	0x3dccfac2	0.10008766
53	0x3d5ea143	0.05435301
54	0xbe3e9115	-0.18610032
55	0x3d9b2a64	0.07576445
56	0xbdb69665	-0.08915404
57	0x3e71c31f	0.23609589
58	0xbe759d8a	-0.23985878
59	0x3e364df2	0.17803171
60	0x3df3a02f	0.11895787
61	0xbe1786a1	-0.1479745
62	0xbda8221f	-0.08209633
63	0xbd76fd15	-0.06029995

convs.0.convs.<region___rev_has_region___subject>.lin_r.weight f4 [64, 3]
0	0xbf363839	-0.7117954
1	0x3eca347b	0.39493164
2	0xbe5fba60	-0.2184844
3	0x3dfa6f7d	0.12228296
4	0x3c297f68	0.010345317
5	0x3ce6a047	0.028152598
6	0x3e717b4e	0.23582193
7	0xbcf8db73	-0.030378079
8	0xbe9d8bad	-0.30770627
9	0x3f1d7b19	0.6151596
10	0x3cdebee4	0.027190633
11	0xbc90fa6d	-0.017697537
12	0xbdef7ab7	-0.11693328
13	0xbda3e56d	-0.08002744
14	0xbe3d9d79	-0.18517102
15	0x3e507db4	0.20360452
16	0x3e915f84	0.28393185
17	0x3e9e8f4a	0.30968696
18	0x3d7553c8	0.059894353
19	0x3cbe646c	0.023241244
20	0x3ed41bd2	0.41427475
21	0xbe8c9e3b	-0.2746447
22	0x3dda5f01	0.10662652
23	0xbf1cb6c0	-0.61216354
24	0x3e9493e9	0.29019096
25	0xbeb07c60	-0.3446989
26	0xbd02d8b6	-0.031944953
27	0x3f28286b	0.6568667
28	0x3ceab4b5	0.028650621
29	0xbeaa1d36	-0.3322541
30	0x3e32fbf2	0.17478922
31	0xbdf48976	-0.11940281
32	0x3ee00bbe	0.4375896
33	0x3f26ad6a	0.6510836
34	0xbebb3fbd	-0.36572066
35	0xbe4abebb	-0.1979932
36	0x3e24d8c6	0.16098318
37	0xbd80c384	-0.06287292
38	0xbcce1d9b	-0.025160601
39	0xbf23be4f	-0.6396226
40	0x3e25f419	0.16206397
41	0x3ed9aadc	0.42513168
42	0xbedc9ba8	-0.43087506
43	0xbda830ae	-0.0821241
44	0x3e8bd499	0.27310637
45	0xbf02c595	-0.51082736
46	0x3b769476	0.003762511
47	0x3e83114a	0.25599128
48	0x3f2a138e	0.6643609
49	0xbe89b227	-0.26893732
50	0x3f2bc4d4	0.6709721
51	0xbe4d87c3	-0.2007132
52	0x3e2c9498	0.16853559
53	0xbef1edfe	-0.47251886
54	0xbe3c8772	-0.18411043
55	0x3d836cda	0.06417246
56	0x3e18c592	0.14919117
57	0xbf0fcb49	-0.56169564
58	0x3e151178	0.14557445
59	0xbe4a7b3e	-0.19773576
60	0x3eced091	0.403935
61	0x3b668fd2	0.0035180938
62	0xbf1bd70c	-0.6087501
63	0x3d71ad29	0.05900303
64	0x3d1ff541	0.03905225
65	0xbf26cc0c	-0.651551
66	0xbe012f4c	-0.12615699
67	0xbddfa54c	-0.109202
68	0xbebc548f	-0.36783263
69	0xbee12208	-0.43971276
70	0xbcefa287	-0.029252304
71	0xbbe541f0	-0.0069963858
72	0xbe8019a3	-0.2501956
73	0xbe5ce7a9	-0.21572746
74	0xbd56a71b	-0.052405458
75	0xbc62bb28	-0.013838567
76	0xbda4172c	-0.08012232
77	0x3e9c4610	0.30522203
78	0xbe21fd40	-0.15819263
79	0x3e4d6036	0.20056233
80	0x3eb4ad5d	0.35288516
81	0xbd0538de	-0.032524936
82	0xbc863dac	-0.01638683
83	0xbdc6b355	-0.097021736
84	0x3eb18cd5	0.3467776
85	0xbe00d984	-0.12582976
86	0x3e9bf526	0.3046047
87	0x3e7e9e5b	0.24865095
88	0xbe2c2db4	-0.1681431
89	0x3edb391c	0.42817008
90	0x3ed03e65	0.40672603
91	0xbee942cb	-0.45558771
92	0x3de002b0	0.109380126
93	0xbf26b99d	-0.65126973
94	0x3b8cbbb6	0.004294838
95	0xbf0ac1fe	-0.5420226
96	0x3ecf0165	0.4043075
97	0xbdb945e5	-0.090465344
98	0x3f17104f	0.5900926
99	0x3edb8afa	0.42879468
100	0xbdc00056	-0.09375064
101	0xbdffd5e4	-0.12491968
102	0xbe030ace	-0.1279709
103	0xbbf3b514	-0.0074373577
104	0xbe8de490	-0.27713442
105	0xbe6f1329	-0.23347153
106	0xbcbce187	-0.023056759
107	0x3efa12c2	0.48842436
108	0x3ec6403e	0.38720888
109	0x3e9c6bb0	0.3055091
110	0xbf20fa1f	-0.62881655
111	0x3f19a87c	0.6002271
112	0xbd982e29	-0.07430679
113	0xbcf6e875	-0.030140141
114	0xbeb0ca17	-0.34529182
115	0x3ecdaea3	0.401723
116	0xbf2f581a	-0.6849381
117	0xbeaf7255	-0.34266916
118	0x3d871453	0.065956734
119	0x3ec633ff	0.38711545
120	0x3ed3ab84	0.41341794
121	0x3d933680	0.071881294
122	0xbe564810	-0.20925927
123	0xbe376094	-0.17907935
124	0x3cd09803	0.02546311
125	0xbf2f3b1e	-0.6844958
126	0x3ead6493	0.33865795
127	0xbdc40e5c	-0.09573051
128	0xbe1c69e7	-0.15274774
129	0x3e452e4a	0.19255939
130	0x3ca618e4	0.02027554
131	0xbda5c804	-0.080947906
132	0x3ea5af46	0.32360286
133	0x3db609c3	0.08888581
134	0xbf0536d9	-0.52036816
135	0x3ef6161c	0.48063743
136	0xbcbe2543	-0.023211127
137	0xbe17cad1	-0.14823462
138	0x3f016de4	0.50558305
139	0xbdabd487	-0.08390146
140	0xbd874a37	-0.06605952
141	0x3e911e7a	0.28343564
142	0xbc10732d	-0.008816523
143	0xbeaed231	-0.34144738
144	0x3e43f394	0.19135886
145	0xbe4cf366	-0.20014724
146	0x3f04fe96	0.5195097
147	0x3e717f2e	0.23583671
148	0xbe0ef224	-0.13959557
149	0x3f0ebdae	0.5575818
150	0x3e3013ba	0.17195025
151	0x3e501693	0.20321111
152	0x3e85b063	0.26111135
153	0x3d651fa8	0.055938393
154	0xbe394f61	-0.18096687
155	0x3ee3f7b2	0.44524914
156	0xbe4bd036	-0.19903645
157	0x3d10c866	0.035347365
158	0xbed8be76	-0.4233281
159	0x3ca2e3a9	0.019883947
160	0xbdc1f7a7	-0.09471064
161	0x3f155d4a	0.5834547
162	0xbee92713	-0.45537624
163	0x3e8863c1	0.26638606
164	0xbf07ea04	-0.53091455
165	0x3e97295e	0.29523748
166	0x3ce1d210	0.027565986
167	0xbce4fcbd	-0.027952546
168	0xbdd72b85	-0.105063476
169	0x3e36078d	0.17776318
170	0xbea549ef	-0.3228297
171	0x3f26dff2	0.65185463
172	0xbe877bc6	-0.2646162
173	0xbebbb2cd	-0.36659852
174	0x3d6542bc	0.055971846
175	0x3da1b556	0.07895915
176	0xbf2d3879	-0.67664295
177	0x3e474d6f	0.19463132
178	0x3d5abb8f	0.053401526
179	0x3e989c21	0.29806617
180	0x3ea6fed1	0.32616284
181	0xbec25fba	-0.3796366
182	0x3e8a1487	0.26968786
183	0xbed02106	-0.40650195
184	0x3d350aec	0.04419987
185	0x3e41c0a0	0.18921137
186	0xbf02517c	-0.50905585
187	0xbcb90057	-0.02258317
188	0x3edf26c1	0.43584254
189	0xbe0c70a2	-0.13714841
190	0x3d9c68d5	0.076371826
191	0xbef51601	-0.4786835

convs.0.convs.<region___is_functionally_connected___region>.bias f4 [64]
0	0xbe7f52ba	-0.24933901
1	0xbe680561	-0.22658302
2	0xbddf48fe	-0.10902594
3	0x3da34baf	0.0797342
4	0xbccfe96a	-0.025379855
5	0x3e20b6c5	0.15694721
6	0x3e0e9786	0.13924989
7	0x3e4042ef	0.18775533
8	0xbdf4454a	-0.11927278
9	0x3e2d9c78	0.1695422
10	0xbdab2a4c	-0.08357677
11	0xbdfa4f32	-0.122221366
12	0x3dadf469	0.08493883
13	0x3d880459	0.06641454
14	0xbe189770	-0.14901519
15	0xbe0d21e8	-0.13782465
16	0xbd16820d	-0.03674512
17	0xbdf06c9c	-0.117394656
18	0x3e5b2c5b	0.21403639
19	0xbdb0fc90	-0.086419225
20	0x3e1665cd	0.14687271
21	0x3de9e121	0.11419893
22	0x3d7d1bfa	0.06179426
23	0xbe0298e7	-0.1275364
24	0x3e08788e	0.13327238
25	0xbdc84709	-0.09779174
26	0x3e024ded	0.12725039
27	0x3d9b084d	0.075699426
28	0x3dc0a250	0.09405959
29	0x3b9c161e	0.0047633788
30	0x3e1f7f01	0.15575792
31	0x3e0e4796	0.13894495
32	0xbbcf3320	-0.0063232332
33	0xbe6e6c86	-0.23283586
34	0xbde6c95a	-0.112688735
35	0xbe1f6b1e	-0.15568206
36	0x3d95edf2	0.07320775
37	0x3b062796	0.0020470372
38	0x3e3d7d37	0.18504797
39	0xbdc205ef	-0.09473788
40	0xbe392169	-0.18079151
41	0x3cc3cd40	0.023901582
42	0xbe773642	-0.24141791
43	0x3debf3bc	0.11521098
44	0x3e48f3ac	0.19624203
45	0x3e1abfff	0.15112303
46	0xbd9d4f9b	-0.07681199
47	0x3d700926	0.058602475
48	0xbe1f2651	-0.1554196
49	0x3d34825f	0.044069644
50	0x3e738e5c	0.23784775
51	0xbd7245f3	-0.05914874
52	0xbe375ad5	-0.17905743
53	0x3e1f486c	0.1555497
54	0x3e6639d1	0.22482993
55	0x3ddba12d	0.10724101
56	0x3df1fedc	0.11816189
57	0xbde4d094	-0.111725956
58	0x3e5540df	0.20825528
59	0xbe659684	-0.22420698
60	0xbe145fa0	-0.14489603
61	0x3d9d07c0	0.07667494
62	0xbe2fc329	-0.17164291
63	0x3dbb6c51	0.09151519

convs.0.convs.<region___is_functionally_connected___region>.lin.weight f4 [64, 200]
0	0xbe6bf09c	-0.23041004
1	0xbeb12ae9	-0.3460305
2	0xbe167974	-0.14694768
3	0xbea6e404	-0.32595837
4	0xbea95147	-0.33069822
5	0xbe6abb90	-0.22923112
6	0xbea5b1be	-0.3236217
7	0xbe1606de	-0.14651057
8	0xbe22e214	-0.15906554
9	0xbe85ae3d	-0.26109496
10	0xbe8df080	-0.2772255
11	0xbe59f136	-0.21283421
12	0xbecc60f6	-0.39917725
13	0xbe0b077b	-0.13577072
14	0xbe05e435	-0.13075335
15	0xbec02b13	-0.37532863
16	0xbe8673ec	-0.26260316
17	0xbe6813f6	-0.22663864
18	0xbe821a3a	-0.25410634
19	0xbe8744ff	-0.26419827
20	0xbe8731c7	-0.26405165
21	0xbdcb804c	-0.0993658
22	0xbe9b144e	-0.3028893
23	0xbe86cac8	-0.26326585
24	0xbe453922	-0.19260076
25	0xbe0dcbab	-0.13847224
26	0xbeb6fbe8	-0.35739064
27	0xbe936aa1	-0.2879229
28	0xbdde0e18	-0.10842532
29	0xbeb08adb	-0.34480938
30	0xbe39c102	-0.18140033
31	0xbe925562	-0.28580767
32	0xbe3d8c28	-0.18510497
33	0xbe9f5e27	-0.3112652
34	0xbeaec2da	-0.34133035
35	0xbea3d445	-0.31997886
36	0xbe27e6ce	-0.16396639
37	0xbe8fdd87	-0.280987
38	0xbdf58f0f	-0.11990177
39	0xbe73fa54	-0.23825961
40	0xbe874c49	-0.26425388
41	0xbdde706e	-0.10861288
42	0xbe8ccec8	-0.27501512
43	0xbe708658	-0.23488748
44	0xbdf860c9	-0.12127835
45	0xbe43c444	-0.19117838
46	0xbec11962	-0.37714678
47	0xbe943869	-0.28949288
48	0xbe0d4234	-0.13794786
49	0xbe0bf5cc	-0.13667983
50	0xbe7386bc	-0.23781866
51	0xbe03d875	-0.1287554
52	0xbdf46ddf	-0.11935019
53	0xbe32a89e	-0.17447135
54	0xbe8ac813	-0.2710577
55	0xbe890da8	-0.2676823
56	0xbe4d01d8	-0.20020235
57	0xbeadb6b1	-0.33928445
58	0xbe183b8c	-0.14866465
59	0xbe0ff7ec	-0.14059418
60	0xbe8b8a00	-0.27253723
61	0xbec53e25	-0.38523975
62	0xbecbdc93	-0.39816722
63	0xbe074312	-0.13209179
64	0xbe459b56	-0.19297537
65	0xbec1d540	-0.3785801
66	0xbeaa0fe1	-0.3321524
67	0xbde12aa6	-0.10994463
68	0xbe4d2374	-0.20033056
69	0xbe08bfa5	-0.13354357
70	0xbe3f6398	-0.18690336
71	0xbec48425	-0.38382068
72	0xbeb21a60	-0.34785748
73	0xbdff6559	-0.124705024
74	0xbe4aee66	-0.19817504
75	0xbeba03ff	-0.36331174
76	0xbeab460e	-0.33451885
77	0xbe6369d2	-0.22208336
78	0xbeb3455f	-0.35013863
79	0xbe423618	-0.18965948
80	0xbdf0c5d3	-0.11756482
81	0xbe19a65c	-0.15004867
82	0xbdf4ee25	-0.11959485
83	0xbeb2e7c0	-0.34942436
84	0xbe41aee2	-0.18914369
85	0xbe172698	-0.14760816
86	0xbea7bf9b	-0.3276337
87	0xbe560e50	-0.20903897
88	0xbe8d3c52	-0.27585083
89	0xbe58c284	-0.21167952
90	0xbe308d84	-0.17241484
91	0xbdcfe317	-0.10150736
92	0xbe9e9864	-0.3097564
93	0xbe8d2a16	-0.27571172
94	0xbe422e44	-0.18962961
95	0xbe4a7070	-0.19769454
96	0xbe875a09	-0.2643588
97	0xbec7ed4a	-0.39048225
98	0xbebac162	-0.36475664
99	0xbe762c7e	-0.2404041
100	0xbe9c8e8e	-0.3057751
101	0xbe308d1a	-0.17241326
102	0xbe2fa80e	-0.17153952
103	0xbde5affa	-0.112152055
104	0xbeb88384	-0.36037838
105	0xbe486a1a	-0.19571725
106	0xbebc4ce4	-0.36777413
107	0xbe87e27b	-0.26539978
108	0xbecabbf9	-0.39596537
109	0xbe800da9	-0.25010422
110	0xbe84afda	-0.25915414
111	0xbe161566	-0.146566
112	0xbeb04f20	-0.34435368
113	0xbe98769e	-0.29777998
114	0xbebdef21	-0.37096503
115	0xbe86b9ed	-0.26313725
116	0xbe2ee844	-0.1708079
117	0xbe9cf522	-0.30655771
118	0xbe955d99	-0.29172972
119	0xbead0b08	-0.3379748
120	0xbec796eb	-0.3898233
121	0xbdfd9df7	-0.12383645
122	0xbe93d9cf	-0.28877112
123	0xbe5b2256	-0.21399817
124	0xbe939779	-0.28826502
125	0xbe05039c	-0.12989658
126	0xbe6af894	-0.22946388
127	0xbe8b9723	-0.27263746
128	0xbe092fa1	-0.13397075
129	0xbebf16f9	-0.37322214
130	0xbe63acb6	-0.22233853
131	0xbe0b4172	-0.13599184
132	0xbe3d1a16	-0.18466982
133	0xbe0b2dc5	-0.13591678
134	0xbe7041ae	-0.23462555
135	0xbe01db11	-0.12681223
136	0xbea6fb0f	-0.32613418
137	0xbdec0372	-0.11524095
138	0xbdf7b81d	-0.12095664
139	0xbea8bcc7	-0.32956526
140	0xbeaae63a	-0.33378774
141	0xbe86e382	-0.2634545
142	0xbe200234	-0.1562584
143	0xbe782140	-0.24231434
144	0xbe488e0e	-0.1958544
145	0xbec3d341	-0.3824711
146	0xbe981336	-0.29702157
147	0xbe92bc3e	-0.28659242
148	0xbe669470	-0.22517562
149	0xbe5f42d6	-0.2180284
150	0xbe977f37	-0.29589245
151	0xbea001e8	-0.31251454
152	0xbe29b738	-0.16573799
153	0xbe935036	-0.28772134
154	0xbe046e14	-0.12932616
155	0xbea4f069	-0.32214668
156	0xbe98b871	-0.29828218
157	0xbe355992	-0.1770995
158	0xbe60dcd0	-0.21959233
159	0xbdeaeb74	-0.1147069
160	0xbe844a32	-0.25837857
161	0xbded270f	-0.115797155
162	0xbe871714	-0.26384795
163	0xbeba0759	-0.3633373
164	0xbe8eb454	-0.27871954
165	0xbeae9276	-0.34096116
166	0xbdd7f70a	-0.10545166
167	0xbe8661bc	-0.2624644
168	0xbeb971a3	-0.3621951
169	0xbe193520	-0.14961672
170	0xbeb25db0	-0.34837103
171	0xbe58f524	-0.21187264
172	0xbe3fd5c6	-0.18733892
173	0xbe80e2e4	-0.25173104
174	0xbe1e8e46	-0.1548396
175	0xbea0f82a	-0.31439334
176	0xbe144f0a	-0.14483276
177	0xbe89d676	-0.26921433
178	0xbe62a274	-0.22132283
179	0xbe7537ea	-0.23947111
180	0xbe44c144	-0.1921435
181	0xbe68a6c6	-0.22719869
182	0xbe29243c	-0.16517729
183	0xbe7de71a	-0.2479519
184	0xbe4b308a	-0.19842735
185	0xbe56f31c	-0.20991176
186	0xbe7791cc	-0.24176711
187	0xbe966c17	-0.2937934
188	0xbe65c8de	-0.22439906
189	0xbe18cafe	-0.14921185
190	0xbea02bf4	-0.31283534
191	0xbdd4da80	-0.10393238
192	0xbeacb446	-0.33731288
193	0xbe9189a9	-0.2842534
194	0xbe42b738	-0.19015205
195	0xbea9e750	-0.3318429
196	0xbe8532ba	-0.26015264
197	0xbe4f0498	-0.20216596
198	0xbe43dfc2	-0.19128326
199	0xbe825f3e	-0.2546329
200	0xbdba6095	-0.09100453
201	0xbdc3b080	-0.09555149
202	0xbe55e65f	-0.20888661
203	0xbe4fba3a	-0.20285884
204	0xbe9fe45b	-0.3122891
205	0xbe3e7a4c	-0.1860134
206	0xbe58f3ab	-0.21186702
207	0xbea83ca0	-0.32858753
208	0xbdfd9de5	-0.123836316
209	0xbdeedc17	-0.116630726
210	0xbe2671d1	-0.16254355
211	0xbeb6b2d2	-0.35683304
212	0xbe58f39c	-0.2118668
213	0xbeaeb818	-0.34124827
214	0xbe83e640	-0.25761604
215	0xbdf1ca17	-0.11806124
216	0xbe048461	-0.12941124
217	0xbe1a222b	-0.15052097
218	0xbea2ccdd	-0.31796923
219	0xbe103d8a	-0.14085975
220	0xbe971b18	-0.29512858
221	0xbe340476	-0.17579827
222	0xbe632d2b	-0.22185199
223	0xbdae64c0	-0.0851531
224	0xbe601966	-0.21884689
225	0xbeb6ffaf	-0.35741946
226	0xbeb5f065	-0.3553497
227	0xbe589c77	-0.21153437
228	0xbe33b347	-0.17548858
229	0xbe88270b	-0.26592287
230	0xbe696db9	-0.22795762
231	0xbe726a09	-0.23673262
232	0xbdbdb8b7	-0.09263747
233	0xbe46e567	-0.19423448
234	0xbe148088	-0.14502156
235	0xbe66980e	-0.22518942
236	0xbdcacaeb	-0.09901985
237	0xbeb18f0e	-0.34679455
238	0xbe5a942e	-0.21345589
239	0xbea321f6	-0.31861848
240	0xbe9905a6	-0.29887122
241	0xbe50c07c	-0.20385927
242	0xbe9e3b2d	-0.30904523
243	0xbe21dac6	-0.15806112
244	0xbe8ef212	-0.2791906
245	0xbe205874	-0.15658742
246	0xbe3598ee	-0.1773412
247	0xbea0b31e	-0.31386656
248	0xbe7c4bc3	-0.24638276
249	0xbe87c694	-0.2651869
250	0xbe2e4024	-0.17016655
251	0xbebf48bf	-0.37360188
252	0xbebb345f	-0.36563393
253	0xbea41be4	-0.3205253
254	0xbe7a50f7	-0.24444948
255	0xbddb163d	-0.10697601

convs.1.convs.<subject___has_region___region>.lin_l.weight f4 [64, 64]
0	0x3ca03f50	0.01956144
1	0xbd527090	-0.05137688
2	0x3c01a410	0.007912651
3	0xbd34be74	-0.044126943
4	0xbdd686b4	-0.10474911
5	0x3adbe280	0.0016775876
6	0xbd46f714	-0.048575476
7	0xbd8c8442	-0.06861164
8	0xbd87b976	-0.06627171
9	0xbc542830	-0.012949035
10	0xbcee81b0	-0.029114574
11	0x3d8da388	0.06915957
12	0xbdeb8eca	-0.11501844
13	0xbde4d1d2	-0.111728325
14	0xbda850da	-0.08218546
15	0xbdea2404	-0.11432651
16	0xbdfceae4	-0.12349489
17	0xbc9abdc8	-0.018889323
18	0xbd5b0ed8	-0.053480953
19	0xbbf25b80	-0.0073961616
20	0x3cad0068	0.021118358
21	0xbd6174e0	-0.0550431
22	0xbda5ba8c	-0.080922216
23	0x3d3e764c	0.046499535
24	0x3dca9608	0.098918974
25	0xbdfb6b20	-0.12276292
26	0xbdfa9142	-0.12234737
27	0xbdc05094	-0.09390369
28	0x3bfde1c0	0.0077478588
29	0xbdebb2ce	-0.11508714
30	0xbd771e40	-0.060331583
31	0x3d9b11ec	0.07571778
32	0xbd5fb078	-0.054611653
33	0x3c656630	0.014001414
34	0xbd96d9c0	-0.07365751
35	0x3de73904	0.11290172
36	0xbd205ee4	-0.039152995
37	0xbde7682a	-0.112991646
38	0xbd82ed32	-0.06392898
39	0x3d3950a4	0.04524292
40	0x3d7c723c	0.06163238
41	0xbde5e6ea	-0.11225684
42	0x3cbc1748	0.02296032
43	0xbd27cdf4	-0.040967897
44	0xbcfb2aa0	-0.030659974
45	0x3dacd632	0.08439292
46	0x3ddcaf70	0.107756495
47	0xbcc83540	-0.024439454
48	0x3d947de4	0.07250574
49	0x3ba57ba0	0.0050501376
50	0xbd481c70	-0.048855245
51	0xbddf24bc	-0.108956784
52	0x3d89f10a	0.06735428
53	0xbd5baf74	-0.053634122
54	0xb93c5000	-0.0001795888
55	0xbd0a66d4	-0.03378947
56	0xbcbe0490	-0.023195535
57	0x3de8f7e2	0.11375405
58	0x3c211db0	0.009833738
59	0xbdd9d41e	-0.10636161
60	0xbdff8228	-0.12475997
61	0x3b9da4c0	0.0048108995
62	0xbd5f4f50	-0.054518998
63	0x3df4d86a	0.1195534
64	0xbd8d9298	-0.06912726
65	0xbdee2bb6	-0.11629431
66	0xbdf1ac6e	-0.118004665
67	0x3dd61e2e	0.10454975
68	0xbdfc2458	-0.123116195
69	0x3d5a49a8	0.0532929
70	0xbdf5aba4	-0.119956285
71	0x3d3fef94	0.04685934
72	0xbd99ec0a	-0.07515724
73	0xbdf652f6	-0.12027542
74	0xbd54e414	-0.051975325
75	0x3ce748f0	0.028233021
76	0x3b6e1a80	0.0036331713
77	0x3dc8dcc8	0.09807736
78	0xbde5d8ee	-0.11223017
79	0xbdb747fe	-0.08949278
80	0x3c8bc4a8	0.017061546
81	0xbcca5250	-0.024697453
82	0x3dd6264a	0.10456522
83	0x3c6d70d0	0.014492229
84	0xbd0ef258	-0.034899086
85	0x3d989b84	0.07451537
86	0xbd8cca6a	-0.06874545
87	0x3db51256	0.08841388
88	0xbd4594f8	-0.04823777
89	0x3d648538	0.05579111
90	0xbdc18c5c	-0.094505996
91	0x3c86b860	0.016445339
92	0x3dff881e	0.12477134
93	0xbc13ff60	-0.009033054
94	0xbda5fca6	-0.081048295
95	0xbdf96836	-0.1217808
96	0xbb65e500	-0.0035079122
97	0xbc800118	-0.015625522
98	0x3ccd2210	0.025040656
99	0x3d5acf20	0.053420186
100	0x3ba22860	0.0049486607
101	0x3d34ccbc	0.044140562
102	0xbdd0dffe	-0.10198973
103	0x3df24320	0.11829209
104	0xbd42c8d0	-0.04755479
105	0xbc8253d0	-0.015909106
106	0x3d4bdd84	0.0497718
107	0xbdb5983e	-0.088669285
108	0xbcbd1338	-0.023080453
109	0xbd4b2148	-0.049592286
110	0x3d98cf64	0.074614316
111	0x3dc63576	0.096781656
112	0xbdb6c160	-0.08923602
113	0xbd1c8460	-0.03821218
114	0xbdaddcb8	-0.084893644
115	0x3d0efde0	0.034910083
116	0xbdaa88a0	-0.083268404
117	0xbd1d2000	-0.038360596
118	0xbd7dd7f4	-0.061973527
119	0xbdb5b760	-0.08872867
120	0xbd80e9ba	-0.0629458
121	0xbde0be7c	-0.10973832
122	0x3c3a5380	0.011372447
123	0x3c0136a0	0.007886559
124	0xbd8c296e	-0.068438396
125	0x3d8e019c	0.06933901
126	0x3df331bc	0.118747205
127	0xbdff15ba	-0.12455316
128	0x3de45f1e	0.11150955
129	0x3cf33e50	0.029692799
130	0xbde4c0e2	-0.11169602
131	0x3d700ad0	0.05860406
132	0x3db79132	0.08963241
133	0x3a6e1f00	0.0009083599
134	0x3d5a570c	0.05330567
135	0x3ba30880	0.0049753785
136	0xbb030740	-0.0019993335
137	0x3bea7040	0.0071544945
138	0xbc184820	-0.00929454
139	0x3d6aa818	0.057289213
140	0x3d5195cc	0.051168248
141	0x3d8bfb54	0.068350464
142	0xbc80f3a8	-0.015741184
143	0x3d92e54e	0.07172643
144	0xbcb64e20	-0.02225405
145	0x3b9089e0	0.004410967
146	0xbcb893e8	-0.022531465
147	0x3db96dc2	0.09054138
148	0xbdb6b836	-0.08921854
149	0x3d02fb14	0.031977728
150	0x3d2b2e94	0.041792467
151	0x3d898942	0.06715633
152	0xbceb9d18	-0.028761432
153	0xbc0a0630	-0.008424327
154	0x3df5b76c	0.119978756
155	0x3ddd79b4	0.10814229
156	0x3d01c578	0.03168246
157	0x3d453e40	0.04815507
158	0xbde2e19c	-0.11078188
159	0x3cb861c0	0.022507548
160	0xbdf34c36	-0.118797705
161	0x3d31e138	0.043427676
162	0x3d7815e8	0.060567766
163	0x3d020180	0.03173971
164	0xbc347e70	-0.011016473
165	0x3d9cc23e	0.07654236
166	0xbdc61520	-0.09671998
167	0xbdf44358	-0.11926907
168	0xbd9e5d46	-0.07732634
169	0x3dde5a4c	0.108570665
170	0x3dfc23be	0.12311505
171	0xbdc556d2	-0.096357
172	0xbca5c1c0	-0.020233989
173	0xbdd71100	-0.10501289
174	0x3dd8bf6e	0.10583387
175	0xbdfffb82	-0.12499143
176	0xbc3df1b0	-0.011593267
177	0x3ca39f10	0.019973308
178	0xbdc598a6	-0.09648256
179	0xbd89cf7e	-0.06729029
180	0x3d06881c	0.032844648
181	0x3d91415e	0.07092546
182	0x3df48e18	0.11941165
183	0xbccf58a8	-0.02531083
184	0xbcdc07c0	-0.026859164
185	0x3dbcf0b8	0.09225601
186	0x3d74d864	0.05977668
187	0x3dea33d2	0.11435665
188	0xbd760cf4	-0.060070947
189	0x3dcbf59e	0.09958957
190	0xbd516484	-0.05112125
191	0xbd65bb5c	-0.056086883
192	0xbd193498	-0.037403673
193	0xbd3c7804	-0.046012893
194	0xbd5adba8	-0.053432137
195	0xbdca5fb6	-0.09881537
196	0x3d8e0650	0.06934798
197	0x3d4266a4	0.047461167
198	0x3d991fcc	0.07476768
199	0xbddbb85c	-0.10728523
200	0x3a9ee200	0.0012121797
201	0x3df7b37a	0.12094779
202	0xbdd35598	-0.1031906
203	0x3dc6b94c	0.09703311
204	0xbc565d70	-0.013083801
205	0xbcc60710	-0.02417329
206	0xbd5c35d8	-0.053762287
207	0xbd2c1230	-0.042009532
208	0x3da116be	0.07865666
209	0xbd37c920	-0.044869542
210	0x3d24e4ac	0.04025714
211	0xbdbb9e8a	-0.09161098
212	0x3dc92452	0.09821381
213	0xbd7f1538	-0.062276095
214	0xbd26a634	-0.040685847
215	0xbde02154	-0.10943857
216	0xbde829b4	-0.11336079
217	0xbc505740	-0.0127161145
218	0x3ca30a48	0.019902363
219	0xbdf2f666	-0.11863403
220	0xbce52c10	-0.027975112
221	0x3d59de74	0.053190663
222	0xbd1fdc70	-0.039028585
223	0xbde18d50	-0.11013281
224	0x3d0f27d0	0.034950078
225	0xbdd3e4c0	-0.10346365
226	0x3c4b2f00	0.012401342
227	0x3db16f54	0.08663812
228	0xbdbb744c	-0.09153041
229	0xbd943924	-0.07237461
230	0x3d463360	0.04838884
231	0xbd01476c	-0.031562254
232	0x3dbcd696	0.092206165
233	0xbbfd9c00	-0.007739544
234	0x3da5c0e8	0.080934346
235	0x3bd49a00	0.006488085
236	0xbd6c37f4	-0.05767055
237	0xbd20f978	-0.039300412
238	0x3dea3162	0.114352
239	0xbcff42c0	-0.031159759
240	0xbc66f230	-0.014095828
241	0xbc5e45a0	-0.013566405
242	0xbd9317a4	-0.071822435
243	0x3de365b2	0.11103381
244	0xbdf7c2a2	-0.1209767
245	0xbb8b90e0	-0.004259214
246	0xbd5443bc	-0.05182241
247	0x3df24456	0.1182944
248	0xbc0660d0	-0.008201793
249	0x3cbc83c8	0.023012057
250	0x3de41e60	0.11138606
251	0xbdf5beee	-0.119993076
252	0x3cd202a0	0.025636017
253	0x3c1750c0	0.009235561
254	0x3d99ed22	0.075159326
255	0x3d8e7166	0.06955223

convs.1.convs.<subject___has_region___region>.lin_l.bias f4 [64]
0	0x3dc81df8	0.09771341
1	0xbcfb4910	-0.030674487
2	0x3cc44d58	0.023962662
3	0xbdb6aab0	-0.08919275
4	0xbdaa59e6	-0.08317928
5	0x3ca3a980	0.019978285
6	0x3dcbcbb0	0.0995096
7	0xbb0d5e00	-0.002157092
8	0xbdc0da56	-0.09416644
9	0x3d0fb5e0	0.03508556
10	0xbdc4fa4e	-0.09618054
11	0xbdb79748	-0.089644015
12	0xbda236d6	-0.079206154
13	0x3dd96342	0.10614635
14	0xbc8ee7b0	-0.017444462
15	0x3c438270	0.011932954
16	0xbd765a7c	-0.060144886
17	0xbbddd540	-0.006769806
18	0x3cb4cc40	0.02207005
19	0xbdc8afca	-0.09799154
20	0xbcb5c1a8	-0.022187069
21	0xbd8dc490	-0.06922257
22	0x3b10b600	0.0022081137
23	0xbd621420	-0.055194974
24	0xbdd761e2	-0.105167165
25	0x3d880570	0.06641662
26	0xbd84d74a	-0.06486376
27	0x3cd5cfa8	0.026099995
28	0x3de7bb4a	0.113150194
29	0xbd2539c4	-0.040338293
30	0xbbcaaf60	-0.006185457
31	0xbcd85ca8	-0.02641137
32	0xbd69ba38	-0.057062358
33	0xbdabcb68	-0.08388406
34	0xbc88eeb8	-0.016715392
35	0xbde912f4	-0.11380568
36	0xbdb5e3b2	-0.0888132
37	0x3cb60140	0.022217393
38	0xbdadaec6	-0.08480601
39	0x3d1d4414	0.038395002
40	0x3ddbe34a	0.10736711
41	0xbbd91840	-0.0066252053
42	0xbd376514	-0.04477413
43	0x3d70c3a4	0.058780327
44	0x3b950a00	0.0045483112
45	0xbcbd0230	-0.023072332
46	0xbdb50764	-0.088393
47	0x3d5a8460	0.0533489
48	0x3ccbcab0	0.024876922
49	0x3de5dc70	0.11223686
50	0xbd8d3214	-0.06894317
51	0xbde6558c	-0.112467855
52	0x3d0a52e0	0.033770442
53	0x3df57fae	0.119872436
54	0xbdfe5762	-0.12419011
55	0x3d7d6734	0.061866
56	0x3d1cfbb8	0.038325995
57	0x3d4505f8	0.048101395
58	0x3d020d2c	0.031750843
59	0xbd961d44	-0.07329801
60	0x3df0bd72	0.11754884
61	0x3dae968e	0.0852481
62	0xbd7916b4	-0.060812667
63	0x3d265ec4	0.04061772
